style_transfer/cartoongan/pretrained_weights/hosoda/conv04_1.bias.npy (npy, 1152 bytes, 1 tensors)

array f4 [256]
-1.261236e-09 -3.7392714e-10 -1.5811021e-09 7.374893e-10 9.572806e-10 1.8630972e-09 1.7379105e-09 -2.0255921e-09
4.919111e-09 9.374523e-10 1.4998558e-10 1.4509661e-09 4.095901e-11 -1.6667339e-09 -1.0898031e-09 1.8005677e-08
1.0561763e-09 6.0070005e-10 1.12232e-09 1.8477145e-09 -1.5997169e-10 -4.919548e-09 2.1797597e-09 -1.9299067e-10
4.0483203e-10 4.9507193e-10 -1.1188894e-09 3.519207e-10 -9.628253e-10 -3.369501e-10 1.0912383e-09 -3.368976e-09
5.997477e-09 -1.5578375e-09 -1.6682951e-09 2.0621251e-09 5.229361e-10 3.7984563e-10 -3.1456928e-09 -1.0625927e-09
-3.4828207e-09 1.1954605e-09 -2.0389765e-09 3.530054e-10 -1.0609241e-09 2.2477415e-09 2.7392375e-09 -8.222805e-10
4.0548804e-09 3.0407836e-09 -7.4550255e-10 1.4148734e-09 6.152371e-10 1.0622301e-09 9.2484626e-10 2.9768735e-10
-8.9274943e-10 1.3817836e-10 -2.8394131e-09 -1.2533674e-10 -3.6662895e-09 -1.38303076e-11 -6.1523847e-10 3.828909e-09
-8.238937e-10 -4.947421e-10 6.370752e-10 -2.6137252e-09 -4.2696266e-10 1.1826047e-10 -7.244436e-09 2.1616613e-09
9.794655e-10 1.1296379e-10 4.516129e-10 1.1372014e-09 2.2856124e-09 3.1515707e-10 -2.280563e-09 -2.852361e-09
1.9319586e-09 1.94127e-09 -1.8054991e-09 1.8868753e-09 4.989465e-09 -1.0933542e-09 1.1135597e-10 2.1983886e-09
1.5613466e-09 -2.452961e-09 5.3546084e-10 3.2787983e-10 -4.735301e-09 -7.616662e-11 3.3834673e-09 -2.910446e-09
9.800432e-10 2.2129747e-09 -7.8209333e-10 -7.4193796e-10 -1.9230435e-09 6.905194e-10 -3.6581476e-09 -1.1253509e-09
3.0823e-10 -1.2638683e-09 4.8892645e-10 -2.1632507e-09 -1.0147602e-09 2.1860677e-10 1.3523853e-09 8.4424334e-10
1.5462179e-09 -4.225849e-09 2.3268787e-09 -6.5234526e-11 -8.068466e-10 4.8276755e-10 -1.6600984e-11 -2.2227926e-10
-9.294957e-10 3.2450634e-10 3.5484775e-09 -2.5773508e-09 -8.7929597e-10 9.615806e-10 3.327505e-10 2.5454502e-10
1.7944138e-10 1.5723406e-09 -3.6490552e-10 7.3024406e-11 1.1893391e-09 6.234843e-10 -4.8244794e-11 -2.6543723e-10
3.1496843e-09 -1.253934e-09 5.5438865e-10 2.569031e-09 -1.5963417e-09 -1.6761612e-10 3.9386303e-09 9.0292424e-10
-8.031886e-10 -1.3786233e-09 -1.974571e-09 -2.0226658e-09 1.7404527e-11 -8.608227e-10 8.3779583e-10 -7.54228e-10
-1.2148468e-10 -2.4494364e-09 2.4645408e-10 4.682466e-10 -1.5744778e-09 -4.3650226e-09 4.4264596e-09 3.8443786e-09
2.5313398e-09 -8.7196045e-10 -2.463287e-10 -1.2490997e-09 -1.2288148e-09 7.197809e-10 -3.1060594e-09 -1.5999777e-09
-1.5877565e-09 -1.2954713e-09 -1.0937124e-10 -3.2765546e-10 -1.7518977e-09 4.7499443e-10 4.482467e-09 -4.07927e-10
-8.097562e-10 1.3127112e-09 -6.2668126e-10 1.5676962e-09 -2.0231978e-09 3.4760377e-09 -2.4534828e-09 8.6424545e-10
1.4980284e-09 4.282897e-10 -4.7718034e-09 -1.1876158e-09 -1.6977639e-09 1.7720529e-10 -1.5206188e-10 2.1012418e-09
4.004694e-10 9.58061e-10 5.968707e-09 1.0167593e-09 -7.663675e-09 7.961884e-10 -1.204396e-09 2.070362e-09
-1.7942426e-09 2.9031863e-10 7.107894e-10 -1.0882495e-09 -1.0490901e-09 -1.193632e-09 -2.842118e-09 -1.5527246e-09
1.6303924e-09 1.3246874e-09 3.3580385e-09 2.2152429e-09 1.3463755e-09 -1.7054517e-09 -8.210373e-10 -5.402514e-09
2.7292146e-10 -3.4588457e-09 2.4010283e-10 -2.0690547e-09 1.6219863e-09 1.8486895e-09 -8.282594e-10 -3.3310148e-09
1.089175e-09 1.0529535e-09 1.8322616e-10 8.095338e-10 1.2026387e-09 -3.014582e-09 1.5769802e-10 -3.7636325e-10
3.513058e-09 9.1627467e-10 -6.640405e-11 5.666644e-09 1.4465774e-09 3.1427807e-09 -2.8159924e-10 -9.838255e-10
2.1924282e-09 -1.9901796e-09 -3.0791285e-09 -7.4528544e-10 -2.7134202e-09 -1.4948829e-09 -8.9058627e-10 -4.9160687e-10
-2.133513e-09 -4.3905604e-10 -8.1803564e-10 2.439153e-10 3.983521e-09 1.1687659e-10 -6.293418e-09 1.7875858e-10
00000000: cc57 adb0 9191 cdaf 164e d9b0 32b8 4a30
00000010: 5191 8330 f407 0031 4adb ee30 9832 0bb1
00000020: f504 a931 acd7 8030 30e9 242f 556b c730
00000030: bf23 342e fc12 e5b0 0ac8 95b0 e7aa 9a32
00000040: e628 9130 821e 2530 2040 9a30 adf2 fd30
00000050: 07e4 2faf cd08 a9b1 bdca 1531 0b32 54af
00000060: 0b8f de2f 9715 0830 6cc7 99b0 6f78 c12f
00000070: 6754 84b0 833d b9af 89fa 9530 a783 67b1
00000080: 5e12 ce31 891b d6b0 ea49 e5b0 4ab5 0d31
00000090: 5bbe 0f30 85d2 d02f 9d2b 58b1 a80a 92b0
000000a0: 6e56 6fb1 874d a430 0e1e 0cb1 1811 c22f
000000b0: f3cf 91b0 b076 1a31 2d3d 3c31 d906 62b0
000000c0: 1b53 8b31 08f6 5031 14ec 4cb0 6f75 c230
000000d0: 761d 2930 e6fd 9130 4538 7e30 c5a7 a32f
000000e0: a865 75b0 c0ed 172f 7c1f 43b1 28cf 09af
000000f0: 0cf2 7bb1 2b4e 73ad 8f1d 29b0 718f 8331
00000100: 5d78 62b0 61fe 07b0 2f1e 2f30 249d 33b1
00000110: a7b9 eaaf 5d07 022f bcea f8b1 598c 1431
00000120: e19d 8630 f668 f82e de46 f82f b84b 9c30
00000130: eb10 1d31 6a42 ad2f 17b8 1cb1 4403 44b1
00000140: 60c3 0431 2f67 0531 5a25 f8b0 43aa 0131
00000150: cc6f ab31 fb44 96b0 d7df f42e 7612 1731
00000160: 0097 d630 f290 28b1 b52f 1330 fc40 b42f
00000170: 26b4 a2b1 ff7d a7ae 9682 6831 1c01 48b1
00000180: 34b2 8630 1013 1831 edfa 56b0 3ef1 4bb0
00000190: 8a26 04b1 fcce 3d30 d062 7bb1 c4aa 9ab0
000001a0: 8473 a92f 6ab4 adb0 2465 0630 4fa8 14b1
000001b0: b377 8bb0 565c 702f d4de b930 5810 6830
000001c0: b582 d430 f632 91b1 e2e6 1f31 c673 8fae
000001d0: c8c8 5db0 bfb3 0430 1806 92ad 0d66 74af
000001e0: 727f 7fb0 3566 b22f 7ad9 7331 3c1d 31b1
000001f0: f4b2 71b0 9c28 8430 78ee b62f 07f0 8b2f
00000200: 424c 452f d119 d830 e39b c8af 1695 a02e
00000210: 2676 a330 cf61 2b30 cf2e 54ae f8ec 91af
00000220: d571 5831 e156 acb0 a263 1830 df8a 3031
00000230: 4866 dbb0 be4b 38af 8f54 8731 a531 7830
00000240: 60c7 5cb0 ff79 bdb0 05b1 07b1 1dff 0ab1
00000250: 8317 992d 039f 6cb0 a44a 6630 1452 4fb0
00000260: e692 05af f152 28b1 547d 872f edb5 0030
00000270: 0365 d8b0 25fb 95b1 8d17 9831 8317 8431
00000280: cdf3 2d31 c3ae 6fb0 af6b 87af caac abb0
00000290: 14e3 a8b0 14da 4530 6072 55b1 36e6 dbb0
000002a0: 3738 dab0 580c b2b0 8982 f0ae 6821 b4af
000002b0: 6cc7 f0b0 c390 0230 3204 9a31 9f42 e0af
000002c0: 8795 5eb0 eb6a b430 c642 2cb0 6876 d730
000002d0: 7908 0bb1 1adf 6e31 209a 28b1 de8f 6d30
000002e0: 30e3 cd30 6b74 eb2f 3af5 a3b1 8439 a3b0
000002f0: c256 e9b0 dbd6 422f 9d31 27af 7065 1031
00000300: 0f29 dc2f c6ac 8330 4d15 cd31 0abe 8b30
00000310: 33a9 03b2 c7da 5a30 eb87 a5b0 3246 0e31
00000320: 4d99 f6b0 b79a 9f2f 5c61 4330 6091 95b0
00000330: 942f 90b0 310d a4b0 124f 43b1 a467 d5b0
00000340: 5514 e030 4b10 b630 3dc3 6631 f73a 1831
00000350: 600b b930 3f65 eab0 5daf 61b0 04a1 b9b1
00000360: 480a 962f a8b0 6db1 78ff 832f 322f 0eb1
00000370: 92ec de30 fb14 fe30 93ab 63b0 d5e7 64b1
00000380: f0b1 9530 82b7 9030 9475 492f e085 5e30
00000390: 164a a530 1629 4fb1 0c64 2d2f 6be8 ceaf
000003a0: 5f6a 7131 19dd 7b30 2806 92ae 54b4 c231
000003b0: ebd0 c630 62f8 5731 92cf 9aaf 4837 87b0
000003c0: 9ba9 1631 9cc3 08b1 9a98 53b1 cddc 4cb0
000003d0: fe76 3ab1 8474 cdb0 70cd 74b0 c221 07b0
000003e0: 289d 12b1 a55f f1af 24dc 60b0 0718 862f
000003f0: 6cdf 8831 d681 002f 7d3d d8b1 118c 442f
