style_transfer/cartoongan/pretrained_weights/hosoda/conv10_2.bias.npy (npy, 1152 bytes, 1 tensors)

array f4 [256]
00000000: 3964 0632 0715 0d31 775a 94b1 58b6 79af
00000010: b193 b531 36cb 28b1 246c ad31 d16c 4a31
00000020: be34 01b2 87b7 8230 b63a 1531 16be dfaf
00000030: 64fb b830 ebe4 a331 1f68 23ae bd96 1eb1
00000040: 282d 8b2f edc8 abae 2115 cc2f 509c e2ad
00000050: 2919 d430 efb4 fcaf 41d8 1431 9847 7030
00000060: 3e3e 0d30 12e3 3031 beb8 a6b0 33f2 9030
00000070: f6b4 4330 4b62 8931 3407 1d30 a94b 2d31
00000080: 2c79 9731 e96c 87b0 ad04 8f31 5665 6530
00000090: 87e9 0bb0 ee2b 8db0 05a4 beaf b0b2 3530
000000a0: 93b5 2db1 160b 7dae d4c4 a0b1 2a36 5ab1
000000b0: 609e e730 5bd6 18b1 2403 76b1 94c3 2cb0
000000c0: 584b b1b0 efc5 7e2e 66e4 6bb1 ea7d 87b1
000000d0: 6e4c 3e31 bb47 3d30 6059 ec30 d286 04b1
000000e0: 051e 2fb0 96d5 2731 65ec 2931 52f3 2530
000000f0: c3e0 5931 0ed3 d1b0 da24 33b1 6fc6 1130
00000100: 0821 6f31 c7b7 0c30 10f3 0031 2d10 4c30
00000110: 6e1e f1af ce5d 6230 7701 75b0 45bb ab2f
00000120: 9079 7231 4a42 c330 a204 a5b1 4a7e 2caf
00000130: 7a8e 122f da6b 11b1 4632 1b32 fd56 bb30
00000140: b4f6 d130 0b99 3bb0 db85 fe2f 2b72 e4b0
00000150: 8d22 93af 1429 4fb1 013e 3d31 7527 46af
00000160: 67fa e22f 651b 35b0 8dfa 4431 04c5 afb1
00000170: 2c54 d9b1 8f48 ba30 5839 cfb1 3288 31af
00000180: 3f1f 89af 0e17 83b0 a4fe c12f e975 cab0
00000190: b0f1 a330 708d 442f a84a 3c31 1371 25af
000001a0: 3bb1 862f 1140 4bb0 064f eaaf e0b0 4630
000001b0: 62f3 2330 850f 6430 f01c 09ae bacf 5c31
000001c0: 8bf4 ccb0 e7a7 61b1 59c3 6d2f e263 c3b0
000001d0: cf4a 23b1 b743 4d30 1eb1 bc2f ecd5 abb0
000001e0: cd72 1eaf dcab 1430 4e0b 3bb1 d68e 84b0
000001f0: 70a9 6131 c6ba 9f30 e039 0ead 3166 efaf
00000200: 7081 892f c719 5e30 8a20 1c30 05e1 c830
00000210: 008e 54b0 a7ca 5930 f2d6 8f30 bf61 63b1
00000220: 0277 a0b0 bff2 33b1 376d 83af 36df cd31
00000230: bc34 56b0 c06e 06b0 d177 a3af 894f 0131
00000240: 7ef2 cc31 4a5b 9731 a153 4631 19db 08b1
00000250: 491b 60b0 a63c 64b0 6099 922f b4c9 f7ad
00000260: 125a 28b0 64ef 2531 8dec 8e2f 27b2 7b31
00000270: 56d7 1ab0 472e c0ae 9fcb d630 18c9 99b0
00000280: a3a5 0230 1c42 5d2f a834 2d31 0382 aeb1
00000290: 320d e9b1 8d69 40b1 ee6d a8b0 450c 25b0
000002a0: fe68 8831 972a 8c2f ae89 4db1 e4d2 a3b1
000002b0: d37b 1530 d911 8cb1 6b44 51ac 3520 8a31
000002c0: 3600 aeae b638 57b0 d3ae 6131 cae1 da31
000002d0: 7dcf f3b0 966b 2830 4ebe fd2f 607c 5fb0
000002e0: bc0b 0431 f476 cab0 07c5 5bb0 ee83 e9b0
000002f0: b715 c0b0 f92c bdb0 373e 8eb1 4ad8 0430
00000300: 2c0c 0a30 77c9 51b1 3e17 b4b0 5ffe 0d31
00000310: ea6d c3b1 bb64 8431 c220 f1b0 f977 3db1
00000320: e2d5 54b0 edf2 f4b0 bc6c b5b0 87dc 70b0
00000330: 9cfd b7b1 cfbe 4bad 1459 0a31 9e82 83b1
00000340: 2c75 1b31 5585 9730 bc91 2130 3bba 2731
00000350: f900 6430 ca22 6530 d990 8c30 1434 142f
00000360: 3a08 1430 75e6 d9ae 0885 182e aab1 692f
00000370: 5354 29b0 52e8 09b1 99a3 13b1 811d 6c2e
00000380: 56f5 91af 5bc4 82af 2b51 6930 936a dd30
00000390: afbc 4cb0 3a4a 67b1 c644 10b1 2f02 a7b0
000003a0: 4457 34b1 5b0b f2ae cd4f 6130 4807 d62e
000003b0: 3941 1b31 b382 ea2f cfc8 87b1 7f55 80ae
000003c0: c734 1630 24d2 3231 bca9 632f 3bd1 5eb0
000003d0: 6fad 18b1 d49a 4bb0 3581 27b1 f347 2f31
000003e0: 66d7 5c2f 7125 6431 d472 ad2f 73eb 4930
000003f0: 7564 a830 2ec8 18b0 cedc 83b1 6178 3bb1
7.822615e-09 2.0530153e-09 -4.3176516e-09 -2.27112e-10 5.284584e-09 -2.456273e-09 5.047257e-09 2.9456724e-09
-7.52078e-09 9.510907e-10 2.1715727e-09 -4.0698528e-10 1.3459212e-09 4.7699493e-09 -3.7154387e-11 -2.307771e-09
2.5316038e-10 -7.811871e-11 3.7122397e-10 -2.5762642e-11 1.5432181e-09 -4.5967094e-10 2.165976e-09 8.741323e-10
5.138395e-10 2.5740445e-09 -1.2130597e-09 1.0546216e-09 7.119775e-10 3.9983994e-09 5.7126504e-10 2.5217821e-09
4.408454e-09 -9.853497e-10 4.1623793e-09 8.345372e-10 -5.089977e-10 -1.0271586e-09 -3.4677342e-10 6.6101347e-10
-2.5278026e-09 -5.7535386e-11 -4.6789896e-09 -3.1753964e-09 1.6852475e-09 -2.2240758e-09 -3.5799497e-09 -6.285117e-10
-1.2899859e-09 5.7928714e-11 -3.432683e-09 -3.943332e-09 2.7692084e-09 6.8859735e-10 1.7196662e-09 -1.9285165e-09
-6.370729e-10 2.4423108e-09 2.4727111e-09 6.037243e-10 3.1705418e-09 -1.5266737e-09 -2.6068876e-09 5.3032684e-10
3.4797853e-09 5.1192867e-10 1.8764617e-09 7.4237755e-10 -4.3859266e-10 8.2351626e-10 -8.913256e-10 3.1237782e-10
3.5284735e-09 1.4206958e-09 -4.8026587e-09 -1.5688176e-10 1.332924e-10 -2.1161584e-09 9.033618e-09 1.3630764e-09
1.5276869e-09 -6.824769e-10 4.629744e-10 -1.6621632e-09 -2.6763694e-10 -3.0145815e-09 2.7538365e-09 -1.8022013e-10
4.1287082e-10 -6.5886346e-10 2.8664175e-09 -5.1155684e-09 -6.3251004e-09 1.3553904e-09 -6.031012e-09 -1.6146443e-10
-2.4942357e-10 -9.538057e-10 3.5287429e-10 -1.4730946e-09 1.1928503e-09 1.7876345e-10 2.7400038e-09 -1.5046835e-10
2.4500388e-10 -7.3942014e-10 -4.2620502e-10 7.2283335e-10 5.964492e-10 8.296797e-10 -3.1175895e-11 3.2132292e-09
-1.4912457e-09 -3.283725e-09 2.1624426e-10 -1.4216506e-09 -2.3762146e-09 7.4674794e-10 3.432285e-10 -1.2502688e-09
-1.4410802e-10 5.4086313e-10 -2.7218507e-09 -9.64486e-10 3.2838123e-09 1.1621857e-09 -8.084616e-12 -4.3546458e-10
2.5012126e-10 8.079976e-10 5.679871e-10 1.461587e-09 -7.7326945e-10 7.9232126e-10 1.046571e-09 -3.308841e-09
-1.1675356e-09 -2.6185913e-09 -2.3906363e-10 5.9916614e-09 -7.7927687e-10 -4.89063e-10 -2.9734662e-10 1.8817181e-09
5.9647496e-09 4.4050568e-09 2.886033e-09 -1.9915147e-09 -8.15295e-10 -8.3032103e-10 2.6666225e-10 -2.8170223e-11
-6.124604e-10 2.4146738e-09 2.599773e-10 3.6626575e-09 -5.6330884e-10 -8.7393696e-11 1.5628422e-09 -1.1189369e-09
4.752911e-10 2.012332e-10 2.5204745e-09 -5.078847e-09 -6.7826926e-09 -2.7999676e-09 -1.2254853e-09 -6.0044086e-10
3.970057e-09 2.5496114e-10 -2.9909688e-09 -4.7679e-09 5.438185e-10 -4.0765653e-09 -2.9738666e-12 4.01999e-09
-7.9126414e-11 -7.8297135e-10 3.2841185e-09 6.3703043e-09 -1.7739549e-09 6.127093e-10 4.6155652e-10 -8.1303675e-10
1.9215198e-09 -1.4731243e-09 -7.995173e-10 -1.6990478e-09 -1.397601e-09 -1.3764342e-09 -4.139817e-09 4.8328685e-10
5.0221405e-10 -3.0528022e-09 -1.310333e-09 2.0662794e-09 -5.6877427e-09 3.8531573e-09 -1.7544368e-09 -2.7571316e-09
-7.7429096e-10 -1.782238e-09 -1.3200387e-09 -8.762488e-10 -5.354833e-09 -1.1581582e-11 2.0132278e-09 -3.8274512e-09
2.2622073e-09 1.1024591e-09 5.877856e-10 2.4407558e-09 8.29473e-10 8.3359153e-10 1.0227509e-09 1.3479023e-10
5.3853777e-10 -9.908955e-11 3.4678954e-11 2.1254346e-10 -6.1601674e-10 -2.0068183e-09 -2.148431e-09 5.3686392e-11
-2.6549668e-10 -2.378638e-10 8.4880253e-10 1.6110157e-09 -7.4482903e-10 -3.3657117e-09 -2.099385e-09 -1.215147e-09
-2.6243052e-09 -1.1006903e-10 8.1967927e-10 9.732887e-11 2.2592543e-09 4.265722e-10 -3.9518464e-09 -5.835953e-11
5.4644683e-10 2.602186e-09 2.0705831e-10 -8.1060464e-10 -2.2217497e-09 -7.4070994e-10 -2.4375144e-09 2.550675e-09
2.0085408e-10 3.319965e-09 3.1550107e-10 7.345797e-10 1.225216e-09 -5.558175e-10 -3.8377044e-09 -2.728051e-09
