style_transfer/cartoongan/pretrained_weights/hosoda/conv02_2.weight.npy (npy, 589952 bytes, 1 tensors)

array f4 [128, 128, 3, 3]
0	0x3c03fedf	0.0080563715
1	0x3c2a11ae	0.010380192
2	0xbc703f4c	-0.014663529
3	0x3c12b731	0.008954809
4	0x3b0e652e	0.0021727788
5	0x3c8f295a	0.017475773
6	0xbc03d803	-0.008047107
7	0xbb9de143	-0.004818113
8	0x3d03d9a2	0.032189973
9	0x3cabccb5	0.020971635
10	0xbc358ac0	-0.011080444
11	0x3d030fd3	0.031997513
12	0xbd63d503	-0.055623066
13	0xbc0f57c3	-0.008748951
14	0xbd4bd478	-0.049763173
15	0xbc2919e8	-0.010321118
16	0xbcd8da25	-0.026471207
17	0xbc6733d8	-0.014111482
18	0xbc28c4dd	-0.010300842
19	0x3c30fb54	0.010802109
20	0xbb79227d	-0.0038014941
21	0x3c2a1f86	0.010383492
22	0x3c644e6e	0.013934715
23	0x3cb35e7e	0.021895643
24	0xbca24303	-0.019807344
25	0x3c54544a	0.012959549
26	0xbbe80251	-0.0070803543
27	0xbc65f485	-0.014035349
28	0xbd3a1571	-0.045430604
29	0xbcace080	-0.021103144
30	0xbcf9e902	-0.030506615
31	0xbd074514	-0.033024862
32	0x3c120992	0.008913415
33	0x3c9d452d	0.019198025
34	0xbbe307d1	-0.006928422
35	0xbc296396	-0.010338685
36	0x3bc0df5b	0.005886001
37	0xbb4b625c	-0.0031033969
38	0x3ccb580a	0.024822254
39	0xbb0e0403	-0.0021669872
40	0x3ccbca4d	0.024876738
41	0x3b18a9a6	0.0023294478
42	0x3c1d615e	0.009605734
43	0xbc7979e6	-0.015226817
44	0x3cfdee0d	0.0309973
45	0x3b97e843	0.004635842
46	0xbbc015ad	-0.005861959
47	0xbc2bd723	-0.010488304
48	0x3ce971f3	0.028496718
49	0x3ca23a8d	0.01980331
50	0xbb86a335	-0.0041088113
51	0xbd414990	-0.047189295
52	0xbaddafa3	-0.0016913306
53	0xbc029940	-0.007971108
54	0x3d667c12	0.056270666
55	0xbba18a71	-0.0049298336
56	0xbcc13ba5	-0.023588011
57	0xbcb6a25a	-0.022294212
58	0xbc75fb13	-0.015013474
59	0x3c202e0a	0.009776602
60	0xbbb2ba76	-0.005454357
61	0xbc5f8ccf	-0.013644411
62	0xbc6d0bb7	-0.014468125
63	0xbcc8cf1b	-0.024512818
64	0x3bd43ccf	0.0064769755
65	0xba490c07	-0.0007669334
66	0x3ba797e1	0.005114541
67	0xbd02d920	-0.031945348
68	0xbc978dfb	-0.018500319
69	0xbbbd3a4b	-0.0057747713
70	0x3ce6aa24	0.028157301
71	0x3a5d53e7	0.00084429834
72	0x3acbf495	0.0015560562
73	0x3c19b27d	0.009380934
74	0x3c9a0f1c	0.018806033
75	0x3c590bb6	0.013247421
76	0x3d60bac7	0.054865625
77	0xbc6a6eec	-0.014308672
78	0xbca4da6e	-0.020123687
79	0x39d3609c	0.00040317036
80	0xb804e847	-3.1687578e-05
81	0x3b50715c	0.0031805849
82	0xbc5a9340	-0.013340771
83	0x3cc595bf	0.024119256
84	0x3cb4c28d	0.022065425
85	0x3cb8172d	0.022471989
86	0xbd19989f	-0.037499066
87	0x3c007bef	0.007842048
88	0x3d3c9a3a	0.04604552
89	0x3d272194	0.040803507
90	0xbcb6f9e2	-0.02233595
91	0xbbe7f094	-0.0070782397
92	0xbb31065b	-0.0027011845
93	0x3b399020	0.0028314665
94	0xbc7a1a99	-0.01526513
95	0xbca3928f	-0.019967346
96	0xbbf6696e	-0.0075198924
97	0xbc44f2ed	-0.012020809
98	0xbc3fc579	-0.011704796
99	0xbcaf200c	-0.021377586
100	0xba46b1d5	-0.00075795996
101	0xbc21576c	-0.009847503
102	0xbcb6efb1	-0.02233109
103	0xbc22c087	-0.009933597
104	0x3aa113c5	0.0012289217
105	0x3b6b84aa	0.0035937228
106	0xbc1b4065	-0.009475802
107	0xbb8b2c91	-0.004247256
108	0xb93766cf	-0.00017490539
109	0xbaf3ab2b	-0.0018590441
110	0x3c711826	0.01471523
111	0xbbf9a307	-0.0076183113
112	0x3c897af3	0.01678226
113	0x3c85c1df	0.016327797
114	0xbca497d3	-0.020091927
115	0xbd0033db	-0.031299453
116	0xbce7f349	-0.02831425
117	0x3c973593	0.018458163
118	0x3caf131c	0.021371417
119	0x3cefe876	0.02928565
120	0xbc85cfaa	-0.016334374
121	0x3d2283d4	0.039676502
122	0x3bb8382d	0.005621931
123	0xbccf3a61	-0.025296392
124	0x3d0c3c22	0.034237035
125	0xbc95c21a	-0.018281031
126	0xbc790059	-0.015197837
127	0x3c95d051	0.01828781
128	0x3cf08fe5	0.02936549
129	0x3cc8e971	0.024525376
130	0x3ce875b1	0.028376432
131	0x3b1c6ef2	0.002386984
132	0xbcf126c8	-0.029437438
133	0xbd032c62	-0.03202475
134	0x3c09ed50	0.008418396
135	0xbc5852cc	-0.013203334
136	0x3d1dcd11	0.038525645
137	0xbd2fe974	-0.042947248
138	0xbc102fa8	-0.008800425
139	0xbcad9918	-0.021191165
140	0xbc45ff9d	-0.012084869
141	0xbc866c9b	-0.016409209
142	0xbb87d33a	-0.004145053
143	0xbd12af1c	-0.03581153
144	0x3cd3853b	0.025820365
145	0xbc8968e2	-0.016773645
146	0xbb4a95f4	-0.0030912133
147	0xbce2dfad	-0.027694548
148	0x3ca239db	0.019802978
149	0xbbc0a85c	-0.005879445
150	0x3cb366bc	0.021899574
151	0x3c3e1dcb	0.011603783
152	0x3cc7407d	0.024322743
153	0xbcee1dbb	-0.029066911
154	0xbce6060f	-0.02807906
155	0xbcc22f8e	-0.023704316
156	0x3c9f67a5	0.019458601
157	0x3b40aa28	0.0029398296
158	0x3cb2e32c	0.02183684
159	0x3c38feb0	0.011291191
160	0x3ca8045c	0.020509891
161	0xbc9909f5	-0.018681506
162	0xbc7eea35	-0.015558769
163	0xba906b71	-0.0011018348
164	0xbc50cb21	-0.012743742
165	0xbc843d44	-0.016142495
166	0xb92ff981	-0.00016782248
167	0x3cca1f64	0.024673171
168	0x3cc5ec17	0.024160428
169	0xbcbf1541	-0.023325564
170	0xbc26888c	-0.010164391
171	0x3d0fa9c9	0.03507403
172	0xbc497cfb	-0.012297864
173	0x3c4bd60f	0.012441172
174	0x3c356c4f	0.011073186
175	0xbce1ba06	-0.027554523
176	0x3d114fc7	0.035476472
177	0x3cb6824c	0.022278927
178	0xbce4f8cf	-0.027950672
179	0xbc81ab34	-0.015828706
180	0xbcbc6afa	-0.02300023
181	0xbc4341d0	-0.011917546
182	0xba894f35	-0.0010475876
183	0x3bdd9138	0.006761696
184	0x3bc25784	0.005930843
185	0x3bae4bd4	0.005319098
186	0xbbe9e629	-0.007138033
187	0xbc46efee	-0.012142165
188	0x3c010ac5	0.007876103
189	0xbd7215b9	-0.059102748
190	0x3c2b21a8	0.010445036
191	0xbc8fc698	-0.017550752
192	0xbb144b54	-0.0022627907
193	0x3c394cb6	0.011309793
194	0x3c337caf	0.01095502
195	0xbc4f9af1	-0.012671218
196	0xbb8a51c0	-0.004221171
197	0xbcf5f3db	-0.030023506
198	0x3c8ee1a4	0.017441578
199	0x3c16bf1c	0.009200837
200	0xb98ba5e6	-0.0002663575
201	0x3c61e98b	0.013788591
202	0xba188253	-0.00058177597
203	0x3cb0bec5	0.021575341
204	0xbd52ecf3	-0.051495504
205	0x3c4e1bcb	0.012579869
206	0x3c90b679	0.017665135
207	0xbca46ec1	-0.020072343
208	0x3c7588e2	0.014986249
209	0xbc525780	-0.012838244
210	0xbcfbb4a9	-0.030725794
211	0xbc47ac8d	-0.012187135
212	0xbc525ffe	-0.012840269
213	0xbce09ec7	-0.027419461
214	0x3c981553	0.018564856
215	0x3c23a3a4	0.009987745
216	0xbb33be3e	-0.0027426626
217	0xbc79cb6a	-0.015246252
218	0xbd458b80	-0.04822874
219	0x3c9d54f1	0.019205542
220	0xbc28ba10	-0.010298267
221	0x38fccdeb	0.000120546516
222	0xbb070454	-0.0020601945
223	0x3b9da28b	0.0048106364
224	0x3ce628c8	0.028095618
225	0xbc3f99cd	-0.011694384
226	0xb9913dd4	-0.0002770262
227	0xbca7a4fd	-0.020464415
228	0x3cbcba9b	0.0230382
229	0x3c254428	0.0100870505
230	0xbb333bf6	-0.0027348972
231	0xbcb0761f	-0.0215407
232	0xbb95009f	-0.004547193
233	0xbbcb401b	-0.0062027103
234	0xbb060fa2	-0.0020456095
235	0x3ba247f9	0.0049524275
236	0x3c6f0d60	0.014590591
237	0x3d0202dc	0.03174101
238	0xbd177af2	-0.036982484
239	0xbc95d4c0	-0.018289924
240	0x3bce74b7	0.0063005346
241	0x3bbccc8f	0.00576169
242	0x3c4da22a	0.01255087
243	0x3c99e1c9	0.01878442
244	0xbcea8c65	-0.028631398
245	0xbc8075fb	-0.015681257
246	0x3b6b8933	0.0035939931
247	0xbd0618c1	-0.03273845
248	0xbc89f590	-0.016840726
249	0x3baa1507	0.005190495
250	0xbd15f0c7	-0.036606576
251	0x3ceed194	0.029152669
252	0x3d05f916	0.03270825
253	0x3c9f8284	0.019471414
254	0xbbabdaad	-0.005244574
255	0xbc325739	-0.010885053
