style_transfer/cartoongan/pretrained_weights/hosoda/deconv01_2.weight.npy (npy, 589952 bytes, 1 tensors)

array f4 [128, 128, 3, 3]
0.00071308314 -0.009717407 0.003526092 -0.0051264795 0.009688545 -0.031885345 -0.00089046627 0.015647952
0.031022187 0.004254304 0.0072371857 0.010252069 -0.019515993 -0.024912065 0.037609346 0.018697375
-0.023379115 0.018724898 -0.034778412 -0.004369407 0.014570273 -0.0016438441 -0.00549137 0.009567459
0.012465682 -0.007207623 0.0016338277 -0.01465209 -0.052694283 0.031095095 -0.02426458 -0.0076378738
-0.024603289 0.0043860157 -0.0013570716 0.0056619593 0.00044877626 0.00047572755 -0.0047683013 -0.020511305
-0.026941737 0.0062886863 -0.0019039068 0.018345067 0.0059127687 0.0069224653 -0.018603852 -0.011080576
-0.005965815 0.0032958619 -0.021532577 -0.0028229451 0.017841682 -0.017639214 -0.015523588 0.007743762
0.03759849 0.025007617 0.0035873698 0.028210863 0.0011646522 -0.0033128527 0.017913446 0.015073824
0.007273988 -0.03470822 0.032496404 0.053527575 -0.024773113 0.0038914515 -0.0052967365 -0.017703874
-0.014753821 -0.008392075 -0.0020847886 0.035660736 -0.030129848 -0.02014704 -0.002366413 -0.016910523
0.0070092743 0.018287778 -0.005818789 -0.004717243 -0.02609028 -0.014138663 -0.034139 0.0019834032
-0.005308251 0.028490674 -0.010970011 0.008650746 0.026469836 -0.009765481 -0.022598492 0.021830093
-0.012909775 -0.018501807 0.034017175 0.009895775 -0.01900829 -0.019848 0.0008953337 -0.039751615
-0.0107464595 0.0017393015 0.005638346 -0.00730872 0.0026967165 0.011156723 0.004842628 -0.006411098
0.0398893 0.0053385952 0.018924741 0.0002845006 -0.00051351346 -0.02654131 0.019050935 -0.000727512
0.016095832 -0.024529992 -0.00083436904 0.0014415346 0.012359904 0.0135466745 0.029932383 0.019790577
0.019066306 -0.027538817 0.013907671 -0.027536454 -0.025838302 0.014494726 0.012961428 -0.00970396
-0.00370666 -0.019258846 0.023811728 -0.020215418 0.01016258 -0.008632155 -0.0021584523 -0.0038023826
-0.009113917 0.043130253 -0.019244991 -0.03130431 0.05524648 0.015796866 0.024141164 -0.0011791305
-0.019716794 -0.00020037011 -0.048965998 -0.016862815 0.045004006 -0.022327509 -0.0022999377 -0.041148238
-0.02304677 0.005970054 -0.03968486 0.03482429 0.0017102626 0.03456159 0.011919972 -0.009296139
0.023622185 0.00709264 0.019802824 0.006633701 0.00951937 0.019548027 0.029450279 0.041244518
-0.00538282 -0.01357711 0.010663183 -0.02561279 0.026028592 0.0037255783 -0.0040362757 0.016694918
-0.010418592 0.026594903 -0.005895434 -0.021188632 0.004557925 0.008521254 0.00025218364 0.007268068
0.02534896 0.014633231 -0.0016821092 0.013184483 0.0057926625 -0.038121983 -0.015384263 0.02782877
0.0044463654 0.009794595 0.04310318 -0.0017548808 0.019580577 -0.011151128 0.013856498 -0.009006368
-0.018471545 -0.0010103912 0.00085307076 -0.034394644 0.00074078323 0.008657271 -0.018903585 0.025078299
-0.0061365347 -0.018890092 0.0031488708 0.029913671 -0.057056647 -0.0096165165 -0.0050837668 0.032183252
0.0054382007 0.0066908933 0.018323543 0.012021023 -0.000990257 -0.024740623 0.0049571083 -0.01172866
-0.013043375 0.024785094 -0.008320493 0.007635993 0.0018217919 0.032786276 0.024942162 -0.0020844406
-0.0004199093 -0.010250922 0.0006405408 -0.014615415 0.029060021 0.012243907 0.0025152175 0.009801984
-0.034513064 -0.036418524 0.050886318 0.0028718323 0.022045387 -0.032384977 -0.017408982 0.026666956
00000000: 33ee 3a3a c235 1fbc 0216 673b 07fc a7bb
00000010: b4bc 1e3c 359a 02bd 2e6e 69ba 2230 803c
00000020: 3e22 fe3c b067 8b3b ea25 ed3b 4bf8 273c
00000030: 01e0 9fbc 6314 ccbc 420c 1a3d 3d2b 993c
00000040: 8f85 bfbc f564 993c cf73 0ebd 3e2d 8fbb
00000050: 28b8 6e3c 4176 d7ba f3f0 b3bb d5c0 1c3c
00000060: dc3c 4c3c ed2d ecbb 2926 d63a 520f 70bc
00000070: f6d5 57bd 24bb fe3c 83c6 c6bc 2147 fabb
00000080: d68c c9bc 91b8 8f3b c4df b1ba f587 b93b
00000090: bb49 eb39 126b f939 693f 9cbb 5307 a8bc
000000a0: ebb4 dcbc 5311 ce3b 838c f9ba 6548 963c
000000b0: e6bf c13b d9d5 e23b 1b67 98bc 4e8b 35bc
000000c0: e27c c3bb 63ff 573b 1665 b0bc 2901 39bb
000000d0: b828 923c 1d80 90bc a656 7ebc 62bf fd3b
000000e0: e000 1a3d c6dc cc3c 141a 6b3b 781a e73c
000000f0: 3ea7 983a 721c 59bb 38bf 923c 33f8 763c
00000100: a25a ee3b 352a 0ebd f31a 053d bb3f 5b3d
00000110: fcf0 cabc b907 7f3b 3f90 adbb b707 91bc
00000120: 03ba 71bc ea7e 09bc f3a0 08bb fe10 123d
00000130: dfd2 f6bc 680b a5bc d215 1bbb f087 8abc
00000140: 0eae e53b 40d0 953c 8aab bebb 1a93 9abb
00000150: 48bb d5bc daa5 67bc 56d5 0bbd fcfb 013b
00000160: d6f0 adbb 4665 e93c 90bb 33bc dcbb 0d3c
00000170: 45d7 d83c 65ff 1fbc 7920 b9bc 06d5 b23c
00000180: 8583 53bc 1a91 97bc 9855 0b3d e321 223c
00000190: 46b7 9bbc 4698 a2bc d4b4 6a3a 97d2 22bd
000001a0: eb11 30bc 46f9 e33a e0c1 b83b fd7d efbb
000001b0: 65bb 303b b0ca 363c e8ae 9e3b 3014 d2bb
000001c0: f662 233d 62ef ae3b 0f08 9b3c 0629 9539
000001d0: 4e9d 06ba 296d d9bc b510 9c3c 81b6 3eba
000001e0: 68db 833c 1ff3 c8bc 8fb9 5aba e0f1 bc3a
000001f0: 3281 4a3c dff2 5d3c c234 f53c d91f a23c
00000200: f130 9c3c 1699 e1bc 00dd 633c 2194 e1bc
00000210: d9aa d3bc 4a7b 6d3c 2b5c 543c 5cfd 1ebc
00000220: 6feb 72bb bac4 9dbc d010 c33c ce9a a5bc
00000230: f380 263c e26d 0dbc d274 0dbb 6531 79bb
00000240: 8a52 15bc 59a9 303d aca7 9dbc f338 00bd
00000250: 224a 623d 6e68 813c b1c3 c53c 0e8d 9aba
00000260: 1d85 a1bc 711a 52b9 9290 48bd e323 8abc
00000270: 1f56 383d 2ee8 b6bc 8dba 16bb 0e8b 28bd
00000280: 94cc bcbc 71a0 c33b 978c 22bd eaa3 0e3d
00000290: e42a e03a 7490 0d3d fc4b 433c d54e 18bc
000002a0: 5083 c13c 6069 e83b 8839 a23c 845f d93b
000002b0: 22f7 1b3c 2f23 a03c b641 f13c 03f0 283d
000002c0: 5e62 b0bb 8772 5ebc a2b4 2e3c ead1 d1bc
000002d0: ea39 d53c d528 743b bc42 84bb c8c3 883c
000002e0: beb2 2abc 8edd d93c 7c2e c1bb c893 adbc
000002f0: a55a 953b bb9c 0b3c 8437 8439 f928 ee3b
00000300: 9fa8 cf3c 38c0 6f3c 387a dcba bb03 583c
00000310: 60d0 bd3b cc25 1cbd 470e 7cbc 29f9 e33c
00000320: d1b2 913b 8279 203c f68c 303d 0704 e6ba
00000330: 7267 a03c 39b3 36bc 5d06 633c 728f 13bc
00000340: a351 97bc 1a6f 84ba 9ca0 5f3a 66e1 0cbd
00000350: 1f31 423a 3ad7 0d3c b1db 9abc 0171 cd3c
00000360: fc14 c9bb 65bf 9abc 495d 4e3b 840d f53c
00000370: 3bb4 69bd 988e 1dbc ba95 a6bb 96d2 033d
00000380: ef32 b23b 483f db3b 411b 963c d3f3 443c
00000390: 83cb 81ba d9ac cabc 3d6f a23b 9129 40bc
000003a0: e1b3 55bc 1c0a cb3c ad52 08bc 5a37 fa3b
000003b0: 31c9 ee3a e74a 063d 8153 cc3c 1c9b 08bb
000003c0: 4627 dcb9 7cf3 27bc f7e9 273a 7e75 6fbc
000003d0: 480f ee3c ab9a 483c 59d6 243b 8098 203c
000003e0: 925d 0dbd 972b 15bd 2c6e 503d 5a35 3c3b
000003f0: 8798 b43c 1ca6 04bd 489d 8ebc a974 da3c
