style_transfer/cartoongan/pretrained_weights/hosoda/deconv03_1.weight.npy (npy, 37760 bytes, 1 tensors)

array f4 [3, 64, 7, 7]
00000000: 681f 56bc f993 1ebc c8b7 853a 8036 bdbb
00000010: b2ca 913b 606e 813b 25df c1bc 4ff2 1f3d
00000020: 2cc8 363c 2b70 3dbc 04eb d3bc 01e0 2e3c
00000030: b501 c73b a9a3 4c3c 461a 08bc 29bd 403d
00000040: 50a2 27bc c98f 093c 914f cfbc ef8e 5abb
00000050: 6e4d c03c abef 1d3b 840b 2b3c b147 0c3c
00000060: 17b8 4c3b 859d ac3c c524 62bb a445 faba
00000070: 0c5e 59bc 0cec a8bc 7c9b 363c 6e8c b8bb
00000080: 2a6b 433c 982d 903c 2965 a63c 8700 8c3c
00000090: 1ddc b9bc 8fba a63c 00e7 113d 1b00 103b
000000a0: 70a7 173d 7bd5 fb3b 50d3 4ebc add1 2f3b
000000b0: 58e3 093d 8907 2d3d 019b 813c 3868 2a3c
000000c0: 5c96 3a3c 0e42 3a3c a65e 243b 8585 85bc
000000d0: bce3 6c3a aef9 dd3a 83b6 093c 205a 7f3c
000000e0: 4da7 7e3b 1703 233d e90c 733b e8bc 60bc
000000f0: 479f 073d 057e 553b d2fd 90ba 2b15 cc3c
00000100: 822c 903c 7413 b2bb c22d a23c 5333 9f3c
00000110: eb49 8d3c d2e3 86bb 87f4 e6bb 4b2d d13c
00000120: 3619 fa3c 5f81 c83c f8b2 943c 0497 8bbb
00000130: c126 1f3c fbee fa3b 0c07 df3b 3b16 a13c
00000140: 63b4 5a3d c887 e63c 82f5 893c a95a 863c
00000150: 3581 0bbb cb5a cd3b 8ac7 2fbc 6968 1b3c
00000160: d8b7 813c 1019 853c 8602 8e3c d4d7 82bc
00000170: 986c 023c 13e1 953b 6ab9 ad3b 5cb8 bd3b
00000180: 9713 863b f672 973c 0941 0abd 6e81 74b9
00000190: 66d3 28bc dc1b acbc 7b47 2bbd 8620 39bd
000001a0: 8839 93bb ed7b 72bc 7bab b2bc 1c44 48bc
000001b0: 2f72 c7bc e9ea e8bc ff8a 10bc ab8b 00bd
000001c0: d8b8 923c fb51 da3b ba2a 9abc e8da 4ebc
000001d0: 1af4 63bd d277 16bd 8060 0cbb a3c5 a7bc
000001e0: e807 c8bc a443 13bd a9bc 86bc 82f0 21bc
000001f0: 2cf0 37bd e1cd 92bc e7e8 abbc 8042 bebc
00000200: 10d8 d53c aabd 07bd c2a6 2abd 4c1b 3abc
00000210: 7078 6c3b d8c9 2a3c a3d2 febc c00f 34b9
00000220: 9347 59bc ac42 6ebd b880 2bbd cef2 11bd
00000230: cada 10bd 7959 603a 20fe afbc 87e9 8cbc
00000240: d0a3 303b b025 a8bb 42d4 913b f671 c3bb
00000250: 47ec 2fbc f361 c0bc cf18 073c 0156 94bc
00000260: fed0 93bb ff66 0cbd 309a 3dba 711a 4bbb
00000270: ac0f 833b 835a f83c fc49 28bc 650b 0cbd
00000280: 90dd cd3c 849a ef3c 0832 8f3c c5be 29bb
00000290: 8b2e db3b bc3b c03c a5b8 4a3b 545f 963b
000002a0: cb5d b43b ff54 25bc c28e 1d3c f9b8 ecbc
000002b0: 4eea 08b9 8a0d 773b 2919 5c3c 391f c73b
000002c0: 567e 003b 9f3c 133b 44b5 9ebc deb7 79bc
000002d0: 5da3 84bc 1b23 423c 6ef8 2a3d f27f 0dbb
000002e0: 1489 0f3c 7f05 2b3c f912 b1bc 896b 033d
000002f0: ee75 10bd 9056 6abc dac6 7abc 4e1a b43b
00000300: 679f 4e39 0f52 8ebc 5f1b 1e3c 043b 133c
00000310: 8043 bcbb c0a8 373b ffee bbbc d9a6 9c3a
00000320: 3da8 91bc 1cf8 d93a 344e 79bb 276f 913c
00000330: 51fa c4bb 1d59 efba 38e2 f7bc d72a 30bd
00000340: f7f5 5a3c 9ee6 7abc 4fb7 9dbc 862f 87bc
00000350: 8294 a1bb 52e9 5fbc 7216 663b cac1 4ebc
00000360: d68c 333b 95de a4bc 3141 b9bb 1049 9b3c
00000370: 6d46 29bb 5a1f 153d a85b 06bd 6191 e2bc
00000380: bfdf 283c cd36 48bb abb5 ccb8 df4f b3b9
00000390: e5bb 14bb 6afd 9ebb 0fa9 53bc 2ec5 91bc
000003a0: 01be 30bb ba3f af3a 6430 abbc bf7d 903c
000003b0: 6704 18bc 94f2 d4bc 73b0 993c 101c 833c
000003c0: 9762 ae3b 1932 debc 99d3 b9bc fc8d a53a
000003d0: f68a e1bc 202d 023c 5924 b53c 81a1 0a3b
000003e0: b162 e33b 2b69 2d3b bcd1 1ebb 5672 5ebc
000003f0: 88e1 11bd 0983 c7bc 2616 183d 3f8b 9b3c
-0.013069011 -0.009678834 0.0010201866 -0.005774319 0.004449212 0.0039499253 -0.023665974 0.039049443
0.011156123 -0.011562387 -0.0258689 0.010673524 0.0060732015 0.0124901915 -0.008307045 0.047055397
-0.010231569 0.008396097 -0.025306495 -0.0033349355 0.023474421 0.0024099152 0.010439757 0.008562014
0.0031237656 0.021071205 -0.003450678 -0.0019094241 -0.013267051 -0.020620368 0.011145469 -0.005631975
0.011927405 0.017599866 0.020311909 0.017090095 -0.022687966 0.02035263 0.03562069 0.002197272
0.037024915 0.007685361 -0.012623623 0.0026827857 0.033664078 0.042243514 0.015820982 0.010400824
0.0113883875 0.011368288 0.002508083 -0.016299019 0.00090366206 0.0016935372 0.008405331 0.015585452
0.0038857043 0.03979787 0.0037086552 -0.013716914 0.033110883 0.0032576334 -0.0011061972 0.024912437
0.017599348 -0.005434448 0.01979721 0.019433653 0.01724716 -0.0041165138 -0.007048193 0.025534293
0.0305296 0.024475751 0.018151745 -0.004259946 0.0097138295 0.007657883 0.00680626 0.01966392
0.053394686 0.028140917 0.0168407 0.016400652 -0.002128673 0.006266927 -0.010728726 0.009485343
0.015834734 0.016247302 0.017335188 -0.015972055 0.007960461 0.00457395 0.005301644 0.0057897996
0.0040916908 0.018487435 -0.03375343 -0.0002331787 -0.010304308 -0.021009378 -0.041816216 -0.045197032
-0.0044929422 -0.014800054 -0.021810284 -0.01222327 -0.02434644 -0.028432326 -0.008822202 -0.031383198
0.017910406 0.006662605 -0.018819202 -0.0126254335 -0.055652715 -0.036735363 -0.0021419823 -0.020479983
-0.024417832 -0.03595318 -0.016447382 -0.009884002 -0.04490678 -0.017920436 -0.02098508 -0.023225069
0.026104003 -0.033139862 -0.04166294 -0.011359047 0.0036082529 0.0104241 -0.031106299 -0.00017172005
-0.0132616935 -0.058169052 -0.041870803 -0.035631947 -0.035364904 0.00085582543 -0.02148348 -0.017201198
0.0026953109 -0.005131446 0.004450352 -0.005964513 -0.010737485 -0.023484206 0.008245661 -0.018107416
-0.004510998 -0.034277912 -0.00072327536 -0.0030991102 0.003999671 0.030316597 -0.0102715455 -0.034190554
0.025130063 0.029248483 0.017479911 -0.002590106 0.006688898 0.023465984 0.003093281 0.0045890007
0.005504345 -0.010091065 0.009616556 -0.028896796 -0.00013057256 0.003769728 0.013433733 0.00607672
0.0019606552 0.0022466553 -0.019373544 -0.015241591 -0.016191179 0.01184919 0.041740827 -0.0021591154
0.008760709 0.010438322 -0.021615492 0.032084975 -0.035268717 -0.014302865 -0.015306199 0.0054963
0.00019705073 -0.017373113 0.00965008 0.008986238 -0.0057453513 0.0028024167 -0.02294111 0.001195158
-0.017780418 0.0016629728 -0.0038040997 0.017753197 -0.0060112854 -0.0018260811 -0.030259237 -0.043009605
0.013364307 -0.0153137725 -0.019252447 -0.016502153 -0.0049310336 -0.013666468 0.0035108593 -0.012619445
0.0027397177 -0.020125667 -0.0056535234 0.018955737 -0.002582933 0.036406852 -0.032802254 -0.027657213
0.0103072515 -0.0030550242 -9.761316e-05 -0.0003420105 -0.0022695002 -0.0048519867 -0.012918725 -0.017794218
-0.002696872 0.0013370432 -0.020897098 0.017638085 -0.009278393 -0.025994577 0.018760895 0.016004592
0.0053218114 -0.027123498 -0.022683905 0.0012630816 -0.027532082 0.007945329 0.022112058 0.0021153393
0.006939255 0.002646039 -0.0024233898 -0.0135770645 -0.035615474 -0.024354475 0.037130497 0.018987296
