tf2/pretrained_weights/hayao/conv09_2.bias.npy (npy, 1152 bytes, 1 tensors)

array f4 [256]
000000 0f 98 2b 31 0b 7b 3f 30 35 c3 86 2f 10 12 03 b1
       2.497021e-09 6.966025e-10 2.451316e-10 -1.9073276e-09
000010 1d f0 95 30 26 d4 ae 31 0b c7 0e 31 90 d2 b9 30
       1.0909421e-09 5.088185e-09 2.0776862e-09 1.3520367e-09
000020 a1 f2 7e 31 f5 20 6f b1 41 43 58 b1 b3 0a f7 30
       3.7099783e-09 -3.4797811e-09 -3.1470366e-09 1.7974656e-09
000030 82 47 9d 2f c1 38 e6 b0 e6 98 f1 b0 8f 00 01 32
       2.8608943e-10 -1.6750833e-09 -1.7578514e-09 7.508915e-09
000040 a9 eb 46 b1 82 81 0a 2f c4 2e 55 b1 87 3b 7a 30
       -2.894675e-09 1.2597037e-10 -3.1022163e-09 9.1034064e-10
000050 71 b0 75 30 c7 d4 cc 2f 3d 12 8d 2f 9a 20 51 b1
       8.938122e-10 3.725857e-10 2.566071e-10 -3.0432035e-09
000060 a8 9a 06 b0 72 87 17 b1 aa 81 3e b1 1c 27 89 b0
       -4.8968696e-10 -2.2050384e-09 -2.7722344e-09 -9.979177e-10
000070 1d e6 0f b1 f0 d3 36 b1 e4 38 d3 31 09 71 40 31
       -2.0940043e-09 -2.6604958e-09 6.147376e-09 2.800393e-09
000080 38 1c 5b af 1a 73 0b af 70 58 8f b1 ad ba 96 b0
       -1.9927959e-10 -1.2682869e-10 -4.171902e-09 -1.0966993e-09
000090 6e d0 35 af 00 2b 95 31 0e 37 61 31 c7 16 89 b1
       -1.6535903e-10 4.3413593e-09 3.2773104e-09 -3.9898143e-09
0000a0 1a df 61 b1 3e 24 86 30 e3 48 e3 ae a8 f3 2a b1
       -3.2868628e-09 9.760084e-10 -1.0335712e-10 -2.4876758e-09
0000b0 e3 f3 9b 31 2c 59 4a b1 3d 96 5d 2f c8 36 46 b1
       4.5388204e-09 -2.9445557e-09 2.0153208e-10 -2.8843932e-09
0000c0 50 b5 e0 b0 72 ff a0 2f dc 71 07 30 87 eb 8d 31
       -1.6349677e-09 2.9285335e-10 4.927452e-10 4.1304165e-09
0000d0 32 d9 22 b1 bf 19 fb b0 96 f8 9d 31 71 5b 08 b0
       -2.3697564e-09 -1.8269971e-09 4.5975623e-09 -4.960646e-10
0000e0 26 f2 22 b1 34 61 96 31 1e 96 94 31 83 63 04 31
       -2.3711748e-09 4.3766253e-09 4.3244333e-09 1.9265094e-09
0000f0 73 0a 71 31 e2 07 b8 b1 73 f6 ae 2f d1 59 36 31
       3.5076055e-09 -5.356001e-09 3.1825528e-10 2.653554e-09
000100 c7 7b 86 b1 f2 b6 88 b1 48 67 3a b1 36 19 d3 b0
       -3.913985e-09 -3.9789194e-09 -2.712527e-09 -1.5359436e-09
000110 37 ab e1 b0 2f 5e a4 b0 7d d0 34 af 9f ea 4f 32
       -1.6419567e-09 -1.1959339e-09 -1.6444975e-10 1.21023325e-08
000120 01 7f e8 af c4 7d 16 b1 d9 31 90 31 75 ea ac 31
       -4.2290796e-10 -2.1899362e-09 4.1966186e-09 5.0325135e-09
000130 9f 3f 66 b1 d5 c4 9d b1 9c 23 4b b0 ff 9d b7 31
       -3.350557e-09 -4.5916786e-09 -7.3901574e-10 5.343963e-09
000140 45 32 12 32 d7 e7 89 b0 16 6c 71 b1 39 f6 19 30
       8.5097485e-09 -1.0033955e-09 -3.5131555e-09 5.601098e-10
000150 11 bb 4b 30 3b 1d 00 31 14 e0 9a ae 0c d6 24 b0
       7.4116807e-10 1.8643067e-09 -7.0429135e-11 -5.996703e-10
000160 85 d1 62 31 a6 fb 65 b0 20 e7 d3 b1 d6 01 c8 b1
       3.3006426e-09 -8.366733e-10 -6.167184e-09 -5.820975e-09
000170 b5 39 15 b1 fc 77 fe b1 52 ce 7a 2e e7 83 69 b1
       -2.1715156e-09 -7.4060136e-09 5.7026668e-11 -3.398094e-09
000180 d1 4e 37 b1 3d 41 2d b2 b0 7e a2 b0 96 75 84 31
       -2.6674807e-09 -1.0084759e-08 -1.1823058e-09 3.8550736e-09
000190 15 22 02 b0 0d e9 4b 31 69 db 28 b0 80 eb a6 b1
       -4.734216e-10 2.9672862e-09 -6.1429845e-10 -4.858009e-09
0001a0 64 63 7b b1 9f d0 54 af 4f 70 48 30 b9 a6 c6 30
       -3.6581804e-09 -1.9355405e-10 7.2919176e-10 1.4453782e-09
0001b0 84 b9 8f b1 12 12 23 b0 67 c1 72 b1 e4 56 99 b1
       -4.1829384e-09 -5.9324734e-10 -3.5325571e-09 -4.4627644e-09
0001c0 78 39 fe 30 f8 a6 08 b1 66 2d 0c 31 69 de 2b 31
       1.8497266e-09 -1.9885515e-09 2.0398487e-09 2.50102e-09
0001d0 42 02 2f b0 d1 aa fd b0 f2 03 47 31 0c c9 8d 30
       -6.366784e-10 -1.8456722e-09 2.8960554e-09 1.0316241e-09
0001e0 ba f9 d0 b1 a6 11 8e 30 f7 0a 91 b0 34 28 42 31
       -6.0819874e-09 1.0336876e-09 -1.0553255e-09 2.8253568e-09
0001f0 55 17 b7 b0 1b a8 07 b1 ab 07 7e af 59 c7 c7 30
       -1.3321634e-09 -1.9740642e-09 -2.310389e-10 1.4535814e-09
000200 14 8d 39 b0 84 89 9a b0 1e 71 83 30 4d 32 70 31
       -6.750309e-10 -1.1244059e-09 9.563654e-10 3.495319e-09
000210 64 5b c6 b0 74 d0 a6 b0 4d 40 1a b2 47 de 98 30
       -1.4432371e-09 -1.2137336e-09 -8.9786e-09 1.1122631e-09
000220 92 55 08 ab 25 6d 3a b0 53 9c a5 b0 a1 7b 06 b1
       -4.843566e-13 -6.782151e-10 -1.204976e-09 -1.9569841e-09
000230 09 ff 85 30 d6 83 29 b1 55 2d ce 31 b2 0f b3 b0
       9.749509e-10 -2.4667677e-09 6.0005427e-09 -1.3028425e-09
000240 19 40 2f 2f 45 d7 28 32 ae 97 09 b2 96 2a af 30
       1.593893e-10 9.827834e-09 -8.0089375e-09 1.274503e-09
000250 1f 7c 63 b0 04 39 a7 b1 f2 8d 9f 31 18 44 aa 31
       -8.2758506e-10 -4.8668216e-09 4.6436464e-09 4.9553925e-09
000260 31 bf ad b0 3c 86 9b b1 2f d7 fc b0 5d 7d 08 b1
       -1.2641747e-09 -4.5263544e-09 -1.8396572e-09 -1.9861865e-09
000270 ff 6d 3b 30 88 25 1d b2 88 91 42 30 f9 4a ba af
       6.818652e-10 -9.147136e-09 7.07836e-10 -3.3886474e-10
000280 ee 34 02 31 d6 c3 bc 2f 93 45 00 32 42 db dc b0
       1.8947577e-09 3.433615e-10 7.4664e-09 -1.6069424e-09
000290 93 4d 92 b0 57 ba 8c 31 76 34 8c af ba f5 09 30
       -1.0644946e-09 4.0957207e-09 -2.5503127e-10 5.018951e-10
0002a0 c2 5e 2b 31 28 10 b3 b1 fb 91 8a b0 b8 2a 2e 31
       2.4937639e-09 -5.2114224e-09 -1.0082312e-09 2.5344615e-09
0002b0 63 07 3d af d6 1d 01 2f 89 58 6e 30 87 4b 79 b0
       -1.7192074e-10 1.1743082e-10 8.670971e-10 -9.0693003e-10
0002c0 42 21 51 b0 c3 a0 17 31 ac 46 21 31 4c dc e1 31
       -7.608102e-10 2.2064774e-09 2.3468756e-09 6.5734067e-09
0002d0 6c 42 58 b0 a9 7f 18 b0 db e3 b0 b1 f7 fe b3 b0
       -7.8674733e-10 -5.5478694e-10 -5.1481783e-09 -1.309643e-09
0002e0 e3 89 b7 b1 0f b0 93 b0 84 41 eb b1 c6 16 91 b0
       -5.341677e-09 -1.0745697e-09 -6.8468484e-09 -1.0556611e-09
0002f0 1f 5f 39 31 fd d0 c3 af f2 91 85 b1 7f e2 a9 b1
       2.6975113e-09 -3.5618788e-10 -3.8874015e-09 -4.944297e-09
000300 cc 43 2f b0 40 74 d3 b0 d9 0b 49 af 96 98 f9 b0
       -6.3760974e-10 -1.5385311e-09 -1.8285053e-10 -1.8160502e-09
000310 d7 ba ed 2f 23 14 c8 2f d2 0c 8e b1 12 f3 2a b1
       4.3242807e-10 3.6394096e-10 -4.1342014e-09 -2.4876425e-09
000320 a7 cc d4 b0 34 09 87 b0 c4 76 34 2f db a7 1a 30
       -1.5483196e-09 -9.825158e-10 1.6413099e-10 5.626341e-10
000330 b2 7a 9d 31 d7 52 8e af bf 90 99 2f 66 e4 f0 b0
       4.5832502e-09 -2.588851e-10 2.7933386e-10 -1.7527213e-09
000340 f2 34 c7 b0 aa 17 31 af de 59 4c 30 38 85 71 31
       -1.4494204e-09 -1.6106463e-10 7.4342477e-10 3.5145842e-09
000350 e6 00 10 30 bc 65 c2 2f 19 a6 a5 af ef 5e ad b1
       5.238817e-10 3.536068e-10 -3.0131345e-10 -5.0457554e-09
000360 7e e1 ff 30 7d 12 b8 31 38 ee 86 31 0e a2 1e 31
       1.8617781e-09 5.3572067e-09 3.9269956e-09 2.3084143e-09
000370 d7 45 2f af de c1 28 30 79 b9 74 32 0e 9b a1 af
       -1.594097e-10 6.1393546e-10 1.4244841e-08 -2.9395902e-10
000380 39 06 0e ae 91 87 1c b2 55 3a a7 2f 62 b4 ec b0
       -3.229259e-11 -9.111219e-09 3.041857e-10 -1.7222528e-09
000390 1b 03 61 b0 9b 60 47 30 94 78 c1 b0 79 e0 09 30
       -8.1858936e-10 7.2533063e-10 -1.4076869e-09 5.0159304e-10
0003a0 16 97 24 30 5c a8 88 b1 54 3c 4b b1 6d e7 a6 b1
       5.987756e-10 -3.977261e-09 -2.957468e-09 -4.857546e-09
0003b0 90 6e 07 b0 1f 86 16 2f f1 34 03 31 ed 90 3a b1
       -4.926983e-10 1.369007e-10 1.9093103e-09 -2.7148943e-09
0003c0 a1 d5 56 b1 16 54 8a b0 f4 d2 23 b1 ed 0d 7d b0
       -3.1262533e-09 -1.006472e-09 -2.3839535e-09 -9.2060654e-10
0003d0 6d 0d 94 31 43 ca 06 b0 d9 00 11 b2 e4 3b cd 30
       4.3088932e-09 -4.9036347e-10 -8.440304e-09 1.4932735e-09
0003e0 50 e0 5a b1 39 8e 49 31 c7 66 63 30 a0 33 c4 30
       -3.1850682e-09 2.9330194e-09 8.2728174e-10 1.427555e-09
0003f0 5a 56 ab 31 d8 2e 06 2f 32 e5 fb 30 44 52 98 31
       4.986572e-09 1.2203871e-10 1.8327795e-09 4.4331347e-09
