tf2/pretrained_weights/hayao/deconv01_2.bias.npy (npy, 640 bytes, 1 tensors)

array f4 [128]
0	0x3088c352	9.950816e-10
1	0x301a0f7d	5.6046884e-10
2	0x2ea2901a	7.392505e-11
3	0x31a12930	4.690399e-09
4	0x313f92a3	2.7877511e-09
5	0x3116a31a	2.1920585e-09
6	0xb184e2b5	-3.8674792e-09
7	0xb15451f7	-3.0896652e-09
8	0x312606ae	2.4159976e-09
9	0x3090bf4a	1.0531747e-09
10	0x2ff989d9	4.5390783e-10
11	0xb095a874	-1.0889054e-09
12	0xb05264f1	-7.6541e-10
13	0x30c7ced5	1.4537941e-09
14	0xb10aa560	-2.0175648e-09
15	0xb1b68605	-5.3121334e-09
16	0xb138dd51	-2.6901328e-09
17	0x31e9e21a	6.8068973e-09
18	0x2febdefa	4.2904685e-10
19	0x313f10c4	2.7803688e-09
20	0xaf3fb13b	-1.7434314e-10
21	0x31011e32	1.8789135e-09
22	0x30eabd60	1.7079564e-09
23	0xb0a5917f	-1.2046683e-09
24	0x30634d80	8.2692253e-10
25	0xb08f76df	-1.0438405e-09
26	0x30927732	1.0656775e-09
27	0x2ec307d3	8.868963e-11
28	0x31731986	3.5375662e-09
29	0xaf3e9ac1	-1.7335379e-10
30	0x3125e885	2.4142832e-09
31	0x3149ac12	2.934716e-09
32	0xb0d851f4	-1.5739361e-09
33	0x31abebda	5.0035682e-09
34	0x30b88607	1.3425855e-09
35	0xb0510c6b	-7.6051404e-10
36	0x3223c113	9.531749e-09
37	0x3017e6c2	5.5261407e-10
38	0xb027bb3a	-6.102031e-10
39	0xb0d7d074	-1.5702555e-09
40	0xb0afa4bd	-1.2779747e-09
41	0x31f77ad5	7.2026105e-09
42	0xb115df91	-2.1809436e-09
43	0xaf604f72	-2.0400906e-10
44	0x306e4764	8.668535e-10
45	0xb10a185a	-2.0095485e-09
46	0x3188fa00	3.9865427e-09
47	0x3070c21d	8.7587343e-10
48	0xb0c6fc84	-1.4478165e-09
49	0x3139cec8	2.7038585e-09
50	0xb16f87f2	-3.4856353e-09
51	0xb0987d6d	-1.1095104e-09
52	0xb0ec4ea5	-1.7193612e-09
53	0x32115e4f	8.461554e-09
54	0xb1411940	-2.809955e-09
55	0x31685862	3.3810683e-09
56	0xaf8be72b	-2.5448207e-10
57	0x30a30cab	1.1863411e-09
58	0xb1a8b84c	-4.9103956e-09
59	0x3139e72c	2.705245e-09
60	0x31d5f6ad	6.2271597e-09
61	0xb12444e7	-2.3904307e-09
62	0xb1b16c61	-5.1636992e-09
63	0xaf26ec7a	-1.5181625e-10
64	0x31ff772e	7.435026e-09
65	0x3099f55b	1.1201949e-09
66	0xb06636f6	-8.3751617e-10
67	0x31881802	3.9608503e-09
68	0xaf8fc718	-2.6153013e-10
69	0x313e45f4	2.7688403e-09
70	0xb04cd171	-7.45124e-10
71	0x3163b992	3.3138332e-09
72	0xb2120e0c	-8.501512e-09
73	0xaf6fbab6	-2.1803256e-10
74	0xb1164239	-2.1865516e-09
75	0x316b8bc6	3.4276453e-09
76	0xb15b5140	-3.191488e-09
77	0x3145adcd	2.8766067e-09
78	0xb1590c5d	-3.1584684e-09
79	0xb0b187ff	-1.2917097e-09
80	0xb123b44d	-2.382211e-09
81	0xb1008559	-1.870225e-09
82	0x312cb690	2.513307e-09
83	0x3077facc	9.021448e-10
84	0x312851fc	2.449382e-09
85	0xb1a0625a	-4.667794e-09
86	0x3167459a	3.3654488e-09
87	0xb1da60c7	-6.3556373e-09
88	0x308e74e0	1.0365078e-09
89	0x31062649	1.952133e-09
90	0xb077b844	-9.0119934e-10
91	0xb189eede	-4.014381e-09
92	0x30af77fe	1.276703e-09
93	0xb00d0468	-5.1301763e-10
94	0x312550c4	2.405657e-09
95	0x30b2b189	1.3001663e-09
96	0x3105eef3	1.9489874e-09
97	0x312d6c9a	2.5236546e-09
98	0xb1d60e4a	-6.229844e-09
99	0x2fac8930	3.1384095e-10
100	0xb1c09eab	-5.605974e-09
101	0x30c6d05d	1.4465616e-09
102	0xb12eb7b9	-2.5424767e-09
103	0xb07a15b0	-9.098029e-10
104	0x31f778bc	7.202372e-09
105	0xb1ac7082	-5.0186495e-09
106	0xb10f0f85	-2.081806e-09
107	0x31c4eae5	5.731055e-09
108	0xb1b7af7c	-5.3459512e-09
109	0xb18ac1fe	-4.038383e-09
110	0xb0d5501a	-1.5520556e-09
111	0xb0ffc224	-1.860887e-09
112	0x30ac4a38	1.2535741e-09
113	0xb02089b3	-5.8403343e-10
114	0x314fe31d	3.0251563e-09
115	0xb197bef4	-4.4163873e-09
116	0x31a32a34	4.7487223e-09
117	0x318409d3	3.8428225e-09
118	0xb020d616	-5.8511895e-10
119	0x318a2150	4.020116e-09
120	0x3195a009	4.3546646e-09
121	0x304320b6	7.098707e-10
122	0x31a35b38	4.7542947e-09
123	0x30a8485c	1.2244175e-09
124	0x30d59350	1.5539658e-09
125	0xb08cc8ff	-1.0243467e-09
126	0xb10f99d9	-2.089669e-09
127	0xb0caf596	-1.4767234e-09
