tf2/style_transfer/cartoongan/pretrained_weights/paprika/conv01_1.weight.npy (npy, 37760 bytes, 1 tensors)

array f4 [64, 3, 7, 7]
0	0x3d1ec7a9	0.03876463
1	0x3ba9d4e5	0.0051828497
2	0x3ccef426	0.025262903
3	0x3c1cb767	0.009565211
4	0xbb3a5c15	-0.0028436233
5	0xbbcd2e08	-0.006261591
6	0xbcf45eec	-0.029830419
7	0xbc17b494	-0.009259362
8	0xbbf0e119	-0.0073510525
9	0xbbdf7e62	-0.006820486
10	0xbbe6ff8e	-0.0070495075
11	0x3c3b7ca7	0.011443294
12	0xbd22ae8d	-0.039717246
13	0x3c59d56c	0.013295513
14	0xbc95a750	-0.018268257
15	0x3bd3ee5d	0.006467624
16	0x3d2b6e7e	0.04185342
17	0x3b609fe5	0.0034274992
18	0xbcf68dbe	-0.030096885
19	0xbc190c77	-0.009341351
20	0x3cb49144	0.022041924
21	0xbcab7cc4	-0.020933516
22	0xbd035ff8	-0.032073945
23	0xbc373611	-0.011182324
24	0xbd0871c4	-0.03331162
25	0x3b882f6b	0.0041560433
26	0xbc2e6b76	-0.010645738
27	0x3c202588	0.009774573
28	0x3a953dcd	0.0011386216
29	0x3af3c0ba	0.0018596866
30	0x3cb6f09f	0.022331534
31	0xbbf13af8	-0.007361766
32	0x3baf56a7	0.005350906
33	0x3b667d3a	0.0035169856
34	0xbc5b0289	-0.013367304
35	0x3b3c345a	0.0028717727
36	0x3d08c8aa	0.033394493
37	0xbd03e463	-0.03220023
38	0xbc15547a	-0.009114379
39	0x3d1e02d4	0.038576916
40	0x3c362a6c	0.011118513
41	0xbc9ea2f1	-0.019364806
42	0xbad56b12	-0.001628252
43	0xbcc76493	-0.02433995
44	0xbc84947f	-0.01618409
45	0xbd246f90	-0.040145457
46	0xbc447005	-0.011989598
47	0xbb160801	-0.0022892954
48	0x3c07ed4e	0.008296324
49	0xbbd32dba	-0.00644466
50	0x3c3d2a87	0.011545784
51	0xbc20c74d	-0.009813142
52	0x3cfc2c3e	0.030782815
53	0x3c61d070	0.0137826055
54	0xbc170dfe	-0.009219645
55	0x3b56fac3	0.0032803274
56	0x3c0fbde4	0.008773301
57	0xbc9c1404	-0.019052513
58	0xbc8071ab	-0.015679201
59	0x3d11362d	0.035452057
60	0x3c5bf7f9	0.0134258205
61	0xbc9450a0	-0.018104851
62	0xbc34acd0	-0.01102753
63	0x3acc4df5	0.0015587198
64	0x3b2392a5	0.0024959233
65	0xbd832bc0	-0.06404829
66	0xbbbea8eb	-0.0058184764
67	0x3c704aa5	0.014666234
68	0xbc93054d	-0.017946864
69	0xbc9f85b0	-0.019472927
70	0x3d00ee02	0.031476982
71	0x3c6da2be	0.014504133
72	0x3c9cd9f9	0.019146906
73	0xbc744bde	-0.014910666
74	0x3c70f458	0.014706694
75	0xbba6259f	-0.0050704028
76	0xbb2d5365	-0.0026447412
77	0xbae4e048	-0.001746186
78	0x3c885f4c	0.016647004
79	0x3c85b9f8	0.016324028
80	0x3bad51d3	0.005289295
81	0x3cb41194	0.021981038
82	0x3c5226e8	0.012826659
83	0x3c29643e	0.010338841
84	0x3c0c1938	0.0085509345
85	0x3c5439cd	0.012953234
86	0x3b855545	0.004069003
87	0x3c5ce302	0.013481857
88	0x3c1246a9	0.0089279795
89	0x3c118e4b	0.008884023
90	0xbc0b8f4d	-0.008518052
91	0xbbc4b432	-0.0060029263
92	0x3cb852bc	0.022500388
93	0x3c9a0003	0.018798834
94	0xbb2ba5be	-0.002619132
95	0xbc7f136c	-0.015568595
96	0xbd13d552	-0.03609211
97	0x3b4d0306	0.003128232
98	0x3b76b1bb	0.0037642557
99	0xbcd09f35	-0.02546654
100	0xbd1e0cfc	-0.0385866
101	0x3b72f554	0.0037072496
102	0x3c0212d9	0.007939064
103	0x3bb3087f	0.0054636593
104	0x3c49d467	0.012318707
105	0x3b42573e	0.0029654051
106	0x3d19a05f	0.037506457
107	0xbd180cbf	-0.03712153
108	0xbc41d411	-0.011830346
109	0xbbaa9752	-0.005206027
110	0xbcc52516	-0.024065536
111	0x3ae0fd96	0.0017165418
112	0xbc86a318	-0.016435191
113	0x3cd18adc	0.025578909
114	0xbb08546c	-0.0020802272
115	0xbca75b72	-0.020429347
116	0xbc9dd745	-0.019267688
117	0x3c423ac7	0.011854834
118	0xbc91d549	-0.017801898
119	0xbcb897bd	-0.022533292
120	0x3ca9e77c	0.020740263
121	0x3c2fff5a	0.010742033
122	0x3cfd89f6	0.030949574
123	0x3ccfb5ec	0.025355302
124	0x3cdc0522	0.026857916
125	0xbb595451	-0.0033161829
126	0x3c820abf	0.015874265
127	0x3cbb4c62	0.02286357
128	0x3cf7ea60	0.030263126
129	0x3c15e309	0.009148368
130	0x3d77adf6	0.060468636
131	0x3cb4d47c	0.022073977
132	0x3c5ba5d5	0.013406237
133	0x3cf54ff7	0.029945357
134	0x3ae14660	0.0017187111
135	0xbc0dcf0e	-0.008655323
136	0x3c081904	0.008306745
137	0x3c62823e	0.0138249975
138	0x3cb1178d	0.021617675
139	0x3d27d25f	0.04097211
140	0xbaee7455	-0.0018192629
141	0x3c8ad91f	0.016949235
142	0xbcec2969	-0.02882834
143	0x3c8667a4	0.016406842
144	0xbcb03324	-0.02150876
145	0xbb903185	-0.0044004344
146	0xbc598478	-0.013276212
147	0xbbcbccca	-0.006219481
148	0x3d27ba03	0.04094888
149	0xbc343223	-0.010998282
150	0x3cbb6989	0.022877472
151	0x3bb9bcbb	0.0056682504
152	0x3cd983cd	0.026552105
153	0xbd044857	-0.03229555
154	0xbc115f45	-0.008872812
155	0x3c5ddb0b	0.013540993
156	0x3ab5e7d3	0.0013878293
157	0x3bb24475	0.0054402896
158	0x3cc956ae	0.024577465
159	0xba22a8d0	-0.00062049646
160	0xbb67a51f	-0.0035346223
161	0x3c204a1a	0.009783292
162	0xbca3ae2b	-0.01998051
163	0x3bd642f0	0.0065387413
164	0xbd58206d	-0.0527653
165	0x3cdc11c3	0.026863938
166	0x3c23a6fc	0.009988543
167	0xbc21b49f	-0.009869724
168	0x3bcf232b	0.006321331
169	0xbcd194df	-0.025583683
170	0xbc16ac70	-0.009196386
171	0x3bb78e65	0.0056016915
172	0xbd681cf6	-0.056668244
173	0xbc3cb665	-0.011518096
174	0x3bb45cd5	0.0055042305
175	0x3b279114	0.002556865
176	0x3c030897	0.007997653
177	0x3bfdcd19	0.007745397
178	0xbb8feccf	-0.0043922435
179	0xbd2d22d2	-0.042269535
180	0x3cdcb177	0.02694009
181	0xb9b8cd78	-0.000352483
182	0x3b4cde0c	0.003126028
183	0x3caaa1b4	0.02082906
184	0x3c0d8eac	0.008639973
185	0x3b457c0a	0.0030133747
186	0x3bf02cc2	0.0073295543
187	0xbcbdd8a4	-0.023174591
188	0xbb1c8fd8	-0.0023889448
189	0xbb43466b	-0.002979661
190	0x3c6753ed	0.014119131
191	0xbc8468cd	-0.016163254
192	0x3b808960	0.0039226264
193	0xbc63754f	-0.013882949
194	0xbc948d30	-0.01813373
195	0xba467f3e	-0.0007572061
196	0xbbd241ed	-0.0064165504
197	0x3d0ad7cf	0.033897217
198	0xbafa7b39	-0.001911021
199	0x3c376a06	0.011194712
200	0x3a405253	0.0007336486
201	0xbcdae91c	-0.026722483
202	0x3c38b1f6	0.011272898
203	0x3beacf9a	0.0071658613
204	0xbd4e7b2d	-0.05041044
205	0xbc4f4833	-0.012651491
206	0xbc2df3eb	-0.010617237
207	0x3bbbbac2	0.0057290504
208	0x3ca12c16	0.019674342
209	0xbce691ca	-0.02814569
210	0x3c9477c5	0.018123517
211	0xbccb0bf6	-0.024785977
212	0xbcc511c6	-0.024056327
213	0xbd39c76c	-0.0453562
214	0xbca2d9f6	-0.019879322
215	0x3d08de4e	0.03341513
216	0xbc550376	-0.013001313
217	0x3cf2f051	0.029655607
218	0xb900cf69	-0.00012284298
219	0x3ccb551c	0.024820857
220	0xbbe227fb	-0.0069017387
221	0x3be4c8d5	0.006981949
222	0x3d0fa919	0.035073373
223	0xbbc4281a	-0.005986226
224	0xbb6931c8	-0.003558265
225	0x3a42ebf4	0.00074356725
226	0x3c0f4bea	0.008746127
227	0xbc44acc1	-0.012004078
228	0xbc49e8f0	-0.012323603
229	0x3d1c6092	0.038178034
230	0xbcb22e28	-0.021750525
231	0x3c1889ab	0.009310166
232	0x3c87c0e2	0.016571466
233	0x3d181dd2	0.037137814
234	0x3cd30884	0.025760897
235	0xbc9bf9ab	-0.01903995
236	0xbc65dc3e	-0.014029561
237	0xbb96acff	-0.0045982595
238	0xbcb25834	-0.021770574
239	0xbc60504b	-0.013691018
240	0x3d66b518	0.05632505
241	0x3cb9f361	0.02269906
242	0x3c90bb1d	0.017667348
243	0xbc36005e	-0.011108486
244	0x39a6bac2	0.00031801133
245	0xbc672fe5	-0.01411054
246	0xbc56abdc	-0.013102498
247	0xbc4d034f	-0.012512996
248	0x3c81291b	0.01576667
249	0xbcf1ef1c	-0.029532962
250	0x3bd63f46	0.0065383045
251	0xbbf4c836	-0.007470156
252	0x3c712044	0.014717165
253	0xbc26dbfc	-0.010184284
254	0xbc8219dc	-0.015881471
255	0xbc7ae573	-0.015313494
