tf2/style_transfer/cartoongan/pretrained_weights/paprika/conv08_1.bias.npy (npy, 1152 bytes, 1 tensors)

array f4 [256]
3.4633021e-10 1.0435577e-09 -1.2446841e-09 7.724055e-10 -1.0929427e-09 1.5145848e-09 1.8045744e-09 -1.0749977e-10
2.3684366e-09 1.16278195e-10 -2.3987163e-09 -1.9549908e-09 6.0143085e-10 -1.0666649e-10 -4.555685e-10 7.9754786e-10
1.1634395e-09 -2.922506e-09 7.7091517e-10 -6.103166e-10 -4.1944395e-09 9.622241e-10 -1.9568531e-09 2.042026e-10
-1.3445265e-09 -1.5870922e-09 -8.249714e-10 -1.5128544e-10 -3.1833378e-10 5.2573645e-10 1.5129518e-10 1.9815143e-09
-6.880342e-10 -1.7708227e-11 -1.3917139e-09 -4.8116083e-10 1.1678993e-09 1.648451e-09 -2.3570396e-10 -1.2473306e-09
1.048495e-09 -8.828658e-10 9.033548e-10 3.4510472e-10 5.7665916e-10 -1.982717e-09 1.3015466e-09 4.887225e-10
3.442754e-09 -1.988492e-09 -3.5777117e-10 -2.1720572e-09 -2.4263003e-10 -6.766792e-11 -9.426797e-10 2.896219e-10
-1.2870003e-09 -1.0968649e-09 -1.5861442e-09 1.2166397e-09 1.4187498e-10 3.0410563e-09 1.6272256e-09 -1.090097e-09
-5.001915e-10 -3.1427805e-10 3.7251835e-10 8.749237e-10 4.1564088e-10 -1.979396e-09 -1.143082e-10 7.173378e-10
1.1701919e-09 -4.680333e-10 4.6132122e-11 2.0519006e-09 3.1951256e-10 -2.2860265e-09 -3.85588e-10 -1.0696305e-09
5.1475135e-10 4.5402698e-10 -3.5256822e-09 1.2403902e-09 4.8680315e-10 1.1049656e-11 1.4496386e-09 -1.6388228e-11
6.460359e-11 1.0393207e-09 -1.6244189e-09 -1.0647332e-09 -3.2978012e-10 -1.9495969e-11 -1.1636272e-09 -1.4460698e-09
-1.0747981e-09 1.8576076e-09 2.7255003e-09 -1.2223674e-09 3.2170452e-10 1.6360183e-10 -1.7622327e-09 1.2440257e-09
-2.2419937e-09 2.9342226e-09 2.5597457e-09 1.13921116e-10 -5.3714127e-11 -3.421139e-09 5.604034e-10 -2.8699398e-09
2.8897527e-09 9.812334e-10 -1.0555192e-09 -3.0981467e-10 1.4984952e-09 -9.519395e-10 -1.6479404e-10 2.6986837e-09
-1.7120706e-09 9.367386e-10 1.6200083e-10 -8.625415e-11 -1.3280664e-09 -2.0226049e-10 7.1880696e-10 8.5057333e-10
-9.078113e-10 1.2091078e-09 3.409159e-10 2.4030593e-09 -2.138941e-09 -9.643804e-10 3.591841e-10 4.6159526e-10
7.715238e-10 -4.8379617e-10 1.3287148e-09 -6.3003175e-10 -4.5984366e-10 -1.6812031e-09 3.4026987e-10 -8.791478e-10
-7.8590584e-10 -1.4780592e-09 -1.4847512e-10 1.1871072e-09 1.4387568e-09 -2.5247935e-09 -3.6622205e-09 -6.6594474e-10
1.6762102e-09 1.7877831e-09 -2.0667734e-09 4.1174846e-09 -1.3723348e-09 2.3294966e-09 -3.836073e-10 -1.95347e-09
1.1761246e-10 5.609089e-10 -1.2569142e-09 -3.0298482e-09 1.4227929e-10 -8.0134843e-10 1.8095436e-09 3.5175973e-09
1.5829426e-09 -6.447086e-10 4.318944e-10 3.100226e-09 -1.2893836e-09 1.233292e-09 1.3181123e-09 -1.1646163e-09
-8.930241e-10 -4.0001713e-09 3.396717e-09 -8.911317e-10 -1.4231007e-10 -2.384716e-09 -1.1611581e-09 -1.2021988e-10
-1.0944624e-11 -7.8195644e-10 3.9423365e-10 1.5401542e-09 -2.1403508e-09 7.503875e-10 6.108485e-11 -7.789895e-10
1.3970647e-09 8.9848484e-10 1.0096929e-09 2.4404199e-09 -9.944507e-10 1.1407004e-09 -9.503044e-10 6.2054897e-12
-1.0149177e-09 1.4070644e-09 1.9081191e-10 6.204428e-10 -2.5993134e-09 -2.104451e-09 1.0824485e-09 8.889972e-10
2.37893e-10 -1.9410908e-09 5.60248e-10 -9.695621e-10 2.0447398e-10 -1.7315764e-10 -6.474785e-10 -8.846869e-10
9.486644e-10 -7.1767914e-10 7.021221e-10 -5.63301e-09 2.3249505e-09 -2.1801105e-10 -6.383252e-10 -1.1028216e-09
-3.2827134e-09 -4.805949e-10 9.44931e-10 -1.6796806e-10 -9.132538e-10 1.991502e-10 -1.0790099e-10 -3.2232325e-10
1.2453845e-09 2.2803452e-09 -9.1769703e-10 4.561777e-10 -9.1408264e-10 5.714837e-10 -8.548562e-10 4.4897663e-10
-5.6626565e-10 3.359125e-10 1.1078397e-09 -5.536201e-10 -1.3358542e-09 -1.5147646e-10 2.744555e-10 -5.643849e-10
-6.2530214e-10 2.0435598e-09 1.8810358e-09 -4.4122875e-11 -2.0027644e-09 8.8384994e-10 -1.5035542e-09 1.0596389e-09
00000000: a565 be2f ec6c 8f30 6e11 abb0 3451 5430
00000010: 8136 96b0 b729 d030 d104 f830 fe64 ecae
00000020: fac1 2231 ceb2 ff2e aad6 24b1 9058 06b1
00000030: ef51 2530 e58f eaae 9173 faaf 713a 5b30
00000040: e3e6 9f30 45d5 48b1 55e8 5330 36c3 27b0
00000050: ae1e 90b1 403f 8430 5379 06b1 ec85 602f
00000060: 52ca b8b0 d820 dab0 34c4 62b0 1157 26af
00000070: 7f01 afaf 6a83 1030 cf59 262f 2b2b 0831
00000080: 1a20 3db0 62c3 9bad 9446 bfb0 af42 04b0
00000090: ce83 a030 b78f e230 6294 81af 8b6e abb0
000000a0: a31a 9030 28ae 72b0 f14f 7830 2cb9 bd2f
000000b0: c882 1e30 5440 08b1 1ae2 b230 ca56 0630
000000c0: 9295 6c31 eca5 08b1 d1af c4af 3c43 15b1
000000d0: 2463 85af a7cd 94ae 988f 81b0 a938 9f2f
000000e0: 4ce2 b0b0 81c0 96b0 7dff d9b0 b436 a730
000000f0: 42fe 1b2f d4fa 5031 e9a4 df30 61d2 95b0
00000100: d97d 09b0 b4c6 acaf 4ccb cc2f 487f 7030
00000110: 4180 e42f e705 08b1 cc5d fbae 292e 4530
00000120: 78d4 a030 eaa6 00b0 27e4 4a2e 6b01 0d31
00000130: 65a7 af2f 3418 1db1 b0fa d3af 4702 93b0
00000140: 687e 0d30 9e9a f92f 7548 72b1 5a7a aa30
00000150: bacf 0530 3a63 422d a03c c730 0227 90ad
00000160: 9710 8e2e d9d7 8e30 2942 dfb0 f855 92b0
00000170: 6d4c b5af 057d abad 7eed 9fb0 0fbf c6b0
00000180: 19b8 93b0 c24e ff30 824b 3b31 3b00 a8b0
00000190: e3db b02f d2e1 332f 0d33 f2b0 43fa aa30
000001a0: 9211 1ab1 64a3 4931 86e7 2f31 e383 fa2e
000001b0: bb3c 6cae 5019 6bb1 e20a 1a30 8438 45b1
000001c0: 1195 4631 15dc 8630 c811 91b0 8a52 aaaf
000001d0: 9df3 cd30 65d5 82b0 6631 35af bf73 3931
000001e0: 214e ebb0 8fbe 8030 2e1f 322f c5ac bdae
000001f0: 2f87 b6b0 4463 5eaf 8b95 4530 c7cd 6930
00000200: 8b89 79b0 b32d a630 a66b bb2f 1123 2531
00000210: a6fc 12b1 1e8b 84b0 ab76 c52f c2c3 fd2f
00000220: 2913 5430 21fc 04b0 ff9d b630 8b2e 2db0
00000230: 3ecd fcaf 1310 e7b0 ba10 bb2f 87a8 71b0
00000240: 3507 58b0 9624 cbb0 0840 23af 9f27 a330
00000250: c1bd c530 a380 2db1 77aa 7bb1 b20d 37b0
00000260: 6760 e630 07b6 f530 1007 0eb1 c779 8d31
00000270: bd9c bcb0 f014 2031 eee3 d2af cf3d 06b1
00000280: f750 012f 742e 1a30 bdbf acb0 a735 50b1
00000290: 0f70 1c2f e245 5cb0 a8b3 f830 3aba 7131
000002a0: d78e d930 5637 31b0 bc6f ed2f c10b 5531
000002b0: 2736 b1b0 9b80 a930 f428 b530 4b10 a0b0
000002c0: fc78 75b0 e171 89b1 ad6b 6931 d2f3 74b0
000002d0: b978 1caf 5ee0 23b1 9e96 9fb0 e32e 04af
000002e0: 348a 40ad 4bf1 56b0 74bb d82f 5cad d330
000002f0: 7315 13b1 d343 4e30 b753 862e 8320 56b0
00000300: d802 c030 40f9 7630 69c5 8a30 52b4 2731
00000310: 20ad 88b0 d4c6 9c30 dd9b 82b0 1556 da2c
00000320: 3e7d 8bb0 ad62 c130 c7cc 512f c88b 2a30
00000330: 9b9f 32b1 e59d 10b1 45c5 9430 9e5d 7430
00000340: 77c8 822f 0864 05b1 f3ff 1930 6f41 85b0
00000350: 4fd2 602f 8b63 3eaf 40fa 31b0 4e2e 73b0
00000360: 2962 8230 2e46 45b0 73ff 4030 7b8c c1b1
00000370: f6c4 1f31 a8b4 6faf 2576 2fb0 1692 97b0
00000380: 1b96 61b1 dc1a 04b0 cede 8130 ceae 38af
00000390: 8608 7bb0 ccf7 5a2f db46 edae f732 b1af
000003a0: 122a ab30 42b4 1c31 3041 7cb0 4ec9 fa2f
000003b0: d942 7bb0 9716 1d30 28fb 6ab0 d8d3 f62f
000003c0: 67a7 1bb0 7bab b82f a542 9830 8d2d 18b0
000003d0: 3199 b7b0 d58c 26af 2ee2 962f 0f23 1bb0
000003e0: bae1 2bb0 af6e 0c31 8843 0131 f10d 42ae
000003f0: 01a1 09b1 69f3 7230 9ca5 ceb0 bba2 9130
