tf2/style_transfer/cartoongan/pretrained_weights/paprika/deconv02_1.weight.npy (npy, 295040 bytes, 1 tensors)

array f4 [128, 64, 3, 3]
0	0xbca55649	-0.020182746
1	0xbd375497	-0.044758406
2	0xbcab5b2e	-0.020917501
3	0x3c4979cd	0.012297106
4	0x3d179d69	0.037015352
5	0x3c594e76	0.013263335
6	0xbce6bdcf	-0.02816668
7	0xbcf57f2e	-0.02996787
8	0xbc665d07	-0.014060265
9	0x3bcd05cc	0.0062567946
10	0xbc783165	-0.015148495
11	0xbc453b63	-0.012038085
12	0x3ba8d876	0.0051527573
13	0x3b30f9a0	0.0027004257
14	0xbcb8a91d	-0.022541577
15	0x3d0e7b1c	0.034785375
16	0x3b5bc40b	0.0033533599
17	0x3c5696b0	0.01309745
18	0x3a60f88c	0.0008581958
19	0x3c974c0c	0.01846888
20	0x3b536400	0.003225565
21	0x3cac1652	0.021006737
22	0x3cd8269f	0.026385603
23	0x3d06c096	0.032898508
24	0x3cf26b2d	0.029592121
25	0xbced92d9	-0.029000686
26	0x3c293409	0.010327348
27	0x3b2f6191	0.0026761035
28	0x3c3f5ad5	0.011679371
29	0x3b844748	0.0040368177
30	0xbc89dab9	-0.016827928
31	0xbce7a585	-0.028277168
32	0xbb8f16ee	-0.004366747
33	0x3d01b971	0.03167099
34	0x3cabec18	0.020986602
35	0xbc10b969	-0.008833268
36	0x3b3c06ba	0.0028690533
37	0x3cbc7e6d	0.023009503
38	0xbaea1389	-0.0017858605
39	0x3d3c989d	0.04604398
40	0xbd79f204	-0.06102182
41	0xbb0ae46b	-0.0021193277
42	0x3740d351	1.1493293e-05
43	0x3c8d702c	0.017265402
44	0x39158524	0.00014259346
45	0x3ae4c681	0.0017454178
46	0xbcc962d2	-0.024583254
47	0xbc4c3812	-0.01246454
48	0xbb750bca	-0.003739106
49	0xbafd2478	-0.0019313237
50	0xbd2c1707	-0.042014148
51	0x3bc3c7df	0.005974754
52	0x3ceb2434	0.028703786
53	0xbcaef543	-0.021357184
54	0x3ccc092a	0.024906714
55	0x3b09feae	0.0021056342
56	0xbcc71f80	-0.024307013
57	0xbce8bb42	-0.028409604
58	0xbcb7f169	-0.02245398
59	0xbcf138fd	-0.02944612
60	0x3bc5e9b2	0.0060398215
61	0x3c3c5885	0.011495714
62	0xbb80ad43	-0.0039269044
63	0xbc16eaca	-0.0092112515
64	0xbc23deac	-0.01000182
65	0xbaf41bff	-0.0018624066
66	0xbc979093	-0.018501556
67	0x3b3a4be7	0.002842659
68	0xbb2e666f	-0.0026611348
69	0x3c1498cd	0.009069634
70	0x3cecd964	0.028912254
71	0xbc3d3761	-0.011548848
72	0xbb179ab2	-0.0023132977
73	0x3b7da3b6	0.0038702316
74	0x3cb00535	0.021486858
75	0x3bedd0e0	0.007257566
76	0x3bbe8aa7	0.0058148685
77	0xbcd4f084	-0.025993593
78	0x3ce21d86	0.027601968
79	0x3c156534	0.009118367
80	0x3d04bdfd	0.03240775
81	0xbbfaf662	-0.0076587657
82	0xbcb20a37	-0.021733386
83	0xbae381ae	-0.0017357373
84	0xbb5c9ae5	-0.003366166
85	0xbcea1dc1	-0.02857864
86	0xbb41f6dd	-0.0029596605
87	0xbcc6d03a	-0.024269212
88	0xbd2d0b97	-0.04224738
89	0xbc04b9e6	-0.008100962
90	0xbcdd8cbb	-0.027044645
91	0xbd0e8af6	-0.034800492
92	0xbb921a11	-0.0044586738
93	0xbba78dcc	-0.005113339
94	0x3b999e26	0.004688042
95	0xbc6548ec	-0.013994437
96	0xbac03879	-0.0014665268
97	0x3c8f9215	0.017525712
98	0x3c2c0b5b	0.010500754
99	0x3d1ea0a8	0.038727432
100	0x3b4b8400	0.003105402
101	0x3b9c20d4	0.0047646556
102	0x3adf9f7b	0.0017061079
103	0x3cde0e6c	0.027106486
104	0x3acbb2a7	0.0015540913
105	0x3a92a492	0.0011187962
106	0xbb4ba85b	-0.003107569
107	0x3c411d45	0.011786764
108	0x3cfe2612	0.031024013
109	0x3cdda048	0.027053967
110	0x3c548b85	0.012972717
111	0x3b892a6f	0.0041859667
112	0x3c18bfdc	0.009323087
113	0x3d094b8a	0.033519305
114	0x3c938234	0.018006422
115	0xbcf2d0ee	-0.029640641
116	0xbcd56888	-0.026050821
117	0xbb9ed4da	-0.004847151
118	0xbd497be2	-0.04919041
119	0xbcb733c5	-0.022363553
120	0xbc1cba63	-0.009565922
121	0xbc77d09a	-0.015125418
122	0xbcabecd1	-0.020986946
123	0x3c970e06	0.018439304
124	0xbd0b685e	-0.03403508
125	0x3a63ca47	0.00086895045
126	0xbcb14c8a	-0.021642942
127	0xbc39bbfa	-0.011336321
128	0x3b0f747b	0.0021889496
129	0x3c420df3	0.011844146
130	0x3cb7f7ae	0.02245697
131	0x3bba4f4e	0.0056857234
132	0xbc6f499b	-0.014604951
133	0x3b3bf14f	0.0028677767
134	0xbcc7bb2e	-0.024381246
135	0x3b705e50	0.0036677308
136	0xbd018288	-0.031618625
137	0xbbe7d868	-0.007075358
138	0xbb6a79c5	-0.0035778147
139	0xbd1f9573	-0.038960885
140	0x3c6f95c9	0.014623114
141	0xbd04ee77	-0.03245398
142	0xbce1fa0e	-0.027585056
143	0xbc954931	-0.018223377
144	0x3c32dde1	0.010917158
145	0xbb7030b2	-0.0036650118
146	0xbbfa831b	-0.0076450235
147	0xbad9abaa	-0.0016606946
148	0xbc0c65c6	-0.008569187
149	0x3c2f441a	0.010697389
150	0xbcdc09eb	-0.026860198
151	0x3c96e3f7	0.018419249
152	0x3bbd95cb	0.005785679
153	0x3c406c97	0.01174464
154	0x3cef1657	0.029185457
155	0xbcb411ce	-0.021981146
156	0xbc0c75b5	-0.008572985
157	0xbcbbbb4b	-0.022916457
158	0xbbcf4daf	-0.0063263993
159	0xbc86f332	-0.016473386
160	0xbbd746af	-0.0065697054
161	0xbc617ab5	-0.013762166
162	0xbb3afefc	-0.002853333
163	0x3c5294b9	0.012852841
164	0x3c93a7cf	0.018024353
165	0x3d382e0c	0.04496579
166	0xbbf23c29	-0.0073924256
167	0xbc746fa4	-0.014919195
168	0x3a4fc6b0	0.000792603
169	0x3c86155c	0.016367607
170	0xbb5a3c7a	-0.0033300207
171	0x3b1db72b	0.0024065475
172	0x3c93d040	0.018043637
173	0x3c8b36a8	0.016993836
174	0x3b8fe304	0.004391076
175	0xbb6421e1	-0.0034810232
176	0x3d02f422	0.031971104
177	0xbc64acf1	-0.013957248
178	0xbbb8d6fe	-0.0056408634
179	0x3ad5fa24	0.0016325158
180	0x3c5d9c6e	0.013526065
181	0xbb6ccb90	-0.0036132075
182	0x3c83c58f	0.016085414
183	0xbc93e05d	-0.01805132
184	0xbbc964c8	-0.0061460473
185	0xbc362fea	-0.011119822
186	0x3b930d2d	0.0044876547
187	0x3aa31d55	0.0012444655
188	0x3cc6d18d	0.024269843
189	0xbc103461	-0.008801551
190	0x3d1909b3	0.037362766
191	0x3c9b4b06	0.018956672
192	0x3ce11c92	0.027479444
193	0xbbca3c33	-0.006171727
194	0xbc9553b7	-0.018228395
195	0xbbbc40eb	-0.0057450435
196	0x3d39b2c3	0.045336496
197	0x3b1c7d57	0.002387842
198	0xbb58f314	-0.003310387
199	0xbd0bd511	-0.034138743
200	0x3ce7f933	0.02831707
201	0x3c2509ae	0.010073109
202	0x3c2323d0	0.009957269
203	0x3cde1a76	0.027112227
204	0xbb0de8e9	-0.0021653718
205	0x3cbaae42	0.02278817
206	0x3ccaa5e9	0.024737315
207	0xbce95d83	-0.028486973
208	0xbc40fd68	-0.011779167
209	0xbd2062f4	-0.03915687
210	0xbc6a8a35	-0.014315178
211	0x3c6d39c3	0.0144791035
212	0x3d010fd6	0.031509243
213	0xbbc57752	-0.006026187
214	0xbb404c74	-0.0029342445
215	0x3caf2244	0.021378644
216	0xbd854742	-0.06507732
217	0xbb2796ca	-0.0025572055
218	0xbd25ac45	-0.040447492
219	0xbcf72c4b	-0.030172488
220	0x3d29e1ea	0.041475214
221	0x3d1ab792	0.037772723
222	0x3baf3700	0.0053471327
223	0xbc746c49	-0.014918395
224	0x3c7ba583	0.015359285
225	0xbcc669fc	-0.02422046
226	0xbcb9e59b	-0.022692492
227	0xbb7a3575	-0.0038178836
228	0xbd7fdede	-0.062468402
229	0xbc8df9f3	-0.0173311
230	0x3d18e258	0.037325233
231	0xbd15c3ac	-0.03656356
232	0xbd007726	-0.03136363
233	0xbba16cee	-0.0049263155
234	0x3c3948dc	0.011308875
235	0x3cc2a513	0.023760354
236	0x3b7a169a	0.0038160444
237	0x3b40be98	0.0029410478
238	0x3d0068dc	0.03135
239	0x3cff4bf3	0.031164145
240	0x3bc30a0b	0.005952125
241	0xbaa54c44	-0.001261123
242	0x3c225b21	0.009909422
243	0x3bc8510d	0.0061131776
244	0x3b9c0248	0.004761014
245	0x3d157968	0.036492735
246	0x3bb989a9	0.0056621623
247	0x3ca4f664	0.02013702
248	0xbc23daf1	-0.01000093
249	0xbd14da93	-0.03634126
250	0x3c9a761f	0.018855153
251	0xbbd7ba6a	-0.0065835016
252	0x3bc4e7b3	0.006009066
253	0x3cdd0752	0.02698103
254	0x3c0fef49	0.008785077
255	0x3bbd9470	0.0057855174
