style_transfer/cartoongan/pretrained_weights/paprika/deconv01_2.weight.npy (npy, 589952 bytes, 1 tensors)

array f4 [128, 128, 3, 3]
000000 27 d8 ec 3b 57 f9 9d 3b e2 72 5f 3c 36 eb 93 3a
       0.007227916 0.0048209834 0.01363823 0.0011285308
000010 70 93 4f 3c db e2 e1 bc be 0f ab bb e9 f3 a6 3c
       0.012669429 -0.027573993 -0.0052203825 0.020379977
000020 a8 3c 14 3d 09 f5 a0 3b 9f ed a2 3c e5 00 9a 3c
       0.03619066 0.004912023 0.019888697 0.018799255
000030 17 57 d7 bc 75 1e d1 bc 60 45 04 3d 3d 68 fc 3c
       -0.026286645 -0.025527218 0.032292724 0.030811423
000040 9f e5 b7 bc f4 42 f6 3c fd 45 2e bd 9d 22 90 bc
       -0.022448359 0.030061223 -0.042547215 -0.01759463
000050 29 85 73 3a 53 df 22 3c 2d d8 b0 bc 6d 75 44 3c
       0.0009289557 0.00994094 -0.021587456 0.011990887
000060 94 f5 43 3c c9 b2 8b bc 2e 03 b1 bb 96 c8 70 bc
       0.011960406 -0.017053025 -0.0054019904 -0.014696261
000070 c5 57 2a bd 54 b3 0b 3d 2e 08 1e bd 27 9b 11 3d
       -0.04158761 0.034106568 -0.03858202 0.035548355
000080 c1 cd df bc e3 02 98 3b 7c 46 37 bc ff 4c ba 3b
       -0.02731979 0.004639016 -0.011186238 0.005685448
000090 eb 31 94 bc 4f a6 e6 3c 9e fc 5d bb 15 78 3b bd
       -0.018090209 0.028155474 -0.0033872495 -0.045768816
0000a0 14 98 53 bc 17 d2 bf 3c 64 f6 a4 bc e9 bb 0e bc
       -0.012914676 0.023415608 -0.02013702 -0.008711793
0000b0 3f e5 38 bc 49 e6 9e ba 8f 99 0b bd 10 48 d6 bb
       -0.011285125 -0.0012123074 -0.03408199 -0.0065393522
0000c0 ff 8c 4e bc ab 53 6d bb 7a f4 cf bc 70 27 78 3c
       -0.012606858 -0.00362132 -0.02538513 0.015146121
0000d0 e0 ee 7e 3c ea 4a bc bc aa dd 8a 3b 2a 52 49 3b
       0.015559882 -0.02298494 0.00423785 0.003071914
0000e0 b5 83 f6 3c 36 05 85 3c 69 84 f2 bc 5a 0c a9 3c
       0.0300921 0.016237836 -0.029604154 0.020635772
0000f0 19 63 61 3c 9b 96 97 39 31 b3 0a 3c d1 62 aa 3c
       0.013756537 0.00028913174 0.008465574 0.020799072
000100 97 84 1d 3b d5 f2 14 bd 6b ec a8 3c 45 2a a9 3c
       0.0024035329 -0.036364395 0.020620545 0.020650038
000110 88 b5 0e bd 07 cb 29 3b fe 4e 9c bb d7 a5 8b bc
       -0.03484109 0.0025908367 -0.004770159 -0.017046852
000120 d4 65 07 bd e6 8c 43 bc d6 77 05 3b d7 42 a1 3c
       -0.033056095 -0.011935448 0.0020365617 0.019685192
000130 15 b6 72 bc 36 0c 17 bc 0a 36 5b bb e8 a9 ec bb
       -0.01481392 -0.00921922 -0.0033448958 -0.007222403
000140 ea df 07 3c 05 96 2a 3c 44 95 e4 bc b1 ba 5c bc
       0.008293131 0.010411744 -0.027903207 -0.013472245
000150 74 d4 28 bc b9 ca 08 bc a8 0b 38 bd 7f 66 1f 3c
       -0.010304559 -0.008349114 -0.04493299 0.009729027
000160 45 7d 16 bc 52 96 04 3c 9b 78 60 bc 2e c9 27 3d
       -0.00918514 0.00809248 -0.01370063 0.040963344
000170 33 cf 36 3b dc d8 a3 bc f1 d1 a1 bc d8 4f 5e 3b
       0.0027894496 -0.020000868 -0.019753428 0.0033922102
000180 cd 79 b9 bc d3 ed 9b bc a5 dc bb 3c 28 6c 08 3c
       -0.022641087 -0.019034302 0.02293236 0.008326568
000190 76 85 89 b9 d5 e9 c1 bc 32 b0 c6 bc df fb cc bc
       -0.00026230112 -0.02367107 -0.024253938 -0.025022445
0001a0 5c f3 04 bc d6 e5 36 bc 49 65 76 3c 63 13 a1 bc
       -0.008114662 -0.011163196 0.015038797 -0.019662565
0001b0 d3 d0 99 3b be 80 48 3c ea ec a1 3b e5 a0 64 bc
       0.0046940832 0.012237726 0.0049415724 -0.013954376
0001c0 e4 c2 13 3d 10 8d 3f 3b 54 58 f1 3c e7 d8 89 bb
       0.036074534 0.0029228367 0.029461063 -0.004206765
0001d0 d9 7d fd 3b 50 c2 ac bc 01 b0 27 3d 46 62 48 bc
       0.0077359495 -0.02108875 0.040939335 -0.012230461
0001e0 fe dd d2 3c aa 28 1b bd ae e3 c6 bb 29 2c 07 3c
       0.02574062 -0.037880577 -0.006069622 0.008250275
0001f0 ea ad 5e 3c b1 34 10 3c 98 4d f2 3c 69 d5 3f 3c
       0.013591269 0.008801625 0.029578015 0.011708596
000200 35 c0 fd 3c 68 5a c7 bc 16 22 33 3c 6f f7 db bc
       0.03097544 -0.024335101 0.01093342 -0.026851384
000210 c5 b9 3a bc 2c b4 71 3c aa 5b 49 3c 14 d0 3d b9
       -0.01139683 0.014752429 0.012289921 -0.0001810196
000220 e8 35 8a bb 20 ab ec bb 5b bb ef 3c ea bc cb 3a
       -0.004217852 -0.007222548 0.029264143 0.0015543972
000230 f0 4c e3 3c 11 fc 8e 38 ed 15 bf bb fa 65 15 bc
       0.027746648 6.818039e-05 -0.005831471 -0.009118551
000240 c3 e1 db bb 3c 10 0a 3d 15 b9 9b ba ad 7a e2 bc
       -0.0067102625 0.03370689 -0.001188072 -0.027646387
000250 39 b9 39 3d 28 f4 ad 3c db 24 a9 3c 36 d5 b1 bb
       0.045342658 0.021234587 0.020647457 -0.005427028
000260 6b 8e 86 bc 86 d0 a7 3b f8 72 40 bd 35 a7 d3 bb
       -0.016425332 0.0051212935 -0.046984643 -0.0064591416
000270 d0 01 ff 3c af 2b c2 bc 68 5b c1 39 b1 61 e5 bc
       0.031128794 -0.02370247 0.00036879932 -0.028000684
000280 8c 2b 97 bc cf 54 5d 3c 68 ef 13 bd 05 89 02 3d
       -0.018453382 0.0135089895 -0.036116987 0.031868953
000290 07 f9 81 3c b7 5c 47 3b cb 8a 3c ba 2b 42 45 bc
       0.015865816 0.0030420253 -0.00071923126 -0.012039701
0002a0 e9 8a ec 3c d9 b3 98 bb 13 e9 9b 3c 04 63 ba 3b
       0.028874831 -0.0046601114 0.019032037 0.005688073
0002b0 2c 14 c7 3c c1 ef 2b 3d d1 8f 18 bb df 5c 30 3c
       0.02430161 0.041976694 -0.002327908 0.01076433
0002c0 ab e2 07 bc 87 57 d8 3b 96 54 9d 3c b2 61 2d 3c
       -0.008293788 0.006602231 0.019205373 0.010582374
0002d0 c0 06 0d 3c bb e7 95 bb ed a6 91 bb c6 de 41 3b
       0.008607566 -0.0045747436 -0.004444948 0.0029582246
0002e0 ff d3 c8 bc 88 52 b4 3c 97 70 0e 3c cd 37 9a bc
       -0.02451515 0.02201201 0.008693836 -0.018825436
0002f0 07 cb a8 bc 46 7e e1 3b 6e 1a 0c 3c 63 2e c9 3b
       -0.020604623 0.006881508 0.008551223 0.006139563
000300 6e d1 55 3c a0 fe 91 3c 95 2c 2e bb 80 31 24 3c
       0.01305042 0.01782161 -0.0026576866 0.010021567
000310 34 5b ca 3b b3 5d bc bc 53 8c 83 bc c5 f3 01 3d
       0.006175423 -0.022993898 -0.016058123 0.031726617
000320 c9 ab 41 3c d6 29 02 3c 2f 85 45 3d c0 2a 78 bc
       0.011820742 0.007944545 0.048222717 -0.015146911
000330 42 8b cb 3c 2a 7f 10 bc a4 c9 86 3c 2d 18 b8 b9
       0.024846677 -0.008819381 0.016453572 -0.00035113227
000340 3e 71 0a bd f1 5c 0f 3c bf 69 12 bc a3 af 90 bc
       -0.033799402 0.008750186 -0.008936345 -0.017661875
000350 72 b2 66 bb 48 25 d0 3c 11 81 b6 bc af 6a de 3c
       -0.0035201577 0.025408402 -0.02227834 0.02715048
000360 ab b0 00 bb 1b 36 f3 bc 04 e2 39 b6 a8 70 90 39
       -0.0019636552 -0.029688885 -2.7698707e-06 0.00027549756
000370 2e b2 36 bd 7b c6 da bc ef 32 22 bc 8e c2 e7 3c
       -0.04460352 -0.026705971 -0.009899839 0.028291013
000380 42 65 9e 3b cd e8 5c 3c 86 0f 0a bb dc 0c e0 bb
       0.004833848 0.013483238 -0.0021066382 -0.0068374705
000390 08 85 15 bc c5 65 01 bd 0a 40 2d 3c 86 f4 ee bb
       -0.009125955 -0.031591196 0.01057435 -0.007292333
0003a0 dd ff 85 bc 60 8c d6 3c 50 5a 99 bc cc 8f ef 3b
       -0.016357357 0.026189983 -0.018719822 0.007310843
0003b0 a6 14 80 bb 9f 74 f2 3c 26 47 97 3c c8 1a 83 3b
       -0.0039087115 0.029596625 0.018466543 0.0040009953
0003c0 6e e1 45 bc b8 5d e5 bc 6c d9 0c 39 19 32 5e 3c
       -0.012077672 -0.02799879 0.00013432436 0.013561749
0003d0 b9 6d 35 3d 24 fa a9 3c 84 a3 2a 3d a1 96 19 3b
       0.044294093 0.02074916 0.041659847 0.002343573
0003e0 d4 8e 0c bd 92 2e 6e bc b7 35 47 3d 07 e4 a5 3c
       -0.0343159 -0.01453747 0.04863521 0.020250333
0003f0 23 e4 80 3c 9b 1d d0 bc 01 74 8b bc 3d fd 87 3c
       0.015733784 -0.025404742 -0.017023088 0.016600246
