style_transfer/cartoongan/pretrained_weights/paprika/deconv02_2.weight.npy (npy, 147584 bytes, 1 tensors)

array f4 [64, 64, 3, 3]
-0.031283375 -0.007962469 -0.029461391 -0.0001722455 -0.010719422 -0.00204172 -0.018855378 0.024897896
0.023840824 -0.005926942 -0.0084311245 0.022686739 0.007059771 0.021096751 0.02145561 -0.021234592
0.04785434 0.037665065 -0.04433787 -0.005507471 -0.023267051 0.009207577 0.00054841366 -0.0046404065
-0.002518811 -0.0012679874 0.019310847 -0.0021513335 -0.022318715 0.0007742473 0.002864789 -0.026659656
-0.0039344504 -0.017841699 0.01467951 0.0043224194 0.020883791 0.008621038 0.004420208 -0.009413883
-0.041237175 -0.0066180187 -0.008203906 -0.03443137 0.00024725127 0.0041620117 -0.009636702 0.009965722
0.012875366 0.0243499 -0.010881778 -0.013290085 0.0012493848 -0.02051707 -0.01619362 -0.0025267259
-0.0070843557 0.0020560946 -0.017292017 -0.017873112 0.017677674 0.002759291 0.008630629 0.016699968
-0.009091096 0.019099094 -0.010074914 0.0044612675 -0.010614857 0.008394711 -0.005966246 -0.0034207788
-0.038950313 0.016199846 0.007379167 0.011764499 -0.05953358 0.061040275 -0.026632333 -0.008405467
-0.029071014 0.03636088 0.017017469 0.037238117 0.0071298135 -0.010066413 -0.010513781 0.0018991022
0.019772505 0.01728583 -0.0020685273 0.012012533 -0.029193271 -0.00072645035 0.02665184 -0.028021485
0.003370395 0.013543186 0.011463605 0.038514562 -0.0041727116 -0.04496176 -0.0319997 -0.021180758
-0.0027662874 0.027936155 -0.0136917485 -0.018491121 -0.027551167 0.0286356 0.008574158 -0.033417445
-0.0056133065 -0.040926274 0.014191874 0.010157201 -0.010449896 -0.017705765 -0.013111561 0.01665408
0.029095955 0.013669355 0.0042422847 -0.0114217065 -0.013271312 0.0055746315 -0.005450853 0.020695396
0.011179254 -0.032548077 0.045651227 0.008371128 -0.026327996 -0.041335832 -0.011342266 -0.0104950275
0.020153828 0.027029509 -0.0065164412 0.039121445 0.017154304 -0.020184442 0.016542802 -0.02064862
0.008839173 0.0004108173 0.0005496605 0.011449603 0.021629207 0.032766435 -0.02484329 0.002425213
-0.013339213 0.015302738 -0.010456639 -0.0068975533 0.032139212 0.0178532 0.003306908 -0.025507363
0.009893293 -0.006567416 0.009698216 0.019577758 0.010739346 0.0148980245 -0.0010802418 0.008257628
-0.007695487 -0.0026613374 -0.025025431 -0.0067076352 0.0006508092 -0.03167095 0.029224241 -0.0069796415
0.0056626895 -0.0055171372 0.041973036 -0.0059737917 0.0041978224 0.027065001 -0.0020200291 0.02614768
-0.034277633 -0.0161136 -0.009105719 -0.018861951 -0.034982618 -0.011000919 0.029735446 -0.009739379
-0.018658511 -0.015512428 -0.00013325206 -0.0031223872 0.00015027745 0.025310973 0.020052053 -0.023810683
0.0015898253 -0.012507373 0.0035457297 -0.021766594 0.010982577 -0.011687093 -0.01680426 0.009574249
-0.01809154 -0.014989727 0.014321934 0.025754541 0.035314567 0.012402821 -0.0021499575 -0.0072884266
-0.018110706 -0.018562552 0.007416541 -0.0060962043 -0.012485049 0.038173005 0.013675242 -0.02037948
0.025692536 -0.0024026872 -0.003580679 0.009554867 0.009603232 -0.0044385605 0.012200967 0.02474163
0.005112583 0.026535131 0.004490058 -0.05449422 -0.0014311163 -0.016845897 0.0014446871 0.027833372
0.0028436217 -0.027111974 0.0155550465 0.021124654 0.012541787 0.026141638 -0.010720756 -0.031137438
-0.047607403 -0.010510074 0.0003057289 0.032415863 -0.008004857 -0.019962147 -0.022833783 -0.021887908
00000000: ff22 00bd 0475 02bc 0459 f1bc cd9c 34b9
00000010: 84a0 2fbc 61ce 05bb 9876 9abc acf6 cb3c
00000020: d54d c33c cb36 c2bb b322 0abc 8ad9 b93c
00000030: a755 e73b 18d3 ac3c adc3 af3c 2bf4 adbc
00000040: ea02 443d af46 1a3d a09b 35bd 0478 b4bb
00000050: 8b9a bebc 61db 163c 6bc3 0f3a 8d0e 98bb
00000060: a312 25bb 9932 a6ba c831 9e3c 63fd 0cbb
00000070: bdd5 b6bc dbf6 4a3a 2fbf 3b3b 5a65 dabc
00000080: 90ec 80bb c128 92bc 5482 703c 15a3 8d3b
00000090: 7c14 ab3c 413f 0d3c 64d7 903b b03c 1abc
000000a0: 50e8 28bd f7db d8bb ad69 06bc e907 0dbd
000000b0: 81a1 8139 7c61 883b 42e3 1dbc 4547 233c
000000c0: 33f3 523c 7179 c73c 7c49 32bc a8be 59bc
000000d0: 66c2 a33a 6a13 a8bc 7ca8 84bc 6d97 25bb
000000e0: e223 e8bb 8bbf 063b fda7 8dbc a26a 92bc
000000f0: c5d0 903c 39d5 343b 7b67 0d3c 5fce 883c
00000100: d2f2 14bc b475 9c3c 4111 25bc d32f 923b
00000110: f0e9 2dbc f889 093c 8080 c3bb 252f 60bb
00000120: 5d8a 1fbd 8ab5 843c f0cc f13b e3bf 403c
00000130: 7cd9 73bd 5e05 7a3d 0d2c dabc 15b7 09bc
00000140: 5626 eebc 25ef 143d 3868 8b3c ff86 183d
00000150: 36a1 e93b 99ed 24bc fe41 2cbc 4ceb f83a
00000160: f3f9 a13c 039b 8d3c 2190 07bb 37d0 443c
00000170: ba26 efbc 426f 3eba f654 da3c 508d e5bc
00000180: d8e1 5c3b 3de4 5d3c d8d1 3b3c 72c1 1d3d
00000190: 3ebb 88bb d329 38bd 1e12 03bd 4583 adbc
000001a0: 9a4a 35bb 5dda e43c 5b53 60bc b17a 97bc
000001b0: fcb2 e1bc 3595 ea3c a07a 0c3c bbe0 08bd
000001c0: d4ef b7bb 4fa2 27bd 0985 683c 646a 263c
000001d0: 0a36 2bbc ae0b 91bc dfd1 56bc 236e 883c
000001e0: a45a ee3c 6ef5 5f3c dd02 8b3b 1c22 3bbc
000001f0: eb6f 59bc 66ab b63b 129d b2bb 6489 a93c
00000200: 3129 373c 2251 05bd c8fc 3a3d 0e27 093c
00000210: cfad d7bc c34f 29bd e9d4 39bc 56f3 2bbc
00000220: a419 a53c fd6c dd3c df87 d5bb cf3d 203d
00000230: 2f87 8c3c d859 a5bc c584 873c 4b27 a9bc
00000240: 2ed2 103c f762 d739 1717 103a 1e97 3b3c
00000250: bc2f b13c 1936 063d 2884 cbbc 53f0 1e3b
00000260: b78c 5abc 56b8 7a3c 5352 2bbc df04 e2bb
00000270: 68a4 033d e040 923c b6b8 583b d1f4 d0bc
00000280: 7a17 223c 7a33 d7bb 44e5 1e3c 8961 a03c
00000290: 15f4 2f3c d816 743c e696 8dba 014b 073c
000002a0: 6c2a fcbb d569 2ebb 2202 cdbc b9cb dbbb
000002b0: 119b 2a3a 66b9 01bd ad67 ef3c 7ab5 e4bb
000002c0: 158e b93b 1ac9 b4bb ebeb 2b3d ccbf c3bb
000002d0: e38d 893b 6cb7 dd3c 7762 04bb a933 d63c
000002e0: b466 0cbd ab00 84bc 2730 15bc 6184 9abc
000002f0: ef49 0fbd 333d 34bc c097 f33c eb91 1fbc
00000300: bcd9 98bc d727 7ebc 94b9 0bb9 f7a0 4cbb
00000310: cc93 1d39 f558 cf3c 3444 a43c 9f0e c3bc
00000320: af61 d03a b9eb 4cbc 795f 683b db4f b2bc
00000330: 44f0 333c 397b 3fbc 16a9 89bc 50dd 1c3c
00000340: b634 94bc 7997 75bc 8ca6 6a3c 30fb d23c
00000350: 02a6 103d 3435 4b3c 4de6 0cbb c1d3 eebb
00000360: e75c 94bc 7e10 98bc 7506 f33b abc2 c7bb
00000370: 178e 4cbc 4c5b 1c3d 1f0e 603c def2 a6bc
00000380: 2779 d23c 6776 1dbb d3a9 6abb 048c 1c3c
00000390: e056 1d3c 5871 91bb 91e6 473c f5ae ca3c
000003a0: 7487 a73b 3460 d93c 5621 933b 5535 5fbd
000003b0: 4b94 bbba 6800 8abc a85b bd3a d002 e43c
000003c0: 0e5c 3a3b ee19 debc 98da 7e3c 9c0d ad3c
000003d0: 117c 4d3c fd26 d63c 1ca6 2fbc f113 ffbc
000003e0: fbff 42bd 7232 2cbc 3d4a a039 7fc6 043d
000003f0: ce26 03bc a887 a3bc ea0d bbbc 454e b3bc
