tf2/style_transfer/cartoongan/pretrained_weights/shinkai/conv05_2.bias.npy (npy, 1152 bytes, 1 tensors)

array f4 [256]
0	0xafbd39aa	-3.4419873e-10
1	0x311add4d	2.2535744e-09
2	0x3172c164	3.5325565e-09
3	0x2f27c87b	1.5259786e-10
4	0x30b16220	1.2906334e-09
5	0x314e71e7	3.0041691e-09
6	0xb0bed719	-1.3885454e-09
7	0x3127f292	2.4439584e-09
8	0xb0e4a219	-1.6635254e-09
9	0xb0a6c02f	-1.2132712e-09
10	0x30502cb8	7.573351e-10
11	0xb1395627	-2.6970015e-09
12	0xb14c123c	-2.9696272e-09
13	0xaf53c099	-1.9258763e-10
14	0xaebf7362	-8.7061705e-11
15	0x2fae6019	3.1718697e-10
16	0xb12b8b39	-2.4962914e-09
17	0xb03ecff8	-6.941714e-10
18	0x308a17a2	1.0047538e-09
19	0xb0ecc573	-1.7227378e-09
20	0xb0aae386	-1.2433794e-09
21	0x30951966	1.0848396e-09
22	0x3174d435	3.5627299e-09
23	0xb0356536	-6.5991246e-10
24	0xb02ad751	-6.215162e-10
25	0x318f0edc	4.163537e-09
26	0x306eb204	8.683687e-10
27	0xb0258bf7	-6.022555e-10
28	0xb14c7de6	-2.9757472e-09
29	0xb043b12d	-7.119237e-10
30	0x304947e1	7.322552e-10
31	0x30331cc7	6.5160716e-10
32	0x309b4876	1.1298329e-09
33	0x310a848a	2.0156983e-09
34	0xb01ea07b	-5.770812e-10
35	0xaef26339	-1.10225114e-10
36	0xb101ef52	-1.8908008e-09
37	0x2bea2f94	1.6639906e-12
38	0x30f8bc52	1.8097899e-09
39	0xb12e75f6	-2.5387386e-09
40	0xafe533bb	-4.1691614e-10
41	0xaf0a7424	-1.2592288e-10
42	0xb0858d69	-9.717215e-10
43	0xb11a860e	-2.248615e-09
44	0x3095a736	1.0888701e-09
45	0x2e3cfd74	4.2971363e-11
46	0xb0f3b14c	-1.7730968e-09
47	0xb07d8f18	-9.224421e-10
48	0x3108388d	1.982275e-09
49	0x2db15bca	2.0163333e-11
50	0x2d8a9b98	1.5757881e-11
51	0xb021feef	-5.893374e-10
52	0x310e5c07	2.0716031e-09
53	0xb0d50997	-1.5500515e-09
54	0x2ffbe320	4.5818016e-10
55	0xb0511fa3	-7.6078716e-10
56	0x2f91e472	2.6537667e-10
57	0x3013eb4c	5.3812665e-10
58	0x30456b44	7.1820616e-10
59	0x3084f229	9.67309e-10
60	0xaf479b55	-1.815413e-10
61	0x30015edd	4.7064735e-10
62	0x3072909e	8.82446e-10
63	0xb071ba99	-8.794046e-10
64	0xb011120a	-5.277633e-10
65	0x3141804a	2.815812e-09
66	0xafd0dc54	-3.7991532e-10
67	0xb1188408	-2.2193962e-09
68	0x2fe52ae1	4.1685325e-10
69	0x2ddb50d3	2.493331e-11
70	0xb102f9d6	-1.9059505e-09
71	0x302412cd	5.968957e-10
72	0x300a594b	5.0331e-10
73	0x303cba80	6.8659034e-10
74	0xafad943e	-3.157385e-10
75	0xafc36643	-3.5542955e-10
76	0xb0e46be1	-1.6619844e-09
77	0xae0081dd	-2.9219172e-11
78	0xb0862000	-9.758878e-10
79	0xaef3e25e	-1.10905715e-10
80	0xb15ac754	-3.183648e-09
81	0x30f114d8	1.7540982e-09
82	0x2f8ed566	2.5981278e-10
83	0xb0144491	-5.3939525e-10
84	0xaecb66a1	-9.249602e-11
85	0xb08f13e3	-1.0410272e-09
86	0xb0d9f05d	-1.5857143e-09
87	0x30d62cb1	1.5583251e-09
88	0x2f8dac9c	2.5770397e-10
89	0xb0b4797f	-1.3131255e-09
90	0x306f4153	8.7040525e-10
91	0xaed84c7b	-9.8361284e-11
92	0x3110b627	2.10583e-09
93	0x3090b0af	1.0527595e-09
94	0xb0fa9aba	-1.823387e-09
95	0xb09ff4fe	-1.1638404e-09
96	0x2f415032	1.7581739e-10
97	0x305a971b	7.952267e-10
98	0xb082ef97	-9.52684e-10
99	0xb0f067aa	-1.7491761e-09
100	0x30f69b5e	1.7943014e-09
101	0xb00acc82	-5.049473e-10
102	0xb059d89a	-7.925195e-10
103	0xb01b2f6f	-5.645608e-10
104	0xb118741c	-2.2184912e-09
105	0x3114f740	2.167738e-09
106	0xaf6b6ade	-2.1411092e-10
107	0xafa70d60	-3.0386627e-10
108	0x31345c1c	2.6245806e-09
109	0x31402241	2.7959148e-09
110	0xaf78765e	-2.2597521e-10
111	0x30fabfb8	1.8244384e-09
112	0xb0873b0b	-9.839324e-10
113	0x315bac7f	3.1966747e-09
114	0xafede423	-4.327215e-10
115	0x2faf7e68	3.1922132e-10
116	0xafaaa1b6	-3.1037722e-10
117	0x30b5663b	1.3198539e-09
118	0xafc3fa13	-3.5647982e-10
119	0x3114e4ec	2.1666962e-09
120	0xafc29e24	-3.540076e-10
121	0x2fba4a2f	3.3885914e-10
122	0x303f46ff	6.9586287e-10
123	0x30c703be	1.4480219e-09
124	0x2f3e8317	1.7326972e-10
125	0x2fb5fae2	3.310197e-10
126	0x307179f9	8.7848623e-10
127	0xb13776be	-2.6697502e-09
128	0x30e313c5	1.6522043e-09
129	0x3178dabc	3.6213086e-09
130	0x310d21ed	2.0537485e-09
131	0xb08cbdac	-1.0240249e-09
132	0xb0a22396	-1.1797165e-09
133	0xb1068cac	-1.957953e-09
134	0x2eaa2ff0	7.7392204e-11
135	0xaf177af6	-1.3777054e-10
136	0xb0fc3703	-1.8351048e-09
137	0x30cdf045	1.4984002e-09
138	0x30ecbb6c	1.7224528e-09
139	0x2f29b1ad	1.5433584e-10
140	0x3109ec9c	2.007062e-09
141	0x30efa1b5	1.7435499e-09
142	0x30515f2a	7.6168993e-10
143	0xafa02e3c	-2.9136682e-10
144	0x301059ed	5.2514687e-10
145	0x30cd1e10	1.4924257e-09
146	0xb08b194e	-1.0120773e-09
147	0x3068c9dd	8.4687973e-10
148	0xaf86456f	-2.4423794e-10
149	0xb01d3b2b	-5.720035e-10
150	0x3063a1f5	8.2812274e-10
151	0x310f7b1f	2.0879225e-09
152	0xb0480eee	-7.278079e-10
153	0x308c350a	1.0201415e-09
154	0xb1058db3	-1.9434594e-09
155	0x2f7079cd	2.1871145e-10
156	0xb03167bd	-6.4539646e-10
157	0x30ad9ccd	1.2631972e-09
158	0x2ea5c817	7.5388744e-11
159	0x2f976a69	2.754235e-10
160	0xaf77fc24	-2.2554097e-10
161	0x2f1e1fcd	1.4381314e-10
162	0x30f276d6	1.7641593e-09
163	0x3028cc7c	6.1408634e-10
164	0x2fc6e126	3.6175968e-10
165	0xb10196c6	-1.8857675e-09
166	0xb03f1c22	-6.9525374e-10
167	0xafd25bbc	-3.826396e-10
168	0x30cd10b1	1.4920457e-09
169	0x2f5acba9	1.9899339e-10
170	0x30953b09	1.0857956e-09
171	0xafdaeae7	-3.9820877e-10
172	0xb0667be9	-8.38496e-10
173	0x308c60bf	1.0213838e-09
174	0xaf6596ed	-2.0881048e-10
175	0xb0366e16	-6.6367656e-10
176	0x302674ad	6.0556254e-10
177	0xb13a2363	-2.7086677e-09
178	0x2f1c55cc	1.4218599e-10
179	0xb03133f4	-6.4466055e-10
180	0x307bef45	9.165329e-10
181	0xb09799c4	-1.1030399e-09
182	0x3038d468	6.724066e-10
183	0xb0ea55c3	-1.7050116e-09
184	0x3011f399	5.3096866e-10
185	0x3089f919	1.003886e-09
186	0xaf68c6e5	-2.1170939e-10
187	0xb07f02a9	-9.277224e-10
188	0xae7f5323	-5.8054127e-11
189	0x3011f9d6	5.310573e-10
190	0xaf8711ae	-2.456892e-10
191	0x30e12a14	1.6382864e-09
192	0x3054a8da	7.7365103e-10
193	0xb08db775	-1.0311242e-09
194	0x30c5adf9	1.4383083e-09
195	0x30354d00	6.595684e-10
196	0x31323797	2.5934008e-09
197	0xafa75f69	-3.0444916e-10
198	0xb05f00ef	-8.1128254e-10
199	0x30886e64	9.926677e-10
200	0x30852705	9.688114e-10
201	0xb08a6fd5	-1.0072606e-09
202	0x2f23ae51	1.4886693e-10
203	0xb131a134	-2.5848523e-09
204	0xb11dc10a	-2.2956237e-09
205	0x3163efa0	3.3169059e-09
206	0xb17d4eff	-3.686125e-09
207	0xb0e970bc	-1.6985022e-09
208	0xb054041b	-7.7130985e-10
209	0x30c5a01d	1.4379143e-09
210	0xaffb872e	-4.5752685e-10
211	0xb0a7d9a9	-1.2212712e-09
212	0x31250a90	2.4016664e-09
213	0x3008bd4d	4.9745524e-10
214	0xb0b3ef16	-1.3091916e-09
215	0x30a7d569	1.2211504e-09
216	0xb0eecf5a	-1.7375712e-09
217	0xb0a5ad79	-1.2054634e-09
218	0xb1803e36	-3.732363e-09
219	0x2eae2e11	7.920787e-11
220	0x3009c26f	5.0116616e-10
221	0x2fc9a708	3.668037e-10
222	0xb0dad10c	-1.5921002e-09
223	0x30c42758	1.4272059e-09
224	0xb0845674	-9.628836e-10
225	0x2e0803fe	3.0926366e-11
226	0x30eb2241	1.7108236e-09
227	0xb11aa4d0	-2.2503635e-09
228	0x305c4497	8.0133006e-10
229	0xb10eb3a3	-2.0765831e-09
230	0xb1250a3b	-2.4016475e-09
231	0xb0e193df	-1.6412932e-09
232	0x2f49f159	1.8366587e-10
233	0xae2d7114	-3.943608e-11
234	0xb01be8c9	-5.671948e-10
235	0x2ff2d4f7	4.4170864e-10
236	0xb0fd8826	-1.8446868e-09
237	0x30ac9d64	1.255938e-09
238	0xafabc3b8	-3.1243785e-10
239	0x30cb700a	1.4802037e-09
240	0x2fe22c5d	4.1140683e-10
241	0xb0824f5a	-9.481298e-10
242	0xb06a96e6	-8.5343144e-10
243	0x30c92daf	1.4637659e-09
244	0x2e522afa	4.7786643e-11
245	0x30ea9a73	1.7069638e-09
246	0xb006cefd	-4.9043064e-10
247	0xb0943ac1	-1.0785116e-09
248	0x2f58ec30	1.9728996e-10
249	0xb046fce1	-7.2391343e-10
250	0xafc08943	-3.5022127e-10
251	0x30c0e07c	1.4033641e-09
252	0xb018247b	-5.534912e-10
253	0xb0511505	-7.606363e-10
254	0x304f0a4a	7.5320783e-10
255	0xb00af4c1	-5.0551924e-10
