tf2/style_transfer/cartoongan/pretrained_weights/shinkai/conv11_1.bias.npy (npy, 1152 bytes, 1 tensors)

array f4 [256]
000000 7e 7d 9f ae 3f 60 ea af 97 f2 12 2f 9e 63 d5 af
       -7.252775e-11 -4.263274e-10 1.3364808e-10 -3.8815257e-10
000010 f8 88 4d 2f c5 b5 3e ae db 15 30 2d 22 9a 96 2c
       1.8693302e-10 -4.3362442e-11 1.0009295e-11 4.2803686e-12
000020 d1 5e 86 ae b7 48 91 af 5a fe fc af 20 1a 80 af
       -6.110457e-11 -2.6427013e-10 -4.601926e-10 -2.3301627e-10
000030 0d e8 66 2f bc cc a6 2f 1d 89 6d af 7b c2 9d af
       2.1000819e-10 3.0340697e-10 -2.1603737e-10 -2.869632e-10
000040 cb 0b 27 af 2e 75 07 af fb 5c fd ae 0c fc b3 af
       -1.5192751e-10 -1.2319809e-10 -1.15216246e-10 -3.2739e-10
000050 e9 17 54 ae ac ee be 2c af 7d 29 30 bc 71 a7 ae
       -4.8224456e-11 5.4266227e-12 6.166045e-10 -7.614484e-11
000060 7e 7a 3f b0 53 cb 49 2f 21 7e 1c 2f 67 4c 03 b0
       -6.9659467e-10 1.8353079e-10 1.4232927e-10 -4.7766097e-10
000070 8b c7 88 ae 91 5c 9a 2e 9c c4 b2 2f dc 53 4d 30
       -6.22001e-11 7.019552e-11 3.251771e-10 7.4697737e-10
000080 2d 6a b4 2e 34 ad 07 2f d7 8e 67 b0 53 40 26 b0
       8.204313e-11 1.2339713e-10 -8.42403e-10 -6.048186e-10
000090 e1 87 48 ae 6a 39 bb 2f 5d 59 48 af 75 ba 53 2f
       -4.559542e-11 3.4055897e-10 -1.8221642e-10 1.9256581e-10
0000a0 8a ac 0a 30 59 a4 89 af ec 06 d2 2e 90 1a 0a af
       5.04493e-10 -2.503693e-10 9.550924e-11 -1.2560464e-10
0000b0 0c 2c a0 2c 04 db ee ae c2 c4 b2 2f 59 90 20 2f
       4.5523637e-12 -1.0861892e-10 3.2517816e-10 1.4603198e-10
0000c0 42 01 9c af 5f 24 42 2e e9 f3 6f af 82 d0 33 af
       -2.8377128e-10 4.4142797e-11 -2.1823578e-10 -1.6354032e-10
0000d0 ef 67 c1 ad b3 b7 28 af 77 30 90 af 30 9b d9 af
       -2.1987715e-11 -1.5344774e-10 -2.6227884e-10 -3.9582337e-10
0000e0 8c 8e 84 af 82 0b 7c 2e 44 cd 64 2f 91 9b c1 af
       -2.4111946e-10 5.7308387e-11 2.0809404e-10 -3.5217032e-10
0000f0 ee e9 6d af 7f c9 41 af 16 b0 8f 2e 3f 5b 76 af
       -2.1638133e-10 -1.7624834e-10 6.534166e-11 -2.2405987e-10
000100 89 86 57 ae 44 80 a3 af e4 4b ba 2f 66 6d e1 ae
       -4.900483e-11 -2.9740665e-10 3.3887126e-10 -1.02512485e-10
000110 55 63 93 2e ac 8c 0c ae 3c 41 a5 2f 8d 2b 25 30
       6.702431e-11 -3.1957256e-11 3.0059677e-10 6.008854e-10
000120 8e 13 21 af 17 35 97 af 98 d7 66 af 61 cd 33 af
       -1.4649812e-10 -2.7504463e-10 -2.0994972e-10 -1.635292e-10
000130 02 28 b8 ae 33 72 11 af 00 36 cd ae 65 ac 94 af
       -8.374458e-11 -1.3228245e-10 -9.331913e-11 -2.7043537e-10
000140 10 75 bd 2f f9 4d 7f af e4 a6 33 2f 8e 80 95 af
       3.4462078e-10 -2.3219816e-10 1.6339247e-10 -2.7194286e-10
000150 72 8d b1 af 4f 49 81 af 13 44 9a 2f eb f9 ae 2e
       -3.2296615e-10 -2.3517052e-10 2.8060806e-10 7.956998e-11
000160 fd 51 a0 af 44 44 00 30 00 17 3a b0 2f fa 14 2f
       -2.9162087e-10 4.666314e-10 -6.769909e-10 1.3549405e-10
000170 09 fc ef ae 94 53 e6 af 5a 9c 29 b0 61 3d d1 2f
       -1.0913232e-10 -4.1896142e-10 -6.170403e-10 3.806049e-10
000180 b0 8e 14 30 c9 6a f2 2f d3 a0 4b af 53 cd 00 30
       5.404486e-10 4.409542e-10 -1.8519879e-10 4.685791e-10
000190 25 8b 2e af 56 6b ce 2f ec da b9 2e 40 45 32 30
       -1.5874642e-10 3.7547448e-10 8.451714e-11 6.4854433e-10
0001a0 14 04 4a ae 62 e7 91 ae 23 6a ce af 3f e6 23 2f
       -4.5933105e-11 -6.6349384e-11 -3.7546596e-10 1.4906563e-10
0001b0 06 bb 8a 2f 63 b9 89 af cc f8 60 2e 65 6e 24 b0
       2.5234942e-10 -2.505188e-10 5.115268e-11 -5.981973e-10
0001c0 31 38 ad 2f aa 96 63 30 a0 64 48 ae 1f 97 09 2e
       3.1508443e-10 8.2796225e-10 -4.5564108e-11 3.1284416e-11
0001d0 0d 8d 10 2e 00 20 34 af fb 07 d9 2f 0b 96 18 af
       3.2867088e-11 -1.6382273e-10 3.947774e-10 -1.3877625e-10
0001e0 d0 92 9e ae 17 29 d9 ae 15 f7 52 b0 f1 dc 83 af
       -7.211087e-11 -9.8753165e-11 -7.674868e-10 -2.398575e-10
0001f0 58 68 ff ae 53 6b a8 2e 2a 64 e2 2f b3 73 a2 2f
       -1.16145926e-10 7.65882e-11 4.118033e-10 2.9549838e-10
000200 40 b7 05 b0 e1 81 b5 2f 5a f1 29 af 86 aa 48 af
       -4.864553e-10 3.3015993e-10 -1.5456206e-10 -1.8250476e-10
000210 0a a4 af 2e 01 fd 92 2f e2 a2 c2 af 79 26 14 30
       7.987218e-11 2.6737015e-10 -3.540413e-10 5.389676e-10
000220 c7 65 60 b0 15 e8 9b af 44 cc d4 af 4e cc db af
       -8.163536e-10 -2.835924e-10 -3.8707715e-10 -3.9981035e-10
000230 fd b7 34 af 68 3c 0f b0 bb 85 1c 30 05 77 33 b0
       -1.643627e-10 -5.210894e-10 5.694251e-10 -6.528896e-10
000240 f1 e2 bd ae f9 7d 2b b0 53 32 18 30 6b 43 d4 ae
       -8.635038e-11 -6.2388456e-10 5.5368793e-10 -9.65262e-11
000250 b6 af 6a 2f 90 88 67 2f 7c a7 16 2e 96 6d 49 2f
       2.1344601e-10 2.1057844e-10 3.4254807e-11 1.8319776e-10
000260 62 68 8b ae 6e 02 65 2f 35 ae a0 ae 10 4a 9f ad
       -6.33953e-11 2.0828292e-10 -7.306903e-11 -1.8109098e-11
000270 9c f9 a3 2d 38 b7 32 2f 7b 62 a8 af f9 c2 c8 ae
       1.8641803e-11 1.6254098e-10 -3.0628997e-10 -9.129581e-11
000280 f5 5f c4 2f 4c e4 3f b0 e9 f4 2e 2f e3 e0 04 b0
       3.5720374e-10 -6.9809825e-10 1.5912217e-10 -4.8340904e-10
000290 92 71 29 af 5e d7 39 af 7a 9a 11 af ca 55 ac af
       -1.5410809e-10 -1.6902166e-10 -1.3242554e-10 -3.1347575e-10
0002a0 d5 a8 41 2f f2 b0 27 2b fb f2 c7 ad 1b 4d b0 af
       1.7613229e-10 5.957588e-13 -2.2731586e-11 -3.2069e-10
0002b0 fb 3a 9c 2d ce ae a5 2e 60 7d 3b 2e 4a a0 74 2e
       1.776134e-11 7.534383e-11 4.2630233e-11 5.5621542e-11
0002c0 5e bf 97 2d b7 f9 7f 2f bd d0 3f af b7 14 ad af
       1.7251697e-11 2.3280831e-10 -1.7445508e-10 -3.1483235e-10
0002d0 b3 0b 94 af 1b 61 c6 af 16 4b 76 2d 38 2c cc 2f
       -2.6929356e-10 -3.6084988e-10 1.40001535e-11 3.7138803e-10
0002e0 de 55 35 b0 ca e4 9a af 08 52 41 2f 90 32 25 af
       -6.596944e-10 -2.8175e-10 1.7582391e-10 -1.5024626e-10
0002f0 29 e0 a1 2f 2f 65 b5 2e f5 46 34 ae 22 d7 36 af
       2.9445005e-10 8.248901e-11 -4.0990284e-11 -1.6629234e-10
000300 82 b7 82 2e 6d 81 9e 2f 9b 2c 60 ad 77 d9 12 b0
       5.944313e-11 2.8831995e-10 -1.274283e-11 -5.3423527e-10
000310 c9 d9 de 2f 51 d0 3a 2f b3 8b 5d 2f 50 fd 92 af
       4.053631e-10 1.699061e-10 2.0149464e-10 -2.6737235e-10
000320 56 91 6f 2f a7 81 6a af f6 d1 e7 ae a5 78 30 2e
       2.1788557e-10 -2.1328238e-10 -1.05419604e-10 4.012492e-11
000330 4e de e2 2e e2 72 3c ae aa 84 88 af e8 cb 59 ad
       1.03167794e-10 -4.2848287e-11 -2.483252e-10 -1.2380298e-11
000340 c2 75 7d 2e 33 6d 0e 2f 50 28 3f b0 12 6d d9 2f
       5.763013e-11 1.295362e-10 -6.954268e-10 3.954957e-10
000350 ad b3 8b ae 8c d6 91 af 97 a2 fa 2d c1 78 f5 2e
       -6.352905e-11 -2.652779e-10 2.8493914e-11 1.116276e-10
000360 d6 b1 79 af 0e bb bf af 65 93 8d 2f 42 b6 79 2f
       -2.2709598e-10 -3.4875608e-10 2.575248e-10 2.2711169e-10
000370 b2 6f 43 ae 2f 71 e7 ae 33 b1 59 2d 24 c5 d8 ae
       -4.4437072e-11 -1.0524769e-10 1.2374368e-11 -9.857562e-11
000380 1f 1f 38 2f 27 c2 47 af 78 01 dc ae 46 cd a6 af
       1.6745759e-10 -1.8167921e-10 -1.00047026e-10 -3.034108e-10
000390 1e c4 a1 2e e9 ee bd 2f ab 7c 08 2f e1 03 14 b0
       7.35627e-11 3.4548656e-10 1.2413419e-10 -5.38476e-10
0003a0 e7 ac 30 ae 69 e9 f5 2d 7c 5b b0 2e e5 f8 2b 30
       -4.0171335e-11 2.795693e-11 8.019804e-11 6.256314e-10
0003b0 6a 80 b3 ae 4e cb fe af 8a 23 cf 2f c0 15 eb ae
       -8.1627885e-11 -4.6346788e-10 3.7678333e-10 -1.0690426e-10
0003c0 04 bb 81 2f 0f f0 1e 2f 78 86 62 2f d4 d1 b6 2f
       2.3597846e-10 1.4455302e-10 2.0602353e-10 3.32547e-10
0003d0 2a 65 c9 ae 7f ff 77 ae 69 28 9c 2b b7 33 45 2f
       -9.158392e-11 -5.6388224e-11 1.1095683e-12 1.7935418e-10
0003e0 22 b4 e4 2f 4f 14 09 2e 37 01 5c af 2e 75 c2 ae
       4.160095e-10 3.116823e-11 -2.0009315e-10 -8.842914e-11
0003f0 f2 c1 63 af 8a 10 4a 2e 98 97 b5 2e 92 51 0f 30
       -2.0714433e-10 4.5944172e-11 8.2578555e-11 5.2139015e-10
