tf2/style_transfer/cartoongan/pretrained_weights/shinkai/conv10_1.bias.npy (npy, 1152 bytes, 1 tensors)

array f4 [256]
000000 ed 78 b9 af c4 35 f6 2f 99 31 dc 2f 84 e2 d4 2f
       -3.3737227e-10 4.4785342e-10 4.0053008e-10 3.8723524e-10
000010 cb 2a 2a af 86 25 9e af 15 bd 77 ae 26 f9 82 2f
       -1.5476613e-10 -2.8766695e-10 -5.6329236e-11 2.3823893e-10
000020 09 5b fb af ab 82 a0 ad 7c e8 41 af 87 0f 7c ae
       -4.5721318e-10 -1.8247922e-11 -1.7635843e-10 -5.7311957e-11
000030 ae 0a d6 af 22 53 1d af 7c 52 04 b0 6f c8 31 30
       -3.8933962e-10 -1.4308602e-10 -4.813854e-10 6.467706e-10
000040 62 f4 38 2e 03 ba 70 af 09 e5 ab 2e ee 3e d0 af
       4.2053812e-11 -2.1893957e-10 7.8168645e-11 -3.7879694e-10
000050 cb 0d 8e af 33 57 09 30 bc 3e 5f af cd 45 c9 2f
       -2.583945e-10 4.9964227e-10 -2.030402e-10 3.6611283e-10
000060 dc 19 94 af b0 cd 18 af 1a 66 a2 2e 10 69 d5 af
       -2.6939417e-10 -1.3897394e-10 7.385044e-11 -3.8819126e-10
000070 66 4d 6c 2d c7 1e 81 2f 93 ac 65 ae ef 2b b2 2f
       1.3432233e-11 2.3486832e-10 -5.222185e-11 3.2409228e-10
000080 ee a1 6d 2f df 86 a3 2f e4 3d 9a af 5d 6e f0 af
       2.1612553e-10 2.974536e-10 -2.8056413e-10 -4.3734164e-10
000090 55 fe 3c af b2 f9 29 30 71 0e 8a af 98 53 a1 af
       -1.7188857e-10 6.183668e-10 -2.5112315e-10 -2.9345126e-10
0000a0 ac d7 40 2e ec be ec af 22 aa fc af e3 06 16 af
       4.38473e-11 -4.3063808e-10 -4.595942e-10 -1.3644867e-10
0000b0 b7 2e e0 2f ba 28 1c af c8 31 9c af 3d 93 43 b0
       4.0778556e-10 -1.4202586e-10 -2.8411606e-10 -7.1149825e-10
0000c0 4a b1 f0 ad ae 1c 01 b0 17 b1 0f b0 6b d4 19 af
       -2.7363573e-11 -4.6970683e-10 -5.2274757e-10 -1.3990735e-10
0000d0 af 10 f7 2e d1 4b ad 2f 34 ad d4 2e 03 57 9f 2f
       1.1235223e-10 3.1522387e-10 9.671411e-11 2.8983757e-10
0000e0 b4 2e ab ae 5c 05 94 2f f2 7a 46 2e b5 cf 16 2f
       -7.784476e-11 2.692485e-10 4.5129185e-11 1.3716213e-10
0000f0 53 b1 a0 ae 23 cb 82 af ab 27 af 2f 2d 94 22 30
       -7.307457e-11 -2.37912e-10 3.18605e-10 5.9145827e-10
000100 44 ef 60 af 47 a2 19 af 90 fa 85 af 9d 7a 2f af
       -2.0457686e-10 -1.3972921e-10 -2.4370594e-10 -1.5959718e-10
000110 58 29 1f ad 66 87 c3 ae b9 ca c8 2f f0 ea 20 af
       -9.047284e-12 -8.891625e-11 3.652383e-10 -1.4635382e-10
000120 18 84 dc af d2 25 6e 2f 9e f6 44 af b0 8f e2 2f
       -4.0111625e-10 2.165941e-10 -1.7913712e-10 4.1211257e-10
000130 79 35 50 af aa 8c b0 2f ae c3 5e 2f 73 cd 21 2f
       -1.8936487e-10 3.211416e-10 2.0260302e-10 1.4715855e-10
000140 e1 93 63 af 9c df 05 af ab aa de af 06 d5 8d ae
       -2.0698067e-10 -1.2175722e-10 -4.0502832e-10 -6.449778e-11
000150 60 58 c4 af 65 e7 88 2f 50 fa ba ae c8 0c 2e 30
       -3.5714987e-10 2.4902672e-10 -8.502765e-11 6.3318994e-10
000160 1a 1d 46 2e 37 56 89 ae 30 16 eb 2e 70 fb 02 af
       4.5045835e-11 -6.2453535e-11 1.0690504e-10 -1.191276e-10
000170 c4 ed e2 2e 1d fc a9 ad 7a 60 da af 20 5c 01 ae
       1.0319526e-10 -1.9325036e-11 -3.972252e-10 -2.9413028e-11
000180 97 9f c2 2e fb 20 83 ae 7d bc 30 ae d4 e4 9b 2e
       8.8504475e-11 -5.963049e-11 -4.0185178e-11 7.089232e-11
000190 ea 48 5c 2f 02 88 90 2f 7a a8 69 b0 50 47 f1 ae
       2.0034788e-10 2.6290087e-10 -8.5004326e-10 -1.0972079e-10
0001a0 2e ff d9 af 93 6f 54 af a4 5c cc 2e b8 40 24 2f
       -3.9653386e-10 -1.9320927e-10 9.293302e-11 1.4938706e-10
0001b0 88 54 45 30 f2 fc 49 30 9a 2a 0e af 2c b2 5d ae
       7.178831e-10 7.348283e-10 -1.292996e-10 -5.040783e-11
0001c0 3e 43 a5 2f 6b 29 7e af aa 33 23 ae 34 1e dd af
       3.0061104e-10 -2.311588e-10 -3.7107796e-11 -4.0221126e-10
0001d0 e7 54 3f af 1c 2b e0 af 51 ee 81 2e 74 3b c8 af
       -1.7401512e-10 -4.0775994e-10 5.908574e-11 -3.6422032e-10
0001e0 28 f0 6a af 13 72 4d 2f f6 3f 0e 2f 9e 28 f5 2f
       -2.1367497e-10 1.8685169e-10 1.2937548e-10 4.45941e-10
0001f0 0e 85 22 b0 51 61 fe 2e 30 0b a1 2f 9b 28 ec 2d
       -5.912434e-10 1.15678696e-10 2.9293679e-10 2.6848126e-11
000200 7d 96 dd 2e e5 47 e6 ae 71 61 29 30 b1 af e2 2f
       1.00766485e-10 -1.047196e-10 6.1620314e-10 4.1233997e-10
000210 02 1e 4b af 20 36 4b 2f 8b 72 53 2c 0b 88 9f 2f
       -1.8473403e-10 1.8481972e-10 3.0048488e-12 2.9018596e-10
000220 c6 1e 06 af d7 b0 34 2f ec 24 a2 b0 93 6a d8 2e
       -1.2198162e-10 1.6433731e-10 -1.1797545e-09 9.841474e-11
000230 31 31 96 af df 28 23 af b3 f5 10 b0 f4 98 80 2f
       -2.7319794e-10 -1.4839284e-10 -5.2736054e-10 2.3391744e-10
000240 f4 54 8b b0 2a c5 9c af 99 7f 80 30 4e 45 fc 2f
       -1.0137726e-09 -2.8516328e-10 9.349491e-10 4.5887777e-10
000250 5e 09 b9 2f d6 df 82 30 58 8d 1d ae 70 32 0a 2f
       3.365796e-10 9.522363e-10 -3.5823206e-11 1.2568946e-10
000260 d3 75 1d b0 d9 0b b5 af 89 ba ae 2f d9 fd f4 2c
       -5.7283706e-10 -3.2932126e-10 3.1782957e-10 6.96308e-12
000270 e8 cd 73 2d 5e 50 c8 af 8a e4 49 2e c9 ae ac af
       1.3858671e-11 -3.6436892e-10 4.5905092e-11 -3.141081e-10
000280 94 fa 76 b0 7b f0 b1 ae fc 2c 76 2e 97 25 aa 2e
       -8.985037e-10 -8.091746e-11 5.597388e-11 7.737382e-11
000290 72 17 53 b0 38 81 12 af 79 38 62 af b5 4f ec ac
       -7.679467e-10 -1.332453e-10 -2.0574643e-10 -6.7163727e-12
0002a0 f4 02 94 30 4b a6 7c 30 fb 83 8e 2c 7c 9e cc 2f
       1.0769257e-09 9.191338e-10 4.0505355e-12 3.7219994e-10
0002b0 f3 44 9a af b4 67 06 30 30 c7 69 af c0 14 87 af
       -2.8061428e-10 4.8896287e-10 -2.1261992e-10 -2.45711e-10
0002c0 ae 41 8d af 88 f1 30 b0 cf 89 ea af a4 a8 5b 2f
       -2.569442e-10 -6.4371664e-10 -4.266227e-10 1.9977847e-10
0002d0 cf d2 9e 2f 73 92 43 ad ea ed 2f af 96 ea 19 2f
       2.888982e-10 -1.1116985e-11 -1.6000681e-10 1.399861e-10
0002e0 0c 1a 4e b0 46 35 82 2e cb 63 43 2f 38 61 ae 2f
       -7.497938e-10 5.921179e-11 1.77706e-10 3.1719494e-10
0002f0 8c 60 cf 2f c5 75 29 2e b1 c8 6e 2f 53 4a a3 af
       3.772168e-10 3.853075e-11 2.1717274e-10 -2.9702338e-10
000300 74 c0 1f b0 9b e3 6e 2f 8c 5f a9 af 7c 76 9f 30
       -5.8117355e-10 2.1726836e-10 -3.080881e-10 1.1602448e-09
000310 30 42 0f b0 01 75 c7 ad 97 92 cb 2f 0a de 61 b0
       -5.2117155e-10 -2.2675641e-11 3.7029643e-10 -8.217006e-10
000320 28 f0 6e af c7 be 59 af cf d1 b1 2f 34 65 25 b0
       -2.1731295e-10 -1.9803813e-10 3.234519e-10 -6.017047e-10
000330 3c 89 2d b0 6c 5a 0d 2f 27 db c3 af 76 be 2f 30
       -6.3132055e-10 1.2856e-10 -3.562601e-10 6.393529e-10
000340 b9 6d 5d af 0c 19 08 2f 26 46 ca ae 64 45 bb 2f
       -2.0138814e-10 1.2378026e-10 -9.1983574e-11 3.4064407e-10
000350 7f 6e 26 b0 27 22 a5 2e b2 94 35 2f 77 16 9d 2d
       -6.054747e-10 7.509398e-11 1.6514681e-10 1.785881e-11
000360 f3 4f bb ae eb f2 27 b0 b4 1c c6 2f b3 c9 a4 2f
       -8.517977e-11 -6.1099453e-10 3.6036385e-10 2.9974742e-10
000370 b2 e4 46 b0 76 05 88 2f 39 ab 44 2f bd 0d 89 2f
       -7.2356976e-10 2.4742136e-10 1.7886927e-10 2.4929916e-10
000380 65 72 74 af eb 10 1c 30 60 ae 2a ae c7 f7 76 ae
       -2.2232312e-10 5.677651e-10 -3.88084e-11 -5.6153995e-11
000390 a3 5e c6 2f 4e 1c 64 b0 28 90 a8 2f 57 bb 0b af
       3.6083234e-10 -8.298614e-10 3.066145e-10 -1.2708533e-10
0003a0 94 14 d3 2f 60 80 18 2f 67 49 fa ac a0 46 fb 2e
       3.8395298e-10 1.3869927e-10 -7.1135767e-12 1.1426704e-10
0003b0 9b 5c 06 b0 ad ee cb af a7 ec 93 af 49 55 20 2f
       -4.8880516e-10 -3.7095074e-10 -2.6907296e-10 1.4582215e-10
0003c0 3d 3c e9 2f af bd 09 2f bf 9a 27 af da 4d 13 2f
       4.2425255e-10 1.2527467e-10 -1.5243538e-10 1.339723e-10
0003d0 7b 1d 34 b0 d5 d7 3f ad 74 59 8b 2e af b7 9f af
       -6.5525513e-10 -1.0905017e-11 6.336878e-11 -2.9052447e-10
0003e0 79 0b 0a af 48 43 c3 2e 8a 61 1c ad 6a 08 01 2f
       -1.2555103e-10 8.879525e-11 -8.889231e-12 1.1735471e-10
0003f0 ae 7f 25 af 9f aa c1 2f ed e6 83 af e7 7e c8 2e
       -1.5052024e-10 3.522773e-10 -2.3992844e-10 9.1174894e-11
