tf2/style_transfer/cartoongan/pretrained_weights/shinkai/conv09_2.bias.npy (npy, 1152 bytes, 1 tensors)

array f4 [256]
1.25273e-10 1.0842041e-09 -1.764025e-10 1.0043189e-09 -1.1684694e-09 2.8119473e-09 -1.2603078e-10 5.6218136e-10
-1.5043774e-09 1.8706154e-09 8.87392e-10 1.6438279e-10 5.952959e-10 -9.31531e-10 9.3837e-10 1.2285963e-09
3.1905514e-10 -3.0698089e-10 -1.2784386e-09 1.3279666e-10 -4.955631e-11 2.687003e-10 6.951784e-10 -2.1754513e-10
-1.4733946e-09 7.9365436e-10 6.405116e-10 -1.214109e-09 2.1056554e-10 -7.020364e-10 1.2309542e-09 1.2260065e-09
6.878826e-10 1.7744478e-11 9.914001e-12 -6.05328e-11 -3.13901e-10 -2.467046e-10 -1.5842725e-09 -2.5350424e-09
5.98837e-10 6.88216e-11 -5.1956117e-10 -6.15068e-10 -1.0252027e-09 -5.093363e-10 -8.8270813e-10 1.9774344e-09
2.1222042e-09 -5.2996063e-10 -6.5044214e-10 -1.209481e-09 1.0607651e-11 7.812896e-10 2.589993e-09 8.730949e-12
1.3689955e-09 -3.1877717e-10 6.7729966e-10 1.9134538e-09 -1.998892e-09 3.854829e-10 8.3936685e-10 1.9855066e-09
5.0265286e-10 7.8574325e-10 -7.8523094e-10 -3.0367775e-09 5.580517e-09 2.7912533e-10 -7.5303436e-10 1.7700211e-10
-5.861831e-10 3.751231e-09 -4.1522444e-10 -2.0736342e-09 4.4400497e-10 9.38492e-10 1.466836e-10 3.374564e-10
-4.8834825e-09 3.9250683e-10 3.8632095e-10 -1.6491192e-09 2.3581906e-10 1.196401e-10 -8.8476354e-10 -9.9177715e-11
2.5846683e-10 -2.117327e-09 -1.6384746e-10 -9.13502e-10 -9.857363e-10 1.4656169e-09 -3.0408226e-10 -1.152361e-09
-1.7295312e-09 3.1660177e-10 -1.3462251e-09 -1.9351391e-10 -3.3116673e-10 6.797714e-10 6.442332e-10 1.0775096e-09
5.969112e-10 1.9575388e-09 -1.480677e-10 2.386957e-10 5.431458e-10 -1.0730236e-09 1.1711654e-09 -4.531187e-10
-2.733579e-10 2.2314315e-09 1.0742449e-09 2.968266e-09 2.1520254e-09 3.167914e-09 3.7863332e-10 8.2756674e-10
-1.0084278e-09 -1.6586863e-09 -9.6153266e-11 5.836746e-10 -1.9898028e-09 5.420388e-10 -2.2183246e-09 7.6721696e-10
3.3818768e-09 1.1452378e-09 7.6238565e-10 3.2225431e-09 -1.1557636e-09 3.371706e-10 -9.0267643e-10 -9.94472e-10
-8.562545e-10 2.0397848e-11 -1.1345807e-10 -6.2565914e-10 4.7123855e-10 1.4597589e-09 1.3997813e-09 -1.5780528e-10
3.0136431e-09 4.470315e-10 4.85499e-11 1.3746523e-09 -8.669408e-10 -7.102326e-11 3.9715014e-09 6.970804e-10
-5.3085836e-10 -1.5175785e-09 -4.2897896e-10 1.9494808e-09 -2.452944e-10 -9.326345e-10 -4.815356e-10 8.270469e-10
1.2531293e-10 -7.7049694e-10 -2.508865e-09 -9.470307e-10 8.429927e-10 3.092747e-10 -7.0865636e-10 2.1247334e-11
-1.6205408e-09 1.2452561e-10 2.521383e-10 5.2870747e-10 -1.7473212e-09 1.0259048e-10 4.0594192e-10 -6.121507e-10
-2.670514e-10 -4.5124815e-10 -5.4051935e-10 -2.5877391e-09 -1.3388528e-09 6.4309225e-10 2.0582807e-09 -9.4423976e-11
-2.2983468e-09 6.670691e-10 -3.5213013e-09 -7.4751316e-10 -2.0793697e-10 1.5372766e-11 4.404398e-11 -5.626223e-10
-3.015902e-10 3.5804107e-10 -4.015958e-11 -8.113358e-11 -2.7857408e-10 -3.1880227e-09 -3.1913001e-09 -4.6301806e-11
4.2016474e-10 -1.9315717e-10 7.30094e-10 1.1773589e-09 -5.456502e-10 -5.898553e-10 -2.3561864e-10 -7.3465006e-10
-1.5290635e-09 1.800058e-10 7.3805095e-10 -1.6821202e-09 2.663692e-10 9.556242e-10 -1.4436334e-11 -7.548619e-10
-2.5638658e-10 -1.9360205e-09 2.814865e-10 -2.0719557e-10 -7.689251e-10 1.6668618e-10 -3.6848333e-09 1.2270919e-09
1.4551818e-09 -1.4525399e-10 -1.3469119e-09 1.7607024e-09 -7.20054e-10 -1.2949636e-09 -2.4393246e-10 -1.2769096e-09
8.051765e-11 -1.1405277e-09 -1.2770502e-09 -2.6492547e-10 -5.7458996e-11 2.7176222e-10 2.9008868e-10 7.7434e-10
4.6958007e-11 -5.5596283e-10 -1.2230696e-09 3.9673392e-10 -1.174255e-10 -4.4887555e-10 -5.712499e-10 4.9045845e-10
2.725311e-10 -1.8996038e-09 -2.2225612e-09 1.2812336e-09 -4.3005044e-09 -1.1291601e-10 1.7060088e-09 -7.165901e-10
00000000: 37bd 092f 0a03 9530 e4f4 41af 5408 8a30
00000010: dd97 a0b0 4d3c 4131 8392 0aaf ff87 1a30
00000020: 93c2 ceb0 378c 0031 a9ec 7330 a4bd 342f
00000030: 3aa2 2330 5507 80b0 f6f7 8030 64db a830
00000040: 0567 af2f b8c3 a8af 0fb5 afb0 f002 122f
00000050: 72f3 59ae 35b8 932f d516 3f30 8331 6faf
00000060: 7780 cab0 7628 5a30 ff0f 3030 aadd a6b0
00000070: ee84 672f 6bf9 40b0 5a2e a930 4580 a830
00000080: 6f15 3d30 0315 9c2d b168 2e2d f01c 85ae
00000090: a391 acaf 96a0 87af a2bd d9b0 f034 2eb1
000000a0: 689b 2430 1e57 972e ded0 0eb0 9011 29b0
000000b0: 1de7 8cb0 5b01 0cb0 10a3 72b0 65e3 0731
000000c0: 36d6 1131 aaac 11b0 ccca 32b0 d43a a6b0
000000d0: 9d9c 3a2d 5ec2 5630 a4fb 3131 b398 192d
000000e0: 3f27 bc30 e63f afaf ba2c 3a30 d67d 0331
000000f0: e15c 09b1 e5eb d32f 31b9 6630 6771 0831
00000100: 0d2b 0a30 c4fb 5730 b7d7 57b0 8eaf 50b1
00000110: bfbe bf31 6673 992f 15fe 4eb0 aa9d 422f
00000120: f820 21b0 2de4 8031 a545 e4af c27f 0eb1
00000130: 2518 f42f 40fc 8030 c347 212f c484 b92f
00000140: 91cb a7b1 6dc8 d72f d761 d42f 39a7 e2b0
00000150: 95a4 812f b28b 032f b333 73b0 1718 daae
00000160: f917 8e2f 6980 11b1 f626 34af fd19 7bb0
00000170: 837a 87b0 cf6e c930 c62b a7af 1961 9eb0
00000180: 78b4 edb0 bd0d ae2f 1606 b9b0 53c5 54af
00000190: 930f b6af a9da 3a30 e215 3130 8017 9430
000001a0: e413 2430 6385 0631 5acd 22af 6f39 832f
000001b0: 7d4c 1530 a979 93b0 b8f6 a030 ca1a f9af
000001c0: b447 96af c257 1931 a2a4 9330 4afa 4b31
000001d0: d5e2 1331 88b2 5931 e727 d02f d57a 6330
000001e0: e698 8ab0 d6f7 e3b0 7a71 d3ae 7370 2030
000001f0: fbbc 08b1 97fe 1430 2e71 18b1 18e4 5230
00000200: 9b66 6831 7966 9d30 1f90 5130 9473 5d31
00000210: d1d8 9eb0 8b5c b92f 3520 78b0 dfad 88b0
00000220: 8e5d 6bb0 df6b b32d 377f f9ae d9fa 2bb0
00000230: 7788 0130 b3a0 c830 6d62 c030 3d82 2daf
00000240: 9218 4f31 17c2 f52f 5486 552e 47ee bc30
00000250: 894d 6eb0 8a2e 9cae b275 8831 ac9c 3f30
00000260: d6eb 11b0 0c93 d0b0 6cd5 ebaf a1f7 0531
00000270: 1eda 86af 292e 80b0 0e5d 04b0 4056 6330
00000280: 74c8 092f e7ca 53b0 6b68 2cb1 ae28 82b0
00000290: 56b8 6730 8b06 aa2f 42cb 42b0 bee4 ba2d
000002a0: b6b9 deb0 d8ea 082f 509d 8a2f 7b54 1130
000002b0: 6626 f0b0 4e99 e12e 3f2b df2f 4744 28b0
000002c0: 25d0 92af 8813 f8af ab93 14b0 fdd3 31b1
000002d0: b202 b8b0 98c5 3030 a871 0d31 f9a3 cfae
000002e0: f2f0 1db1 d15c 3730 63fb 71b1 9079 4db0
000002f0: 0ea1 64af 6438 872d 1db5 412e 06a7 1ab0
00000300: 0ccd a5af cdd5 c42f ab9f 30ae 256a b2ae
00000310: d125 99af 4a14 5bb1 f24d 5bb1 33a3 4bae
00000320: eefc e62f e960 54af ccaf 4830 a2d0 a130
00000330: b8fc 15b0 6023 22b0 6088 81af 67f0 49b0
00000340: 2427 d2b0 21eb 452f b8df 4a30 5830 e7b0
00000350: 2270 922f 0a57 8330 78f7 7dad af7e 4fb0
00000360: 34f3 8caf d50a 05b1 b4bf 9a2f 5ed0 63af
00000370: 4b5c 53b0 fd45 372f 4638 7db1 75a6 a830
00000380: a8ff c730 5db5 1faf 401e b9b0 35fd f130
00000390: 4ced 45b0 7bfa b1b0 711a 86af 437f afb0
000003a0: 680f b12e c0c0 9cb0 3684 afb0 f2a4 91af
000003b0: 14b5 7cae 2267 952f 5a7a 9f2f 55d9 5430
000003c0: 0486 4e2e 68d2 18b0 f018 a8b0 561b da2f
000003d0: 571c 01af 9ec5 f6af 2306 1db0 f2d0 0630
000003e0: 58d3 952f 2f8a 02b1 b6bb 18b1 6617 b030
000003f0: a3c3 93b1 104e f8ae d978 ea30 8cf9 44b0
