tf2/style_transfer/cartoongan/pretrained_weights/shinkai/deconv01_2.bias.npy (npy, 640 bytes, 1 tensors)

array f4 [128]
000000 48 17 44 31 d1 4f f0 30 6c 76 22 b0 89 f7 04 b0
       2.8534988e-09 1.7484983e-09 -5.9103544e-10 -4.837309e-10
000010 73 57 d5 30 32 ff 1c 31 ba 2c 9a 30 75 45 88 30
       1.5522644e-09 2.284605e-09 1.1217687e-09 9.915043e-10
000020 ff 65 13 2e 94 9d a6 b0 5b 60 cd b0 ec b0 9d 30
       3.351452e-11 -1.2122876e-09 -1.4943099e-09 1.1473538e-09
000030 c2 c7 1f b1 8e 2c e7 b0 08 08 15 b0 dc 96 a8 b0
       -2.3251094e-09 -1.6820125e-09 -5.42173e-10 -1.2266486e-09
000040 c4 89 6e 30 41 45 61 30 13 a0 d9 2f 96 74 11 30
       8.677967e-10 8.195294e-10 3.958581e-10 5.291637e-10
000050 57 b4 34 2f 37 78 d9 30 05 25 11 30 8d a2 22 30
       1.6434974e-10 1.5822995e-09 5.28033e-10 5.9166255e-10
000060 c3 d7 fd af c9 fe b5 af ff 99 50 30 90 94 9c 30
       -4.617374e-10 -3.3104744e-10 7.58888e-10 1.1392718e-09
000070 08 66 dd 2d a8 90 55 b1 aa 7e fe 30 24 ba 60 30
       2.5170102e-11 -3.1077807e-09 1.8516932e-09 8.1755247e-10
000080 b4 14 95 b0 d5 99 88 af d4 1b ba 30 a7 c6 09 b1
       -1.0847061e-09 -2.484756e-10 1.354119e-09 -2.0049045e-09
000090 d4 74 b2 31 41 15 72 b0 e5 42 99 b0 19 74 27 af
       5.1937636e-09 -8.806929e-10 -1.1151228e-09 -1.5229808e-10
0000a0 6c 05 fe af 37 ea af 2f a2 12 b1 b0 b0 02 11 af
       -4.6206183e-10 3.1998734e-10 -1.2883741e-09 -1.3188628e-10
0000b0 8c 57 eb 2f e7 27 0e 31 e8 e0 33 b0 6a a7 2f 2f
       4.2808457e-10 2.0686401e-09 -6.543943e-10 1.5975635e-10
0000c0 d2 3e 15 b1 13 aa 5c 30 c3 31 f8 30 e2 60 ec af
       -2.1718063e-09 8.0277224e-10 1.8058518e-09 -4.299699e-10
0000d0 13 35 d3 af 0e d2 d3 af 00 ad b5 30 d8 43 23 b1
       -3.8418388e-10 -3.852993e-10 1.3218653e-09 -2.3758187e-09
0000e0 1f 1e 80 b1 4b 6e 2e b1 84 5a ff 30 60 bd 10 30
       -3.7287147e-09 -2.5383027e-09 1.8579418e-09 5.2656013e-10
0000f0 db 72 9f 30 83 52 10 2f 09 81 0c b1 50 e1 30 30
       1.1601416e-09 1.3126038e-10 -2.044603e-09 6.4348615e-10
000100 ec e7 2a b1 c1 aa cd af e5 a6 22 b0 d7 7c 9f 2e
       -2.4870088e-09 -3.741061e-10 -5.917243e-10 7.252659e-11
000110 ae 2f ea ae 1c b8 3f af 64 eb 08 31 c9 6c 60 b1
       -1.06495576e-10 -1.7436758e-10 1.9924409e-09 -3.2658127e-09
000120 db c9 2f b1 0d d9 9c 31 bc 33 80 30 50 eb 15 b1
       -2.5580593e-09 4.5648734e-09 9.32793e-10 -2.1816113e-09
000130 e5 4b 27 b0 df 35 18 30 c2 9e 3f 31 e6 43 1b b1
       -6.08621e-10 5.5373833e-10 2.7884401e-09 -2.2594064e-09
000140 c3 ea 98 b0 5e 47 3e b0 b5 43 f2 b0 7c f4 68 b0
       -1.1126179e-09 -6.9223016e-10 -1.7627061e-09 -8.474854e-10
000150 e6 97 8e 2f 5b a5 0c b1 88 18 ab 2f 3e bb d6 31
       2.593758e-10 -2.0466675e-09 3.112215e-10 6.2495067e-09
000160 5f 2b da b0 33 c0 46 b1 14 1a 30 b1 57 e5 53 30
       -1.5873914e-09 -2.8922045e-09 -2.5626194e-09 7.7087264e-10
000170 6d a9 a7 31 9a 00 87 b0 5e bf fe 30 3f 97 5b 30
       4.879601e-09 -9.822714e-10 1.8535322e-09 7.988667e-10
000180 62 22 e3 2d 45 74 68 b0 a7 ac 6b b0 d6 db e4 2f
       2.5822181e-11 -8.456634e-10 -8.5737856e-10 4.162916e-10
000190 1d 98 1e 30 bf 2e fb af 68 c2 87 b1 f6 ab 51 b0
       5.769623e-10 -4.568985e-10 -3.9511185e-09 -7.627813e-10
0001a0 e7 de fc 30 fd 2e 8f 30 1e 78 42 b1 06 85 a6 30
       1.8398766e-09 1.0417974e-09 -2.8298994e-09 1.2115897e-09
0001b0 c6 0e 9a 30 7f 46 94 30 87 0a 8c 30 39 5c 5e 31
       1.1209174e-09 1.0788453e-09 1.0189333e-09 3.2357674e-09
0001c0 b6 ab cd b0 df 47 24 31 f7 2a ee 30 ba 26 02 b1
       -1.4964516e-09 2.3905995e-09 1.732899e-09 -1.8939503e-09
0001d0 8c 0e 44 31 a4 4b 01 31 bf 60 17 b1 55 85 0d b1
       2.8530023e-09 1.8814967e-09 -2.2028386e-09 -2.059399e-09
0001e0 de 78 6d b0 24 e5 28 af 94 1a 4a b1 15 1b be af
       -8.639186e-10 -1.5360918e-10 -2.9409977e-09 -3.4580042e-10
0001f0 7a 4e 91 b0 75 58 32 ae 84 68 03 31 4e 93 54 2c
       -1.0572443e-09 -4.055108e-11 1.912242e-09 3.0208783e-12
