style_transfer/cartoongan/pretrained_weights/hayao/conv08_1.bias.npy (npy, 1152 bytes, 1 tensors)

array f4 [256]
0	0xb0211049	-5.85946e-10
1	0xb15bd6c9	-3.1990786e-09
2	0xb00c1472	-5.096076e-10
3	0xaf2aed6d	-1.554576e-10
4	0x2f91c182	2.6512842e-10
5	0xb04b8ba0	-7.404939e-10
6	0xb0563a1e	-7.7935336e-10
7	0x3019c0c0	5.593499e-10
8	0xb0993002	-1.114586e-09
9	0x3060012c	8.149239e-10
10	0x30a052dc	1.1665082e-09
11	0xb02c7f17	-6.275384e-10
12	0xb101b70b	-1.8876019e-09
13	0x2f605d51	2.0405834e-10
14	0x2fdfb227	4.0690049e-10
15	0x3058bdf3	7.8850276e-10
16	0xb0a5c0da	-1.2060142e-09
17	0xb00485f6	-4.821169e-10
18	0x2e887589	6.2054424e-11
19	0xafd891d1	-3.939378e-10
20	0xaeb1178a	-8.0532095e-11
21	0xb01e3506	-5.7555416e-10
22	0xaea6eb5b	-7.5906136e-11
23	0xaf727a06	-2.2053123e-10
24	0x30437af1	7.1115297e-10
25	0xb1057bad	-1.9424349e-09
26	0xafa98a5b	-3.0839228e-10
27	0xaec599e0	-8.9858565e-11
28	0xafd79b9b	-3.9218837e-10
29	0x2e99d6b7	6.9957755e-11
30	0xb00503c4	-4.839047e-10
31	0xb0293364	-6.155487e-10
32	0x30bb14a7	1.361191e-09
33	0x307ba4e8	9.1547614e-10
34	0x2f406d05	1.750103e-10
35	0xb0536487	-7.690421e-10
36	0xb0030e23	-4.767761e-10
37	0x2fb0aa9e	3.2135444e-10
38	0xafdb2680	-3.9863224e-10
39	0x2feef243	4.3464085e-10
40	0x308322a9	9.541355e-10
41	0xadadd472	-1.9762168e-11
42	0xb0a5634a	-1.203355e-09
43	0x30fc01f2	1.8335966e-09
44	0x308ad510	1.0101378e-09
45	0x31050d46	1.9361592e-09
46	0xb0eee126	-1.738077e-09
47	0x2e3c4613	4.280849e-11
48	0xb1420c50	-2.8237714e-09
49	0x2f8eb88e	2.5960784e-10
50	0x3035bfeb	6.612015e-10
51	0x30196cbc	5.5815597e-10
52	0x3094c0a5	1.082317e-09
53	0x30f855e8	1.8068791e-09
54	0x2f9e15f7	2.875564e-10
55	0xad358c64	-1.0319832e-11
56	0x2e41c0bd	4.4054305e-11
57	0xaf69b1cf	-2.1254397e-10
58	0x2e515acc	4.7601742e-11
59	0x3091d562	1.0610786e-09
60	0x2f222ad3	1.4749028e-10
61	0x3016a372	5.480195e-10
62	0x305b0846	7.9683493e-10
63	0x2ebd2b6a	8.602437e-11
64	0x2f523fd0	1.912206e-10
65	0xb1062c6e	-1.9524822e-09
66	0xaf805021	-2.334e-10
67	0x310abca6	2.0188877e-09
68	0xafb673c9	-3.3187877e-10
69	0x2eb474ef	8.206224e-11
70	0x3005b772	4.864581e-10
71	0xb1657c0f	-3.3394405e-09
72	0xb08cf7ea	-1.0256802e-09
73	0x2f8b58d1	2.534706e-10
74	0x2fe31b08	4.1310266e-10
75	0xaf4407db	-1.7828887e-10
76	0x3108041c	1.979294e-09
77	0xb11784ad	-2.204881e-09
78	0x303ef136	6.946438e-10
79	0xb0ab2de0	-1.2454926e-09
80	0x2f4a8438	1.8418767e-10
81	0xb02fb321	-6.3919187e-10
82	0xafe8f193	-4.2372203e-10
83	0xb0eb8c62	-1.71384e-09
84	0xb0eea8af	-1.7364722e-09
85	0x30e21ed9	1.6452432e-09
86	0xb08f531f	-1.0428244e-09
87	0x300aa0ce	5.0432625e-10
88	0x2ea500df	7.503486e-11
89	0xafde6b9c	-4.0458026e-10
90	0x304ec1ac	7.521759e-10
91	0xb0c1ed1a	-1.4109987e-09
92	0x2fc7922b	3.6301748e-10
93	0xaeeb3242	-1.069549e-10
94	0x2fa4567c	2.9892877e-10
95	0xaf4d776d	-1.868707e-10
96	0xb09ded45	-1.149069e-09
97	0xb08edc7c	-1.0394525e-09
98	0xb1378f7b	-2.6711564e-09
99	0xb02c2e58	-6.2639094e-10
100	0xaf4e4a16	-1.8761911e-10
101	0x2e39c177	4.223596e-11
102	0xb05df8ee	-8.075308e-10
103	0x30759dc8	8.93547e-10
104	0x301ec381	5.7757893e-10
105	0x30e0cd12	1.635643e-09
106	0x2f8e8de0	2.5930458e-10
107	0x2f95b249	2.722962e-10
108	0x2f3d1277	1.719601e-10
109	0xae41a8b8	-4.403297e-11
110	0xadbcd281	-2.1466608e-11
111	0xb0413678	-7.0290396e-10
112	0xb0ad19fb	-1.2594791e-09
113	0x30408f8c	7.0053185e-10
114	0x2e33a878	4.0849518e-11
115	0x310b7160	2.0291608e-09
116	0xb0acc2da	-1.2570027e-09
117	0xb0a95897	-1.2321547e-09
118	0xaf496dd8	-1.8319868e-10
119	0x2fb2f416	3.2551445e-10
120	0x3092a8a6	1.0670831e-09
121	0xb0233460	-5.9373484e-10
122	0x300ebcf6	5.192783e-10
123	0xb09bc87f	-1.1334719e-09
124	0xb0b0bd56	-1.2859498e-09
125	0xafd3bef6	-3.8516362e-10
126	0x310744c4	1.9684174e-09
127	0xb0aa6dbe	-1.2400319e-09
128	0xb097d3e5	-1.104692e-09
129	0x303a7348	6.783023e-10
130	0xb06c0463	-8.5862534e-10
131	0xaf80aeee	-2.340736e-10
132	0x30c414a2	1.4266741e-09
133	0xafc4089d	-3.5658312e-10
134	0x3097e584	1.1051928e-09
135	0x2f9058d6	2.625657e-10
136	0xaecd1b89	-9.327212e-11
137	0x2fcdc9ed	3.743276e-10
138	0x31045543	1.9256994e-09
139	0x2ec6e2e5	9.044302e-11
140	0xaeefdc49	-1.0907592e-10
141	0x31054130	1.9391102e-09
142	0xb07120b7	-8.772178e-10
143	0xae62e125	-5.158642e-11
144	0x3085e36c	9.741661e-10
145	0xb12b4927	-2.4925357e-09
146	0xaed84ba1	-9.835977e-11
147	0x30273862	6.083437e-10
148	0x2f348146	1.6416832e-10
149	0xb0a38c93	-1.1899765e-09
150	0xb0545ec7	-7.725984e-10
151	0x30a60846	1.2080441e-09
152	0xb02be30e	-6.25321e-10
153	0xb0ff2e8e	-1.8566924e-09
154	0x31029c85	1.900646e-09
155	0x30bfc428	1.395283e-09
156	0x2e035fe1	2.987111e-11
157	0x2e0e0998	3.2295583e-11
158	0x2f6aa851	2.1341974e-10
159	0xb07856cc	-9.034522e-10
160	0x2c6f8078	3.4035257e-12
161	0x2d8d13ce	1.603864e-11
162	0xb0e956f8	-1.6977699e-09
163	0x30f2d4ea	1.7668331e-09
164	0x30dad688	1.5922561e-09
165	0x2fb3f7b2	3.2735908e-10
166	0x30ec14f7	1.7177219e-09
167	0x2db1e8dd	2.0225982e-11
168	0x303bf46a	6.8377537e-10
169	0xaf928c79	-2.6657057e-10
170	0xb081339a	-9.400651e-10
171	0xb003952d	-4.7869514e-10
172	0x30a1bbe4	1.1767693e-09
173	0x306633c8	8.37471e-10
174	0x2fdfca3f	4.0707168e-10
175	0xb1122005	-2.1263997e-09
176	0x30af03c7	1.2733999e-09
177	0x2fa0c6b9	2.9245031e-10
178	0xafc923bd	-3.658708e-10
179	0x2f26475f	1.5122968e-10
180	0x2f3f1425	1.7378506e-10
181	0xb02d1a2f	-6.297424e-10
182	0x3044a617	7.154041e-10
183	0xb08fe4ae	-1.0469614e-09
184	0x2dc27926	2.2109047e-11
185	0x2f0d3209	1.2841651e-10
186	0xaea80bf3	-7.641878e-11
187	0x2e55e47b	4.8633524e-11
188	0xad309d7b	-1.0039409e-11
189	0x301ae8e7	5.635585e-10
190	0xb00150b3	-4.7044607e-10
191	0x304221c3	7.0624767e-10
192	0x30d4585a	1.5450141e-09
193	0x317a93a7	3.6463719e-09
194	0xb096a128	-1.095974e-09
195	0xb0fd6be2	-1.8438835e-09
196	0x3001ca35	4.721728e-10
197	0x30dc062b	1.600886e-09
198	0x3086adcc	9.799179e-10
199	0x304f4ce2	7.541542e-10
200	0x2d6f2cf6	1.35955604e-11
201	0xafb811dc	-3.3482095e-10
202	0xb05ba53d	-7.9906554e-10
203	0x2f8c99b3	2.5575062e-10
204	0x2f98bdf5	2.7783612e-10
205	0xb02946e8	-6.1582606e-10
206	0xafc8ac58	-3.6502246e-10
207	0xafbe81b1	-3.465295e-10
208	0xb10d646b	-2.0575281e-09
209	0x3191a94e	4.239303e-09
210	0x301a862b	5.621554e-10
211	0x2f6787e6	2.1057608e-10
212	0xb1699b42	-3.3994216e-09
213	0xb0eece59	-1.7375427e-09
214	0x30b59f06	1.321468e-09
215	0x30c9f165	1.4693283e-09
216	0xb0a75ee6	-1.2177821e-09
217	0x30388a91	6.7135725e-10
218	0x2fba9667	3.394007e-10
219	0xb10f088e	-2.0814102e-09
220	0xb10b8355	-2.0301816e-09
221	0x308f8832	1.0443328e-09
222	0xb0d91eb0	-1.579755e-09
223	0x302918a8	6.151688e-10
224	0xb13567e9	-2.6398033e-09
225	0xafb1b4a3	-3.2324463e-10
226	0x30c53dcf	1.4351204e-09
227	0xaedbd810	-9.9973474e-11
228	0xb0a629dd	-1.2089988e-09
229	0x302cc5e0	6.285443e-10
230	0xb01c2564	-5.6805605e-10
231	0x2f98e776	2.7813102e-10
232	0xb137f1d3	-2.6767466e-09
233	0xb010586d	-5.2512555e-10
234	0x30a42af0	1.1944774e-09
235	0xb0506851	-7.58182e-10
236	0x2f024e2f	1.1851208e-10
237	0x30683de1	8.4489044e-10
238	0x2fac2698	3.131404e-10
239	0x2eda43c4	9.92553e-11
240	0xaf999559	-2.7936656e-10
241	0xb106a602	-1.959393e-09
242	0xaff75335	-4.498816e-10
243	0x30338ace	6.5317074e-10
244	0xb11e5271	-2.3038889e-09
245	0xafb2717c	-3.2458647e-10
246	0x30a23a28	1.180358e-09
247	0xb03c31a2	-6.8464534e-10
248	0xae4ad7d2	-4.612117e-11
249	0x2fb3dbd2	3.2716102e-10
250	0xb09e8d9b	-1.153626e-09
251	0xafca00f3	-3.674426e-10
252	0xb10f45bd	-2.084888e-09
253	0xaf923a48	-2.6598657e-10
254	0x2e9e7723	7.206171e-11
255	0xb124d104	-2.3983953e-09
