tf2/pretrained_weights/paprika/conv07_1.bias.npy (npy, 1152 bytes, 1 tensors)

array f4 [256]
7.542968e-11 -5.4363825e-10 1.523371e-09 5.5268246e-10 -2.475914e-10 -1.8691301e-10 -7.539212e-10 5.2445887e-10
-2.4685005e-09 -1.1640773e-09 4.09917e-09 -1.1625877e-09 1.4131214e-09 2.7423215e-09 -5.2905297e-10 1.0578707e-09
-3.9410009e-10 -1.9086872e-09 -1.0702016e-09 -9.757894e-10 1.1585439e-09 4.099894e-09 1.687359e-09 -9.3035596e-10
1.9094175e-09 1.4002891e-09 1.7547853e-09 9.715166e-11 1.0469414e-09 -1.1234979e-09 3.96974e-10 1.1249301e-09
1.999957e-10 2.6440434e-09 1.0770206e-11 -1.8544023e-09 3.5094952e-10 5.5979976e-10 1.718519e-09 -3.6663588e-09
3.0917209e-09 -2.237418e-10 -2.5964406e-09 2.7469236e-09 1.8813439e-11 -3.580756e-09 -3.4223854e-10 1.0905894e-09
-3.5368297e-09 -4.0062068e-11 2.8920677e-10 1.3374275e-09 9.685468e-10 -4.2036555e-10 -9.091561e-10 -1.8790056e-09
1.0397846e-10 6.2797945e-10 -1.7168538e-09 -4.370219e-09 -1.5715156e-09 -1.99234e-09 -3.5131893e-09 4.0228812e-10
-1.3165355e-09 4.553986e-11 -1.6232499e-10 -1.8524613e-09 -8.258423e-10 -5.563871e-10 -3.6898287e-10 -9.412142e-10
1.8829764e-09 -1.9695052e-09 7.961647e-10 7.421204e-10 1.9289095e-10 -2.5255722e-09 1.7618142e-10 2.267153e-09
1.5071842e-09 1.980982e-09 -1.9113208e-11 5.440294e-10 5.693584e-12 1.222683e-10 5.3336936e-11 -1.424194e-09
9.367854e-10 2.1938578e-09 -2.1705321e-10 -5.0609763e-11 3.124685e-09 -7.481051e-11 -7.943661e-10 -1.0810376e-09
-1.8594684e-09 -7.3538836e-10 -9.842616e-10 8.172781e-10 1.1797684e-09 4.0475445e-09 -1.1223765e-09 8.931184e-10
-2.9709608e-09 -2.8249882e-09 4.1376556e-09 4.547843e-09 2.342141e-10 7.950151e-10 -3.0350658e-09 9.51737e-10
3.2095568e-09 8.9586544e-10 5.048927e-09 -3.1896522e-10 -5.0107106e-11 4.418467e-10 5.590804e-09 -2.086681e-09
1.6708046e-09 5.0909543e-10 1.899042e-09 -1.702749e-09 -1.4859042e-09 1.2698409e-10 -7.925385e-11 -2.2900455e-09
-8.2077073e-10 5.0527477e-10 -2.8585123e-09 -1.381263e-09 -2.1422503e-10 -1.0505186e-09 5.985839e-10 1.4883184e-09
1.121989e-09 -1.1621041e-09 -1.1663939e-09 -3.1162284e-10 2.01406e-09 1.5400806e-09 1.1730177e-09 -3.506483e-11
2.6560445e-09 -3.7767327e-09 1.9115645e-09 -3.8597077e-09 2.8660643e-09 -4.843727e-11 3.1868883e-09 2.977616e-09
1.220414e-09 1.2062171e-09 1.8360301e-09 -1.0884486e-09 2.723729e-09 -1.0746328e-09 6.3032596e-10 6.450669e-10
4.2190655e-09 -6.0898536e-10 -7.2459566e-10 -6.9819057e-09 2.8577838e-09 -2.1905053e-10 2.5216544e-09 -4.593555e-10
-1.2198018e-09 -4.6745524e-10 2.8603537e-09 -4.17372e-09 -7.094909e-10 -2.1783266e-09 4.3168447e-10 -2.3908944e-09
3.6728223e-10 -2.608099e-09 -2.1156448e-09 -2.2056104e-09 4.671557e-10 -3.480782e-10 5.957207e-10 7.818824e-10
1.6824035e-10 -1.5383316e-09 -2.323944e-09 7.3168964e-11 -6.110485e-10 -7.227968e-10 4.680646e-10 3.6986592e-10
3.8293552e-10 1.1874782e-10 -4.857128e-10 1.3838164e-09 1.5514761e-11 -5.057046e-10 -6.5405303e-10 8.002381e-11
-4.8815924e-10 -4.445009e-10 1.7162058e-10 6.2242456e-09 8.2681295e-10 -1.1867759e-09 -2.2292135e-09 -3.108709e-11
3.1013783e-09 2.3560323e-10 4.904412e-10 7.633498e-11 -1.8541653e-09 -2.8732468e-09 4.0736758e-10 -7.642918e-11
-1.3693647e-09 3.4362897e-09 1.8467242e-09 -3.2909457e-09 1.3317836e-09 5.833957e-10 -9.872583e-10 1.5320405e-09
1.6050222e-09 -2.4671998e-12 -2.7599136e-09 2.9805072e-09 -1.6418602e-09 8.039259e-10 1.7470698e-09 8.514709e-10
-9.0113245e-10 9.3547725e-11 8.0454327e-10 -3.8182686e-11 2.7375902e-09 -1.9118864e-09 -1.6674893e-09 -3.0014877e-10
1.4588439e-10 -7.5650003e-10 -1.0123965e-09 6.2147727e-09 6.1000105e-10 -1.3666e-09 5.1650717e-10 -1.0295265e-10
-1.1912527e-09 -2.0987141e-10 -2.2486615e-09 1.4400514e-10 -1.7102849e-09 2.1399706e-10 1.3394359e-09 -4.4274118e-10
00000000: 23df a52e 246f 15b0 da5e d130 92eb 1730
00000010: 641d 88af 5683 4daf 7d3c 4fb0 8329 1030
00000020: 52a2 29b1 54fd 9fb0 aed8 8c31 ebc8 9fb0
00000030: ca37 c230 6e73 3c31 cb6c 11b0 8464 9130
00000040: a8a8 d8af fb29 03b1 5f16 93b0 8a1c 86b0
00000050: a43a 9f30 0ddf 8c31 abe8 e730 fbbb 7fb0
00000060: d436 0331 4b74 c030 052d f130 86a3 d52e
00000070: fae3 8f30 9169 9ab0 203d da2f f69b 9a30
00000080: c9e5 5b2f 81b2 3531 b278 3d2d fbdd feb0
00000090: c1ef c02f 68e0 1930 0331 ec30 44f3 7bb1
000000a0: 2176 5431 b801 76af 116d 32b1 64c4 3c31
000000b0: 197c a52d 5311 76b1 cb25 bcaf b4e3 9530
000000c0: 910c 73b1 e131 30ae 3cfe 9e2f 8cd0 b730
000000d0: b61d 8530 3119 e7af 2ce8 79b0 d11f 01b1
000000e0: aba6 e42e 209e 2c30 6cf6 ebb0 da28 96b1
000000f0: cafc d7b0 9ee9 08b1 ae6c 71b1 0529 dd2f
00000100: 7af1 b4b0 5349 482e 6c7a 32af b099 feb0
00000110: 7c01 63b0 43f0 18b0 b9d9 caaf 085c 81b0
00000120: ac65 0131 e757 07b1 1cd9 5a30 15fe 4b30
00000130: fa15 542f 568e 2db1 a9b6 412f 2dcc 1b31
00000140: 5425 cf30 ce21 0831 1e1f a8ad aa8a 1530
00000150: 3f53 c82c 786f 062f 0d94 6a2e 5fbd c3b0
00000160: 35c0 8030 c1c2 1631 0ca7 6eaf 8795 5eae
00000170: 0aba 5631 9382 a4ae 8b5a 5ab0 a193 94b0
00000180: 3a90 ffb0 5b24 4ab0 a046 87b0 d5a6 6030
00000190: 6925 a230 9412 8b31 1d42 9ab0 9f7f 7530
000001a0: b229 4cb1 b821 42b1 342b 8e31 4043 9c31
000001b0: b4c2 802f 3788 5a30 7191 50b1 45ce 8230
000001c0: 1f8f 5c31 ed40 7630 d57a ad31 5d5a afaf
000001d0: 965f 5cae 65e8 f22f 3b19 c031 4865 0fb1
000001e0: 36a2 e530 68f0 0b30 4d80 0231 2806 eab0
000001f0: 9b38 ccb0 d89e 0b2f f347 aeae e85e 1db1
00000200: 9b9c 61b0 8de3 0a30 7b6f 44b1 dfd6 bdb0
00000210: fc8a 6baf d661 90b0 9989 2430 8c8d cc30
00000220: 7a34 9a30 e7b7 9fb0 d64e a0b0 0451 abaf
00000230: b867 0a31 c5aa d330 e437 a130 7d37 1aae
00000240: a185 3631 7ec4 81b1 995c 0331 599e 84b1
00000250: 56f4 4431 8507 55ae 5500 5b31 c69e 4c31
00000260: 80bb a730 fec7 a530 9157 fc30 6198 95b0
00000270: 592c 3b31 48b2 93b0 3f43 2d30 8c50 3130
00000280: 4bf7 9031 8965 27b0 e32c 47b0 7ee5 efb1
00000290: aa62 4431 3ed9 70af 6a49 2d31 8a88 fcaf
000002a0: f6a5 a7b0 3d7e 00b0 e08f 4431 6e68 8fb1
000002b0: fc05 43b0 87b1 15b1 3052 ed2f 0f4d 24b1
000002c0: 61ea c92f 2a3a 33b1 d162 11b1 8291 17b1
000002d0: 2969 0030 a75b bfaf 1ec0 2330 15ec 5630
000002e0: 73fb 382f 3b6d d3b0 41b3 1fb1 77e6 a02e
000002f0: b7f6 27b0 4eae 46b0 1ea9 0030 0056 cb2f
00000300: 6285 d22f 8a90 022f 0083 05b0 b630 be30
00000310: 2378 882d cc01 0bb0 e4c8 33b0 66f9 af2e
00000320: 272f 06b0 f15d f4af e6b2 3c2f 0bdd d531
00000330: ca45 6330 f71b a3b0 bd30 19b1 f4b8 08ae
00000340: 0620 5531 3586 812f bbcf 0630 c6dc a72e
00000350: a4d5 feb0 b172 45b1 e4f3 df2f ce11 a8ae
00000360: 3d34 bcb0 d923 6c31 d5cf fd30 ee26 62b1
00000370: f809 b730 d35c 2030 10b0 87b0 e28f d230
00000380: b397 dc30 1f9d 2dac eaa8 3db1 a3d1 4c31
00000390: d2a7 e1b0 42fb 5c30 8e1d f030 f00c 6a30
000003a0: 8fb3 77b0 b0b6 cd2e b326 5d30 e2ed 27ae
000003b0: 3220 3c31 4362 03b1 902d e5b0 2f02 a5af
000003c0: ce66 202f f5f1 4fb0 8924 8bb0 b889 d531
000003d0: 02ad 2730 f7d2 bbb0 f6f9 0d30 3165 e2ae
000003e0: 7ab9 a3b0 8dc1 66af df86 1ab1 d855 1e2f
000003f0: 4d0f ebb0 d14a 6b2f 3617 b830 4866 f3af
