tf2/pretrained_weights/paprika/conv10_1.bias.npy (npy, 1152 bytes, 1 tensors)

array f4 [256]
000000 e8 5d c3 2f 46 a9 80 2f b3 0b bd af 69 3a 06 b0
       3.5537018e-10 2.340334e-10 -3.4387213e-10 -4.883192e-10
000010 1c 6e 35 30 f8 e0 c8 af cf 0c cb af cd 81 3f b0
       6.600389e-10 -3.6539638e-10 -3.6934586e-10 -6.9669853e-10
000020 da ce c8 2f d8 3f 64 af f2 23 05 b1 9f fa 39 31
       3.6526765e-10 -2.0759161e-10 -1.937448e-09 2.7063505e-09
000030 79 5c 68 30 f0 44 c8 2f ae e2 07 30 a4 5b fe 30
       8.453252e-10 3.642877e-10 4.9434845e-10 1.8506978e-09
000040 ee 0e 75 2f 6e 79 86 af 8e d3 bd b0 d4 8b c6 b0
       2.2287924e-10 -2.446074e-10 -1.3811687e-09 -1.4446138e-09
000050 d9 49 d4 b0 89 de 25 b0 ae 15 8a b1 d2 6d 55 30
       -1.5446019e-09 -6.034289e-10 -4.0187933e-09 7.764501e-10
000060 98 d6 8b b0 19 08 23 2e 7a d0 ba af 80 6a d2 30
       -1.0174572e-09 3.70691e-11 -3.3981334e-10 1.530978e-09
000070 20 35 84 b0 e9 29 d3 2e 8e 58 da b0 24 57 d8 b0
       -9.619363e-10 9.602614e-11 -1.5886756e-09 -1.5740835e-09
000080 d0 dd 59 30 46 ac be ae 6c 20 2a b1 23 84 f6 30
       7.9259355e-10 -8.6708016e-11 -2.4756686e-09 1.7936411e-09
000090 7e 3a 60 30 de 55 59 30 85 d1 a3 b0 47 e3 ee ad
       8.157385e-10 7.9066165e-10 -1.191936e-09 -2.7158399e-11
0000a0 f9 f2 13 31 ae 6b ae 30 90 d0 c5 2f fe a1 73 30
       2.152943e-09 1.2690771e-09 3.5982284e-10 8.863309e-10
0000b0 4d 5f bb 30 8f c8 0a 31 e9 f2 91 af 54 4e c9 b0
       1.3633127e-09 2.0195647e-09 -2.6547944e-10 -1.4646937e-09
0000c0 4b c1 de 2e 0e 49 f7 30 fb 90 f7 30 6d 6f 91 b0
       1.0129727e-10 1.7992379e-09 1.8012821e-09 -1.0581808e-09
0000d0 59 b9 ec b0 9d 6e ba 2f 3f 78 c2 30 44 d6 8b 30
       -1.7223939e-09 3.3911798e-10 1.4149534e-09 1.0174479e-09
0000e0 4e 4d da ad 71 57 9b b0 c8 42 c2 30 c9 9a d0 af
       -2.481806e-11 -1.1302587e-09 1.4134338e-09 -3.794496e-10
0000f0 1f 52 31 31 6e 01 14 2f 38 ef 85 b0 a8 65 bc b0
       2.580357e-09 1.346103e-10 -9.745014e-10 -1.3707693e-09
000100 44 86 f5 2f 41 bc 0d b0 e8 91 1e 30 58 68 5e ae
       4.4660642e-10 -5.1563026e-10 5.768741e-10 -5.0569632e-11
000110 4f 80 77 30 1b 6e d1 af 9c e1 b0 30 bb 0d 24 b0
       9.0040414e-10 -3.8095113e-10 1.2869807e-09 -5.9682365e-10
000120 51 ec 1c 31 e4 8e ec 2f 74 22 08 31 0e 15 cf 30
       2.2835318e-09 4.302968e-10 1.981019e-09 1.5067216e-09
000130 cc b8 f1 30 23 56 28 af a4 12 47 30 05 7f 8a 30
       1.758758e-09 -1.5310113e-10 7.242227e-10 1.0076923e-09
000140 47 c8 0f 31 b0 59 47 2f 81 6e b3 b0 bb 8f 49 b0
       2.0923083e-09 1.8130808e-10 -1.3055371e-09 -7.332763e-10
000150 49 9a a3 af 88 91 32 30 d8 93 9e af 9a 00 b1 30
       -2.9759153e-10 6.4962835e-10 -2.8845082e-10 1.2878616e-09
000160 7e 60 1a b1 81 a1 eb 30 0c e1 b9 30 a4 49 b9 b0
       -2.24648e-09 1.7144403e-09 1.3524484e-09 -1.3481452e-09
000170 d2 e1 03 b1 3c d4 09 30 c8 4d ef 2e 95 99 87 30
       -1.9191373e-09 5.0141913e-10 1.08822784e-10 9.866193e-10
000180 cc d9 a8 2f 0f db c1 2f c1 51 28 b0 e3 7e 45 b0
       3.0713776e-10 3.5262146e-10 -6.1234223e-10 -7.18485e-10
000190 b3 70 f6 30 d5 f0 a4 ae f0 51 58 af 4f 58 bb 2f
       1.7930887e-09 -7.500637e-11 -1.9674196e-10 3.407785e-10
0001a0 c3 58 22 2f f6 02 ca 2f 07 98 c7 b0 b9 55 37 af
       1.4765349e-10 3.674569e-10 -1.4522364e-09 -1.6674208e-10
0001b0 a6 80 1c 31 e7 48 a2 2f 99 90 5f b1 7b 4f ce b0
       2.2774116e-09 2.9519429e-10 -3.2532965e-09 -1.5011062e-09
0001c0 79 1e de 30 a6 00 99 af 54 d9 bb b0 c0 2b 0c 2f
       1.6161287e-09 -2.7831e-10 -1.3667809e-09 1.2748469e-10
0001d0 0b ef 31 31 1c c9 0e af 76 92 85 30 23 b1 40 2f
       2.589277e-09 -1.2986273e-10 9.71865e-10 1.752523e-10
0001e0 2c 93 f0 2f a5 d8 f0 30 9c 7d 33 2e 22 0d 22 b1
       4.3760318e-10 1.7523872e-09 4.081145e-11 -2.3581568e-09
0001f0 9a 3f 90 30 8a 72 af b0 42 37 aa 30 2e 3c 40 30
       1.0495456e-09 -1.276548e-09 1.2384833e-09 6.9934714e-10
000200 be 8a a5 30 11 23 1c af ca 49 79 b0 ae 65 f2 2f
       1.2044763e-09 -1.4200575e-10 -9.0690533e-10 4.409179e-10
000210 18 96 09 31 50 f2 33 30 c4 12 74 31 50 52 e1 b0
       2.0021442e-09 6.546417e-10 3.551734e-09 -1.6394299e-09
000220 a5 9e 3b af 92 41 34 2f e4 42 e9 30 44 05 5e b0
       -1.7063913e-10 1.63942e-10 1.6971993e-09 -8.077061e-10
000230 df 3f be 30 0e 75 09 af 81 f4 a9 30 8f 2b ab 30
       1.3842473e-09 -1.2501664e-10 1.2365861e-09 1.2454268e-09
000240 ce 75 88 30 82 f9 44 30 e9 8b 6d 30 fd 02 29 b1
       9.928784e-10 7.1658957e-10 8.641892e-10 -2.4594435e-09
000250 14 17 c8 30 e1 ef 48 2f a5 36 26 b0 db b0 11 30
       1.4558474e-09 1.8275116e-10 -6.04681e-10 5.300202e-10
000260 09 7e 47 b0 fd 16 fa 2c 9c 49 27 b0 3d 2c 89 af
       -7.2574885e-10 7.1079796e-12 -6.085885e-10 -2.4951588e-10
000270 b3 d7 38 ae e8 9b 08 31 61 5d 4c b1 1f 2c 6e b0
       -4.2028336e-11 1.9879227e-09 -2.9738987e-09 -8.6646595e-10
000280 fa 08 f6 30 c1 f9 e1 b0 c2 c6 f5 af 8d 89 6d 31
       1.7901407e-09 -1.6441889e-09 -4.4706466e-10 3.4566228e-09
000290 27 c5 e6 b0 2e 0d 2d 31 f0 7f d9 2e a2 8d 6e af
       -1.6790737e-09 2.5182305e-09 9.890744e-11 -2.1696292e-10
0002a0 da 88 e6 af c5 90 cc 2b c6 59 eb af 78 20 18 31
       -4.1933995e-10 1.4535253e-12 -4.281004e-10 2.2137367e-09
0002b0 eb eb 2e 30 d4 77 47 b0 ba 8e bc 30 83 7b c4 30
       6.363609e-10 -7.2566064e-10 1.3719366e-09 1.4295981e-09
0002c0 db 13 ff 2f 34 9d 90 b0 cf a0 77 30 8b d8 1e 30
       4.6398338e-10 -1.0522059e-09 9.00866e-10 5.778779e-10
0002d0 99 2e f8 b0 de 1e b6 b0 b6 81 4b af d8 62 4c 30
       -1.8057619e-09 -1.3251016e-09 -1.8508825e-10 7.4355233e-10
0002e0 cb 2a 40 af 04 22 a2 2f 67 91 4b b0 86 2c 82 b0
       -1.7477501e-10 2.9491798e-10 -7.40576e-10 -9.471399e-10
0002f0 c4 67 1e b0 91 50 60 af 3b 3e 47 30 76 07 26 b0
       -5.7627525e-10 -2.0401304e-10 7.2484213e-10 -6.040105e-10
000300 88 20 a8 af ab 93 0c 31 7f d4 3c b1 5b db 2d b0
       -3.0582137e-10 2.045662e-09 -2.747839e-09 -6.3248756e-10
000310 02 68 92 b0 ed f0 e2 30 41 ad f3 b0 c2 46 e7 b0
       -1.0652459e-09 1.6512139e-09 -1.7729819e-09 -1.6827573e-09
000320 af f3 55 31 ac f5 b7 b0 a1 5a 10 b1 cb c8 23 2f
       3.1134098e-09 -1.3384827e-09 -2.1006274e-09 1.48961e-10
000330 2d 2c 99 30 3d 24 22 b0 b3 7b 8b 30 08 6e 23 2f
       1.1144771e-09 -5.8986754e-10 1.0148739e-09 1.4863855e-10
000340 95 f7 c3 b0 af 0b 4c b0 6e 72 3f b0 40 fe 11 b0
       -1.4258484e-09 -7.423137e-10 -6.964801e-10 -5.3112004e-10
000350 a4 4a 62 30 f5 67 98 af 7c 39 03 b0 0a 67 88 30
       8.232439e-10 -2.7722505e-10 -4.773921e-10 9.924588e-10
000360 6d 17 00 b0 bf 89 5c 30 c8 02 80 30 14 bb e0 2f
       -4.659942e-10 8.023128e-10 9.314016e-10 4.087829e-10
000370 06 4a 3e 30 06 35 05 b1 35 7e 69 30 fa 15 e6 2d
       6.922679e-10 -1.9384188e-09 8.4944257e-10 2.6157732e-11
000380 a4 21 83 af 64 17 19 31 ff b3 c4 b0 d7 21 54 30
       -2.3852664e-10 2.2277726e-09 -1.4312035e-09 7.717324e-10
000390 1f 05 1d 30 f9 61 3c af c7 07 20 b1 e2 de 89 b0
       5.7123545e-10 -1.7133307e-10 -2.3287485e-09 -1.0031409e-09
0003a0 46 97 fb 2f 21 89 d3 af 04 d8 0c 30 17 d6 48 ae
       4.576412e-10 -3.8478112e-10 5.123868e-10 -4.5664885e-11
0003b0 62 b2 89 30 a9 27 09 30 6f 48 cb b0 57 cb b1 2f
       1.0018761e-09 4.989667e-10 -1.4790781e-09 3.2340594e-10
0003c0 f7 f9 f3 b0 c6 c9 b0 30 67 e5 02 31 59 e2 22 2f
       -1.7751621e-09 1.2863033e-09 1.904789e-09 1.4814229e-10
0003d0 d1 bf 79 30 cb c6 26 31 63 a0 bc b0 6d f6 84 2f
       9.085826e-10 2.426918e-09 -1.3724385e-09 2.4185756e-10
0003e0 51 1d 8e b0 ea 0f 46 30 96 5c 2a 2f 7a 8f 2e 2f
       -1.0340192e-09 7.2054596e-10 1.5494303e-10 1.5876181e-10
0003f0 5a 75 8e 2f a9 37 66 30 0b 21 ad b0 cf ce 4f af
       2.5913033e-10 8.375261e-10 -1.2596798e-09 -1.8900013e-10
