style_transfer/cartoongan/pretrained_weights/shinkai/conv04_2.bias.npy (npy, 1152 bytes, 1 tensors)

array f4 [256]
00000000: 644e 67b0 bf99 c430 7f3a 1030 38fa 40b0
00000010: 92c5 cfaf 24c5 b330 24db 13b0 bf28 3b31
00000020: 9bea b6b1 1294 5b30 e99d 3eb0 d164 53af
00000030: b099 46b0 d9ab 41af 9bf4 c12f 20b7 892b
00000040: c276 7ab1 9c20 dfaf 3854 00b0 a0db 17af
00000050: 9a8d ed2f 9529 3d30 41fb a02f 4608 83b0
00000060: f6ba d430 7831 6f31 97d1 0331 dd85 002f
00000070: 5179 ebaf fbbe 98b0 d053 6fae da71 982f
00000080: 4542 3231 df2c 7730 f970 0830 c183 47b0
00000090: 135a b52f 3f00 8b2f 8aa5 2831 ffa9 3bae
000000a0: 6183 4730 c1dd 2cb1 0a8f 9330 29cc b6b0
000000b0: 3fcb c1af 414e d22e 02b2 52b0 fc61 cab0
000000c0: 09a2 7930 a692 1931 24fd f630 c5bb 1130
000000d0: 2e6b 0730 747b bcb0 f181 ce30 5696 1031
000000e0: c200 42b0 45f1 642e f96a df30 9890 a430
000000f0: a673 82b0 f018 90af ad1a 5d31 ca78 c230
00000100: e652 24b0 ba2e d831 85d3 8eb0 5c2e 20b0
00000110: 9b33 8e30 2aff e2ac 08d9 fcb0 851d c02d
00000120: 9236 eb2e 07a3 de30 cb2a 0db1 7603 adaf
00000130: 7f0d f3af f871 3e30 85de edaf eaad 6caf
00000140: 7026 26b1 63d8 cc30 716e f6ae 3279 1030
00000150: 8465 c02d 2939 4aaf dd16 caaf 7ad6 9c2e
00000160: 370d 2730 4e6b 38b0 a2e0 3a30 1b77 e82f
00000170: 41b7 e730 aca1 802f 7da4 09b1 780a f2b0
00000180: d8f3 0330 c883 8faf 9a0a 2eb1 3ca2 6aaf
00000190: 81ea 2430 8bc6 a3af f697 9baf 68e9 98b0
000001a0: f5a5 70b0 096a f3b0 2001 2731 6b11 67b1
000001b0: bd20 1530 71dc 2c31 a495 f630 8943 dc30
000001c0: 8e1d 67b0 2dbc 2fb0 55f0 67b1 efeb 1a2f
000001d0: df65 b2b0 cb93 4631 7115 052f 369b deaf
000001e0: 0807 2bb1 cea3 44b1 9f22 51b0 f16f 9cae
000001f0: f010 6baf 9799 3baf 10f1 d0ae 5a96 5531
00000200: 3c94 6b31 f9de a630 12ee 5031 cc6c 0d30
00000210: f5db cc2f 04c1 672f ab7a 50ae 4a56 a92d
00000220: 3f7d 36b1 d7aa 11b1 b0a0 1630 ad8c 202f
00000230: 58ca 8030 238b 15b1 5a41 4e2e 980e d5ad
00000240: 6923 de2f bc92 4ab1 0b24 d52e 04c9 7530
00000250: 3569 27af e41e 69b1 4965 9931 25c1 afb0
00000260: c7be 522f 4a21 0cb0 a423 74b1 2512 ef30
00000270: d6d0 6930 e109 fb2f 28e7 eb2f 0cdf 18b0
00000280: 3a5a 9530 1017 3ab0 edfb 17b0 d0fe 0d31
00000290: e6bb 5630 37e6 0531 e136 a12f 5463 d530
000002a0: 4765 3031 f921 a730 5be8 2b31 a864 a1b0
000002b0: 6feb 1330 035f 77af b838 a0b0 3bdd c4af
000002c0: bc5d f530 d995 9cb1 f4fc ed30 33e2 fab0
000002d0: 4068 86ae 4a21 9f30 c33b 66b0 af71 f7ae
000002e0: 0604 05b1 d3a2 6caf 707f 77b1 061f ab30
000002f0: 2663 e4af c58c 95b0 f513 42b1 9dc5 f4b0
00000300: b948 842e 8704 01b1 779c ba30 e8a1 2e30
00000310: 29cf ee30 a8ed 7faf f370 b6af d55f 802f
00000320: 15c5 8d2f d178 aaaf 9fa6 e3b0 7db1 df2e
00000330: 5e6a 79b0 e975 2eb0 af89 2aaf e741 9b2e
00000340: ec18 b6ae 5cc4 0531 449d 8b30 4035 92b0
00000350: 968e 9b31 e59f c22f 5e09 adb0 4541 cb30
00000360: 1da5 26b1 9c3c 1dae 56cb 18b1 da95 c42f
00000370: 45ca 0730 8642 2cb1 051e 03af 74ae 3f30
00000380: 7ee5 a130 cc76 0bb1 10b4 b32f c18e 8f30
00000390: d60d 1d2f 4de1 37b0 06ed 7630 b07f 3fb1
000003a0: 48fa 8830 7729 e6b0 9b27 abaf 37fb f42f
000003b0: 5be2 1f30 bebd bab0 514b 012e 7602 73ae
000003c0: 69ec dc2f 8314 ddb0 e3a4 f52f f500 bd2f
000003d0: 01c9 0531 19d2 9130 8572 1daf 1c3a ad30
000003e0: faa8 0a31 f759 a0b0 d2fd a530 ebd8 1f31
000003f0: 332d 71af 8050 6430 17b7 9e2f 4d7e 8fb0
-8.414871e-10 1.4304574e-09 5.247002e-10 -7.0204775e-10 -3.7793463e-10 1.3079995e-09 -5.3789706e-10 2.7235243e-09
-5.3235687e-09 7.9882156e-10 -6.9346e-10 -1.9226155e-10 -7.2250383e-10 -1.76143e-10 3.5280298e-10 9.785263e-13
-3.6447294e-09 -4.0586634e-10 -4.668581e-10 -1.3811396e-10 4.3210663e-10 6.881689e-10 2.9282357e-10 -9.533856e-10
1.5478168e-09 3.4807197e-09 1.9182147e-09 1.168909e-10 -4.2832451e-10 -1.1113735e-09 -5.441675e-11 2.7729535e-10
2.594008e-09 8.992184e-10 4.9637056e-10 -7.258301e-10 3.298771e-10 2.5284128e-10 2.4541316e-09 -4.2669864e-11
7.258248e-10 -2.5155347e-09 1.0736312e-09 -1.3300269e-09 -3.525091e-10 9.563595e-11 -7.665052e-10 -1.4725283e-09
9.081594e-10 2.234779e-09 1.7970803e-09 5.301753e-10 4.9265025e-10 -1.3713888e-09 1.5025404e-09 2.1040214e-09
-7.0577866e-10 5.205549e-11 1.6255789e-09 1.1973667e-09 -9.491614e-10 -2.6211167e-10 3.2174896e-09 1.4149688e-09
-5.978066e-10 6.2917396e-09 -1.0391977e-09 -5.827354e-10 1.0346527e-09 -6.4516352e-12 -1.8397097e-09 2.1840982e-11
1.06962564e-10 1.6198961e-09 -2.0542525e-09 -3.1470976e-10 -4.4211032e-10 6.9283557e-10 -4.3268159e-10 -2.1525862e-10
-2.4178028e-09 1.4904454e-09 -1.1206403e-10 5.2559124e-10 2.1872955e-11 -1.83921e-10 -3.675983e-10 7.1321574e-11
6.0773026e-10 -6.70913e-10 6.798563e-10 4.2285184e-10 1.6859546e-09 2.339794e-10 -2.0029625e-09 -1.7610793e-09
4.8004045e-10 -2.6105185e-10 -2.5326359e-09 -2.1339813e-10 5.99961e-10 -2.97906e-10 -2.830231e-10 -1.1125794e-09
-8.754733e-10 -1.7710714e-09 2.4302338e-09 -3.3624825e-09 5.425241e-10 2.51546e-09 1.7941386e-09 1.6026301e-09
-8.407931e-10 -6.3932043e-10 -3.3751537e-09 1.4090039e-10 -1.2980158e-09 2.8896803e-09 1.2103897e-10 -4.049185e-10
-2.4887772e-09 -2.8614866e-09 -7.6082957e-10 -7.1139435e-11 -2.1379143e-10 -1.7062117e-10 -9.501566e-11 3.1081044e-09
3.4281262e-09 1.2141462e-09 3.040331e-09 5.145011e-10 3.7263673e-10 2.10779e-10 -4.7402676e-11 1.9251396e-11
-2.655568e-09 -2.1197388e-09 5.4798033e-10 1.4601893e-10 9.370735e-10 -2.1761444e-09 4.689702e-11 -2.4221777e-11
4.0406725e-10 -2.9478278e-09 9.692521e-11 8.941614e-10 -1.5225939e-10 -3.3923522e-09 4.464401e-09 -1.2787821e-09
1.9167166e-10 -5.097901e-10 -3.5526933e-09 1.7394696e-09 8.506168e-10 4.5663653e-10 4.2910497e-10 -5.5614247e-10
1.0866821e-09 -6.769918e-10 -5.529149e-10 2.0663045e-09 7.8119766e-10 1.948491e-09 2.9324723e-10 1.552602e-09
2.566894e-09 1.2160505e-09 2.5015854e-09 -1.17429e-09 5.381286e-10 -2.2498274e-10 -1.1657653e-09 -3.5809386e-10
1.7852737e-09 -4.5572333e-09 1.7315913e-09 -1.8254184e-09 -6.112133e-11 1.1578234e-09 -8.375844e-10 -1.1252454e-10
-1.9356334e-09 -2.1521922e-10 -3.601567e-09 1.2450705e-09 -4.1543408e-10 -1.0881186e-09 -2.824206e-09 -1.7809502e-09
6.015583e-11 -1.8774544e-09 1.3577751e-09 6.3530914e-10 1.7375658e-09 -2.3276547e-10 -3.3185862e-10 2.3351157e-10
2.5787786e-10 -3.1008665e-10 -1.656378e-09 1.0172394e-10 -9.073683e-10 -6.346839e-10 -1.5510325e-10 7.0602905e-11
-8.280829e-11 1.9465665e-09 1.0158279e-09 -1.0638033e-09 4.527304e-09 3.5402006e-10 -1.2590069e-09 1.4788745e-09
-2.4250035e-09 -3.57515e-11 -2.2234494e-09 3.5758668e-10 4.9400156e-10 -2.5067108e-09 -1.1925046e-10 6.973331e-10
1.1779517e-09 -2.029469e-09 3.2687852e-10 1.0445192e-09 1.4283982e-10 -6.6895184e-10 8.983111e-10 -2.786674e-09
9.966437e-10 -1.6746488e-09 -3.113286e-10 4.456184e-10 5.8165534e-10 -1.3587209e-09 2.93981e-11 -5.525399e-11
4.0185746e-10 -1.6085696e-09 4.46824e-10 3.437958e-10 1.9468305e-09 1.0609852e-09 -1.4319752e-10 1.2603922e-09
2.0177695e-09 -1.1667102e-09 1.207747e-09 2.3260849e-09 -2.193488e-10 8.3060314e-10 2.8870126e-10 -1.0440516e-09
