tf2/pretrained_weights/hosoda/conv02_2.bias.npy (npy, 640 bytes, 1 tensors)

array f4 [128]
00000000: 4ef9 71b1 148e 66b2 1774 4fb2 bee3 55b1
00000010: cf30 fdb1 3b1c 2632 945a 1f32 ef4a 3132
00000020: 1ca3 3aaf 7c9a ff30 8a17 e2af 2247 7932
00000030: 3bca 0bb0 427f 83b2 a0fc 3331 43f8 4730
00000040: d7cb d4b1 7883 9a32 5f4e 6f31 0d93 dc31
00000050: 67e3 a931 01cc 4e32 9de9 bfb0 e933 152f
00000060: 222e a530 083d 41b2 e6a7 0db2 e2c1 7532
00000070: ba3f 20b2 2f44 f231 1d99 5b32 1775 1db2
00000080: 72d7 32b2 11d6 a7b1 799d 1d32 f6b7 9ab1
00000090: d705 0931 de0e ba32 34df 5431 18ab 81b0
000000a0: dadd c732 a4fd 90b1 b6ab bdb2 4088 b431
000000b0: 645e b032 d919 31b1 bbf7 7932 f5a0 3db2
000000c0: da4d c831 c277 cbb1 1788 84b1 3714 99b2
000000d0: 5b07 90b1 25cd 27b1 6459 42b2 472b c031
000000e0: 85c8 1732 53d0 95b0 e6f3 5131 4776 85b2
000000f0: 834e c5b1 9197 fcb2 8a11 0aaf bc7a 95b2
00000100: c8c5 57b2 6f7c 9ab2 1e57 bbb2 8cda ae31
00000110: 520b 1a32 46a2 9b32 93a8 5931 6540 5b31
00000120: 0b57 3632 23e5 fdb1 8eb0 86b2 6ca5 5632
00000130: 8a76 6631 b5cb 1eb2 ac8b 66b2 7a6d 93b2
00000140: 7589 ad30 7bb4 3c30 242f b831 4151 7eb0
00000150: 0d71 2d32 ce7f a3b1 2456 3fb1 caac d4b2
00000160: c070 2832 78dd d631 5124 ff30 5b4e 50b2
00000170: 1a8b 6cb2 a1c4 b1b0 06a1 f9b1 a019 0631
00000180: d793 4631 049d 09b2 0b02 a22e c507 7732
00000190: 5d5d 1532 bd90 8e32 57a7 82b2 3b63 97b2
000001a0: 774b 82af 4858 5032 760e 4631 ffc0 88b1
000001b0: 373c 2c31 1aa3 09b0 7ed2 07b2 cf66 5232
000001c0: ad50 adb2 5359 06b2 f634 10b2 74bc 51b2
000001d0: e2a5 eab2 3421 a2af 91f9 c430 dcb1 7631
000001e0: a302 3932 824d 4132 1d97 05b1 67af dbb1
000001f0: 9619 bd31 6b64 17b2 f7d0 2ab2 d0b6 d5b0
-3.521183e-09 -1.3420067e-08 -1.2075382e-08 -3.1125036e-09 -7.368818e-09 9.668891e-09 9.275613e-09 1.0319794e-08
-1.697455e-10 1.8597599e-09 -4.1125886e-10 1.4509881e-08 -5.085529e-10 -1.5308277e-08 2.619153e-09 7.274858e-10
-6.193186e-09 1.7987745e-08 3.4823626e-09 6.4195604e-09 4.9444e-09 1.2037163e-08 -1.3963476e-09 1.3569913e-10
1.2018442e-09 -1.12479555e-08 -8.245456e-09 1.4304961e-08 -9.3277155e-09 7.0508785e-09 1.2782292e-08 -9.165226e-09
-1.040995e-08 -4.884676e-09 9.174408e-09 -4.502904e-09 1.9939443e-09 2.166001e-08 3.0976937e-09 -9.434613e-10
2.3267535e-08 -4.219787e-09 -2.2080581e-08 5.2541793e-09 2.053202e-08 -2.5771583e-09 1.4550035e-08 -1.1037845e-08
5.829617e-09 -5.9216925e-09 -3.8571772e-09 -1.7820737e-08 -4.191788e-09 -2.441831e-09 -1.1312611e-08 5.5928555e-09
8.83495e-09 -1.0900386e-09 3.0552143e-09 -1.5537024e-08 -5.7423803e-09 -2.9405586e-08 -1.2557258e-10 -1.7401696e-08
-1.2559617e-08 -1.7984545e-08 -2.1809281e-08 5.0889124e-09 8.966554e-09 1.8118168e-08 3.167348e-09 3.1905298e-09
1.0613586e-08 -7.389319e-09 -1.5679941e-08 1.2494052e-08 3.3536787e-09 -9.243128e-09 -1.341952e-08 -1.7162836e-08
1.2626474e-09 6.865048e-10 5.360464e-09 -9.252013e-10 1.009563e-08 -4.758454e-09 -2.7843123e-09 -2.4758624e-08
9.804523e-09 6.253398e-09 1.8564014e-09 -1.2125009e-08 -1.3768636e-08 -1.293433e-09 -7.26516e-09 1.9514133e-09
2.889683e-09 -8.010151e-09 7.36727e-11 1.4379059e-08 8.69417e-09 1.6596795e-08 -1.521009e-08 -1.7623838e-08
-2.3700483e-10 1.2127266e-08 2.8821012e-09 -3.980062e-09 2.5063522e-09 -5.007209e-10 -7.905895e-09 1.2246985e-08
-2.0176538e-08 -7.8201365e-09 -8.393945e-09 -1.220825e-08 -2.731662e-08 -2.949122e-10 1.4331808e-09 3.5898813e-09
1.0769017e-08 1.1251702e-08 -1.9439945e-09 -6.39368e-09 5.5035327e-09 -8.812189e-09 -9.9428155e-09 -1.5549748e-09
