tf2/pretrained_weights/hosoda/conv09_1.bias.npy (npy, 1152 bytes, 1 tensors)

array f4 [256]
-7.8053725e-10 2.276638e-09 -1.2663078e-11 1.0359266e-10 3.3018746e-10 3.3831313e-11 -1.6294645e-09 4.8219667e-10
-5.589725e-10 6.95563e-11 -5.9245425e-10 1.11336954e-10 -2.431042e-10 -1.1130767e-09 -2.3394492e-10 -3.156963e-10
2.2418312e-10 -3.088225e-10 -4.2730508e-10 -3.2591618e-10 8.006606e-10 -3.6161743e-10 4.2078144e-10 -2.104883e-10
-9.833914e-10 4.6540424e-10 -1.2334511e-10 6.977956e-10 -3.4638277e-09 -2.5498829e-11 -2.433125e-10 7.1370215e-10
1.1735701e-09 -3.9350672e-11 8.958945e-10 -2.1326547e-10 1.3704918e-10 -2.7265785e-11 2.33157e-10 1.5779848e-10
1.220034e-10 2.3697513e-10 1.2042793e-10 -1.384135e-10 6.385575e-11 7.153887e-10 4.6135354e-10 -1.1741762e-10
6.227221e-11 1.9714279e-10 1.6968746e-09 3.1851785e-10 3.6178335e-10 1.7089502e-10 3.2650707e-10 2.6797703e-10
7.49825e-11 -3.8603915e-10 2.590536e-10 -4.562598e-10 8.234446e-10 -2.938657e-10 -7.954222e-10 1.5586797e-10
-3.4816017e-10 7.987632e-10 -1.8192033e-09 -4.2336237e-10 3.5096154e-10 -2.8575167e-10 -1.9158605e-10 -9.918526e-10
-1.6600336e-10 4.481946e-10 2.3103364e-10 -4.761476e-10 -1.2169846e-10 -2.6074135e-10 6.870431e-11 7.6965295e-11
-8.0323415e-10 1.630408e-10 7.0447545e-12 -1.169881e-09 -5.1561016e-11 1.7877277e-10 -8.234532e-11 4.783412e-10
-8.4995727e-10 -9.173129e-10 8.981339e-11 2.9909583e-10 9.935593e-10 -5.0544663e-10 -5.721618e-10 2.7693398e-10
-1.4666124e-10 7.483877e-10 -5.361284e-10 5.7156957e-10 -1.3390805e-10 1.08835434e-10 -1.3832765e-10 -6.299202e-10
-8.4322976e-10 6.673158e-10 -2.069441e-09 -1.09267324e-10 -1.6188548e-10 4.0634985e-11 1.7242884e-11 1.3303328e-09
-7.8554596e-10 -1.0319264e-09 -6.173309e-10 -1.4554828e-09 5.8599053e-10 3.5694808e-10 -5.71932e-11 2.4544058e-10
-7.622597e-11 8.355689e-10 -6.6848765e-10 -9.2038446e-11 4.585211e-10 1.2016507e-09 -8.228698e-10 -3.4747039e-10
-1.4998074e-10 1.3230116e-09 3.3424147e-10 -1.4989514e-10 2.5057154e-10 7.5024414e-10 -7.8767626e-10 3.567712e-10
3.5123966e-11 9.85928e-10 -6.7833426e-11 -1.228918e-10 -1.2079995e-10 -1.6306957e-10 4.328173e-10 -4.994346e-10
-7.9064705e-10 -4.4358284e-10 -2.4954858e-10 -2.3790203e-09 3.582915e-10 -1.1894122e-10 2.6541042e-10 4.1784465e-11
3.2302515e-11 -5.5731978e-11 1.0848675e-09 5.063778e-10 -2.1472164e-10 -3.9579198e-10 5.2684374e-10 2.481101e-10
-2.8820274e-10 -3.323828e-10 -2.9293838e-11 -2.348428e-10 -4.187476e-10 1.6667351e-10 1.2725175e-10 -1.1877145e-09
3.097687e-10 1.5439046e-10 -3.0124067e-10 -8.8208973e-10 -7.407904e-10 4.3769952e-10 -2.5694705e-10 -4.838666e-10
-9.622455e-10 -1.9114647e-10 5.294467e-11 4.9573623e-11 -6.1890076e-10 -3.7148068e-10 -4.145801e-10 -1.0860133e-10
-2.0422844e-10 -5.072518e-10 -3.7045508e-10 -9.3618426e-11 -6.64974e-11 -8.658691e-11 8.6940406e-11 1.3234489e-10
-7.333368e-11 1.737831e-10 1.0577213e-10 6.1801525e-10 -6.146586e-10 1.5358245e-09 -3.5113532e-10 5.4269093e-11
-8.6388764e-11 1.4175422e-09 1.6486683e-12 -1.3395034e-10 -6.53577e-10 1.1319379e-09 -2.7618907e-11 -4.6495238e-10
1.1781629e-09 1.1644442e-09 -1.2955508e-09 2.3208084e-09 -4.6713233e-10 -8.374495e-10 -5.4417315e-10 3.8971046e-10
8.3568413e-10 -5.259489e-10 -1.9342362e-10 -5.1791144e-10 3.307268e-10 -3.892691e-10 -8.55352e-10 1.0011907e-09
-8.950584e-11 -4.687879e-10 2.724246e-10 3.4068137e-10 1.9223739e-10 3.2838984e-10 9.784443e-12 4.736871e-10
1.7732156e-10 -3.0278222e-10 -9.33639e-13 -1.3274792e-09 -9.1713614e-10 -5.721132e-11 -5.3563914e-10 6.587261e-11
3.2405362e-10 -2.0833697e-09 -6.4341726e-11 -9.113824e-10 3.114521e-10 -4.113266e-10 -6.0352157e-10 7.462812e-11
-1.5897328e-10 -3.6153208e-10 -1.262231e-09 5.407924e-10 5.0647353e-10 -6.631173e-10 4.277177e-10 -4.488696e-10
00000000: 6d8d 56b0 0a73 1c31 6fc5 5ead 7ccd e32e
00000010: c185 b52f acca 142e aff3 dfb0 938b 0430
00000020: 31a6 19b0 b7f4 982e 43da 22b0 22d5 f42e
00000030: e0a5 85af e8fa 98b0 d29c 80af 4e8e adaf
00000040: f07d 762f e7c6 a9af d8e9 eaaf a02c b3af
00000050: 7b15 5c30 21cd c6af b953 e72f 306f 67af
00000060: 0228 87b0 d3db ff2f 909e 07af 00cf 3f30
00000070: 4d08 6eb1 424a e0ad 31c3 85af 532e 4430
00000080: 544b a130 eb10 2dae f942 7630 e57c 6aaf
00000090: eaaf 162f 17d5 efad ee2d 802f 5380 2d2f
000000a0: e724 062f 4947 822f 7369 042f f02f 18af
000000b0: 976b 8c2e 01a5 4430 bda1 fd2f 1f1a 01af
000000c0: 23f0 882e c3c2 582f 7837 e930 671b af2f
000000d0: 7be4 c62f ace6 3b2f c97f b32f 6a52 932f
000000e0: 65e3 a42e 2e3a d4af 8e6a 8e2f dcd4 faaf
000000f0: c358 6230 ec8d a1af dca4 5ab0 ef60 2b2f
00000100: 3067 bfaf f78f 5b30 8707 fab0 f5be e8af
00000110: 72f1 c02f f917 9daf aea6 52af b651 88b0
00000120: cb85 36af c865 f62f 3006 7e2f e9e1 02b0
00000130: 12cf 05af 1558 8faf 1715 972e 9c3f a92e
00000140: 94ca 5cb0 e843 332f 82dd f72c 87c9 a0b0
00000150: 8bc4 62ae 1090 442f 4b14 b5ae 457c 0330
00000160: 6da2 69b0 2826 7cb0 7280 c52e ff6d a42f
00000170: c38d 8830 a5ef 0ab0 4f46 1db0 fe3e 982f
00000180: 7841 21af 1ab7 4d30 af5e 13b0 a21c 1d30
00000190: c43b 13af e754 ef2e c617 18af b226 2db0
000001a0: 05c9 67b0 2d6e 3730 fe35 0eb1 0948 f0ae
000001b0: b6fe 31af edb6 322e 86ab 972d edd6 b630
000001c0: e2ed 57b0 afd3 8db0 cdb0 29b0 400a c8b0
000001d0: 6b13 2130 fa3b c42f d289 7bae b1ee 862f
000001e0: 689f a7ae efad 6530 a3c0 37b0 0a65 caae
000001f0: 1c13 fc2f 5327 a530 5030 62b0 1c06 bfaf
00000200: d3e7 24af 55d5 b530 4ec0 b72f bbcf 24af
00000210: cfc0 892f bd39 4e30 ca83 58b0 1523 c42f
00000220: 127a 1a2e 4281 8730 d32a 95ae f71e 07af
00000230: 2ad2 04af 014c 33af 9ff1 ed2f 9648 09b0
00000240: d754 59b0 bcdc f3af d730 89af 2b7c 23b1
00000250: 0cf9 c42f fac6 02af 32e9 912f 20c5 372e
00000260: 6611 0e2e a11c 75ae 621a 9530 2b31 0b30
00000270: c516 6caf c596 d9af 55d1 1030 6466 882f
00000280: ee70 9eaf b8ba b6af eed5 00ae 301b 81af
00000290: 7c35 e6af 6c42 372f 2fea 0b2f fd3c a3b0
000002a0: 124c aa2f 0dc1 292f db9b a5af 8c77 72b0
000002b0: 7da0 4bb0 bba0 f02f 1542 8daf 1601 05b0
000002c0: 0140 84b0 f32a 52af 66da 682e f006 5a2e
000002d0: 451f 2ab0 4239 ccaf f6ea e3af 1dd1 eeae
000002e0: 328d 60af ac6e 0bb0 eba8 cbaf 7dde cdae
000002f0: b53a 92ae 1968 beae 192f bf2e c683 112f
00000300: 3143 a1ae 9813 3f2f 6a98 e82e f5e0 2930
00000310: c1f4 28b0 0515 d330 e709 c1af 91ad 6e2e
00000320: 8df8 bdae 55d3 c230 8907 e82b ab47 13af
00000330: 65a7 33b0 8692 9b30 40f0 f2ad 3b9c ffaf
00000340: ecec a130 3d0a a030 240f b2b0 187c 1f31
00000350: 8467 00b0 4532 66b0 c894 15b0 df3e d62f
00000360: 0bb6 6530 5d92 10b0 e9ab 54af c75c 0eb0
00000370: a9d1 b52f c100 d6af 0c1e 6bb0 449a 8930
00000380: 4fd3 c4ae 04dc 00b0 5bc4 952f a44a bb2f
00000390: 045e 532f c388 b42f 3721 2c2d c434 0230
000003a0: 95f7 422f cf74 a6af e465 83ab 8672 b6b0
000003b0: b819 7cb0 389e 7bae 413c 13b0 fcda 902e
000003c0: 7e26 b22f 072b 0fb1 2c7d 8dae d684 7ab0
000003d0: fc38 ab2f 1321 e2af 0ee5 25b0 e61b a42e
000003e0: 00cb 2eaf 1ec1 c6af ce7a adb0 e2a6 1430
000003f0: e837 0b30 bb46 36b0 ea23 eb2f c8c4 f6af
