tf2/pretrained_weights/hosoda/conv02_1.weight.npy (npy, 295040 bytes, 1 tensors)

array f4 [128, 64, 3, 3]
00000000: cfbd c83c 1752 bc3a 65d5 3a3d d09b 1f3d
00000010: 5b34 183d 7039 ccbb f0c8 133d d0ef 31bc
00000020: ff1e e33b dd8f 3f3a 108e 9f3c 1db4 1b3c
00000030: c090 e53c f49a 1d3d 2b25 c93c ce84 3a3b
00000040: 5ae4 80bb 238b 893c e617 fdbb 95e1 c0bb
00000050: 9dc1 413c 8bb4 ff3a b425 cdbc cde3 413c
00000060: 7bbf fa3b 143c 363b e8dc 99ba 2fbb bbbc
00000070: d09a 25bd a096 b5bc c262 66ba d42f 523d
00000080: 9851 bebc 06b6 c5bb f20b 15bc c2d2 89bc
00000090: a366 023d c6ea c4bb a7cf 773c e260 e0bb
000000a0: 050a 7dbb 9dda cdbc f6b5 90bc f78d 64bc
000000b0: 1153 66bc b8c4 db3c ce60 0e3d 26c2 973c
000000c0: 84cf 4b3c ee9d 7fbd 4ec5 aa3c 6048 5e3d
000000d0: a25b 8d3c d9b7 473b a596 3a3c 483a 6e3c
000000e0: 9fcf f93c 33f9 183d de67 933c 8c7a 183c
000000f0: e75a cd3b e4a8 363d 7c0d c83c f3dc 9c3c
00000100: 8d90 d03c 9782 e3bb b90e 763b 777d b83c
00000110: bd4f 18bd 8829 d13c e718 99bc 2490 6b3c
00000120: bee2 6abc ed5a 013c deef 733c 41d9 0d3c
00000130: 42b5 9bba 52d2 8f3c 7308 eb3c 85e8 023d
00000140: c6f3 52bc c151 233c f91d 723c aefe 6a3c
00000150: f042 213d 0eaa 15bc 7a78 a93c 4878 08bb
00000160: 27f6 133c 039c b63b c210 653c 1a1c 2bbb
00000170: 31df 4ebc cb75 8dbc 8f2e 42bc 5526 773b
00000180: 124b f9bb 251c 6bbc 4031 7b3b facc c03a
00000190: 455a d2bb de4a 9ebb 1843 6fbd ff02 1bbc
000001a0: 0944 4a3b ba69 0a3d 5a36 40bc ea70 85bc
000001b0: a4e2 fabc b578 88bc 814b 48bc 8e68 fabb
000001c0: f60f 4abc 5304 afbc 08ce b23c 57ed 49bc
000001d0: 12aa a3bb bfe6 b6bc 6ad3 aa3c fbf6 bdbb
000001e0: 6dbc 91bc d7e8 393d 7bf2 e43b 6735 b6bc
000001f0: b71d c63c 9edf 2f3c c5a0 65bc b196 27bb
00000200: 6e41 3abc b36b 623b c094 653c 0a27 eb3c
00000210: 4bd4 6a3c 316b 553c 8be3 353b 3473 52bb
00000220: 70ee cbbb 3f9d 60bc b2a3 09bd 081c 8dbc
00000230: 6f67 cdbb 7676 c03c 71ff 87bc 3d99 c53a
00000240: 329d 3c3c 363d cd3b 00ff a43b 225c f63c
00000250: 30ba 053d 818f fb3a 992d d03c 0b0e 3c3d
00000260: 9596 333d a1ed fa3b 5688 16bc d4e5 de3b
00000270: cab4 c73c c788 cb3c db8c a9bc bfff 1dbc
00000280: 45d2 0ebd 7aff ddbb c15c 603c b55a 09bc
00000290: 30b2 1a3b 88b2 89bc 39a7 bf3c 4e16 293c
000002a0: 88c2 e23c f722 a2bc 04de 4aba 8ee4 b8bc
000002b0: 87a9 473b 7929 ae3c adbb 133d f319 cb3c
000002c0: 7585 28bc 6e5e f63b a760 943c 29df 0d3d
000002d0: b366 9cbc 25c5 873c c27f 003c de61 e2bc
000002e0: 20a6 dabc 86c0 81bc c3b4 a03c 896b 3fbd
000002f0: ac5f 02bc 894f d53b 7414 d03a 942c 43bb
00000300: 6e87 6bbc 28ed d7bb 0908 c4bb 0235 58ba
00000310: 8e29 8bbc da8d d73b f3fe e2bc 7c00 a93b
00000320: a422 5d3c 507c 7e3c 08d3 113d daf5 6ebc
00000330: 76be 0c3c 45ca 89bc 207b 98bc 5dee ae3b
00000340: 14da 11bd 186d d83c 400b cd3c ce21 d4bc
00000350: aaed bd3b b098 f3bc 926c 163c e945 a1bb
00000360: c3a7 26bc e3b6 1e3d ea5f fabc 1a8e a73c
00000370: 3c2c f23c 07c6 6ebc a1ce 323d b11c 103d
00000380: b2a4 923c db46 363d 12ec ec3c d155 f63c
00000390: bd1a d93c a876 8fbc 24d7 013c a8e6 02bc
000003a0: 960c 67ba e781 0abd 52e9 a0bc faf6 02bd
000003b0: d52d 9d3b 23c8 4e3b 6a58 a13c 2e2c 4abc
000003c0: 25b8 b7bc 40bf edbb 0cda 45bd 02e5 bfbb
000003d0: 3952 a1ba 2135 5abc d411 ce3b 5acf e0bc
000003e0: edbe d7bc fa3c 883c 6fae 57bc 21b9 aebc
000003f0: 4749 21b8 86ae 963c 45cb f13c a3ef 57bd
0.02450457 0.0014367726 0.045613665 0.038966954 0.037159305 -0.006232433 0.0360803 -0.010860398
0.0069311853 0.0007307509 0.01947692 0.009503392 0.028023124 0.038477853 0.024553856 0.0028460505
-0.0039334716 0.016789978 -0.007723796 -0.0058862665 0.011825946 0.0019508762 -0.025042392 0.011834097
0.007652221 0.0027806805 -0.0011738809 -0.022916405 -0.040430844 -0.02216655 -0.000878852 0.051315144
-0.023232266 -0.006033662 -0.009097086 -0.01682413 0.031836163 -0.0060094325 0.015125192 -0.006847487
-0.0038610708 -0.025128657 -0.01766489 -0.013949863 -0.0140578905 0.026827201 0.03476029 0.018525194
0.012439612 -0.062406473 0.020846035 0.05426824 0.017255608 0.0030474572 0.0113884555 0.0145402625
0.03049451 0.03734703 0.017993864 0.009306561 0.00626694 0.04459466 0.024420492 0.019148326
0.025459552 -0.0069430578 0.0037545396 0.022520764 -0.03718542 0.025532499 -0.018688632 0.0143776275
-0.014336286 0.007895214 0.014888732 0.008657754 -0.001187958 0.017556343 0.028690552 0.03196003
-0.012875503 0.009968222 0.014777654 0.014342947 0.039370477 -0.0091347825 0.02068733 -0.0020823646
0.009030855 0.0055727973 0.013981046 -0.002610928 -0.012626455 -0.017268082 -0.011851921 0.0037712057
-0.007607826 -0.014349972 0.0038328916 0.0014709525 -0.0064194524 -0.004830702 -0.058413595 -0.009461164
0.0030863306 0.033792235 -0.011731708 -0.016289193 -0.030625649 -0.01665912 -0.012225033 -0.0076418584
-0.012332907 -0.021364367 0.021826759 -0.012324653 -0.004994639 -0.022326825 0.020852763 -0.0057972646
-0.017790044 0.04538807 0.0069869137 -0.022242261 0.024184091 0.010734467 -0.014015381 -0.0025571997
-0.011368139 0.0034549057 0.014012516 0.028705139 0.014332841 0.013026045 0.0027754034 -0.0032112123
-0.0062234923 -0.013709365 -0.033603378 -0.01722528 -0.0062684338 0.023493987 -0.016601296 0.0015075576
0.011512088 0.0062634004 0.005035281 0.03007323 0.032648265 0.0019192548 0.025412368 0.04591183
0.043844778 0.007657722 -0.009187778 0.0068023 0.0243782 0.024845494 -0.020697048 -0.009643494
-0.034868497 -0.00677484 0.013693989 -0.008383443 0.0023604743 -0.016808763 0.023395168 0.010320259
0.02768065 -0.019792063 -0.00077387714 -0.02256992 0.0030466036 0.02126001 0.036067653 0.024792647
-0.010285725 0.007518581 0.018112494 0.03463665 -0.01909194 0.016573498 0.00784296 -0.027634557
-0.026690543 -0.015838873 0.019617444 -0.046733413 -0.00795738 0.0065097255 0.0015875236 -0.002978121
-0.014375551 -0.0065895505 -0.005982403 -0.0008247645 -0.016987588 0.0065781893 -0.02770946 0.0051575284
0.0134970285 0.015532568 0.035601646 -0.014584983 0.008590331 -0.016820082 -0.018613398 0.0053384737
-0.035608366 0.026419207 0.025029778 -0.025895026 0.005796154 -0.029735893 0.009181159 -0.004921664
-0.010171833 0.038748633 -0.030563314 0.020453501 0.029562108 -0.014573581 0.043654088 0.035183612
0.017900798 0.044501167 0.02892116 0.030070217 0.026502008 -0.017512634 0.007924829 -0.007989563
-0.0008813826 -0.03381529 -0.019642506 -0.031973816 0.0047967234 0.0031552396 0.01969548 -0.012339635
-0.022426674 -0.007255465 -0.04830365 -0.0058561573 -0.001230783 -0.013318331 0.0062887464 -0.027442623
-0.026336158 0.016630638 -0.013164147 -0.02132851 -3.8453636e-05 0.018393766 0.029515872 -0.05271877
