tf2/pretrained_weights/hosoda/conv11_2.bias.npy (npy, 1152 bytes, 1 tensors)

array f4 [256]
0	0x310b6c4e	2.0288726e-09
1	0x314fa8a8	3.0218335e-09
2	0xb19a6808	-4.493817e-09
3	0xb1276b87	-2.436282e-09
4	0x31a28327	4.729731e-09
5	0x2f070972	1.2281534e-10
6	0xb0166ea3	-5.4726906e-10
7	0x2b821ce3	9.245073e-13
8	0xae2174aa	-3.671078e-11
9	0xafe73371	-4.2055207e-10
10	0x30e7dc91	1.6870151e-09
11	0x31254aac	2.4053106e-09
12	0xb0b6f3e2	-1.3311559e-09
13	0xb1587479	-3.1498344e-09
14	0x314cabdb	2.9783596e-09
15	0x3154e848	3.0982097e-09
16	0x3048795f	7.2932055e-10
17	0x2de1f919	2.569016e-11
18	0x2ef5ef4e	1.1183819e-10
19	0x301f4859	5.7946675e-10
20	0x310a62b9	2.013776e-09
21	0xafd26202	-3.8268416e-10
22	0x30bffbee	1.3968682e-09
23	0xaf1d3256	-1.429695e-10
24	0xb0cd0e5e	-1.4919797e-09
25	0xb0bece35	-1.3882927e-09
26	0xb0d843ba	-1.5735317e-09
27	0x2ff813be	4.5124965e-10
28	0x30070465	4.911896e-10
29	0x3021f579	5.8920296e-10
30	0xb195cb3c	-4.359576e-09
31	0x30157594	5.4372973e-10
32	0xb001429e	-4.7024595e-10
33	0x2eb251e7	8.1090516e-11
34	0x302cc405	6.2851796e-10
35	0x2eb5285c	8.238096e-11
36	0xb05e8a95	-8.0960066e-10
37	0xb04cd985	-7.452388e-10
38	0x2fb0cb7f	3.2158806e-10
39	0x3171f4a8	3.5209187e-09
40	0xb0f7ae8f	-1.8021228e-09
41	0x2fd41d59	3.8583428e-10
42	0x30ab4981	1.2462779e-09
43	0xb00e561d	-5.1781673e-10
44	0x2fd4ee38	3.873184e-10
45	0xb144a8ae	-2.8617637e-09
46	0xb1355aea	-2.6390645e-09
47	0x3049044f	7.3129497e-10
48	0xb025c204	-6.0302363e-10
49	0xb15d3488	-3.2189593e-09
50	0xb0185513	-5.5418176e-10
51	0xb084d953	-9.666031e-10
52	0xaebe5c2a	-8.656571e-11
53	0x2e695273	5.3051296e-11
54	0x305d4c0d	8.0507406e-10
55	0xaffba8ee	-4.5776666e-10
56	0xaf93b3af	-2.6866817e-10
57	0x2ea8b3c4	7.671688e-11
58	0xb0358536	-6.603672e-10
59	0xb10f608d	-2.0864122e-09
60	0xaf2f35d4	-1.5935281e-10
61	0xafff5a79	-4.6448514e-10
62	0xb0453356	-7.1741135e-10
63	0x3156f19b	3.1278435e-09
64	0x313ea8c1	2.7744564e-09
65	0x305d062c	8.04081e-10
66	0xaf38a1d2	-1.6792193e-10
67	0x310068e3	1.8686073e-09
68	0x300dd50d	5.1598265e-10
69	0x30147933	5.401432e-10
70	0xb1434b50	-2.8419045e-09
71	0xb108e272	-1.9919324e-09
72	0x31b28c19	5.196409e-09
73	0x2f7cf8de	2.3007682e-10
74	0x30cfd0c8	1.5120571e-09
75	0x30933fcd	1.0713791e-09
76	0xb0c22b98	-1.4127748e-09
77	0xb0a26883	-1.1816755e-09
78	0x31ac0541	5.006456e-09
79	0x3105dbb1	1.9478927e-09
80	0xb087fae3	-9.893849e-10
81	0xb097ba5c	-1.1039663e-09
82	0x31803ead	3.7324157e-09
83	0x313b44e4	2.7251241e-09
84	0x30874d79	9.844562e-10
85	0xb090c05d	-1.0532052e-09
86	0x30c86e67	1.4583293e-09
87	0xaf094c57	-1.2487199e-10
88	0x31994358	4.460542e-09
89	0xb1036574	-1.9120678e-09
90	0xaf29757d	-1.54122e-10
91	0xafa10f87	-2.9296762e-10
92	0xaede6d8a	-1.0114849e-10
93	0x2f540be5	1.9285513e-10
94	0xb12388f9	-2.3797482e-09
95	0x30d730f3	1.5657221e-09
96	0x301253a1	5.3233334e-10
97	0x3005cc44	4.8675397e-10
98	0x306fa5d1	8.718333e-10
99	0xb0ccd550	-1.4903581e-09
100	0x309266ca	1.0652113e-09
101	0xaf7484ad	-2.2238807e-10
102	0x30b6e9f2	1.3308734e-09
103	0x2f2a6590	1.5497492e-10
104	0x3058ef48	7.892038e-10
105	0xaf1ce3bf	-1.4269029e-10
106	0xafad5a7f	-3.1532818e-10
107	0x305344a3	7.685889e-10
108	0xb003c019	-4.793051e-10
109	0x2f89be5b	2.505541e-10
110	0xb078bd0e	-9.049054e-10
111	0x30f5238f	1.7836203e-09
112	0xb12a9add	-2.4826285e-09
113	0xaf96cc57	-2.7430033e-10
114	0x30b23cce	1.2968486e-09
115	0x2f75905c	2.2333907e-10
116	0xb0b4e0af	-1.3160583e-09
117	0x307af6fe	9.1300467e-10
118	0x2f976c78	2.7543812e-10
119	0xb130717d	-2.5675881e-09
120	0xb00b8bc4	-5.0766524e-10
121	0x30b7a227	1.3361089e-09
122	0x3130d131	2.5730282e-09
123	0xb0b9cd31	-1.351884e-09
124	0x307c2067	9.172311e-10
125	0x3133f9d6	2.6189944e-09
126	0xb0627281	-8.238104e-10
127	0xb02c979d	-6.278869e-10
128	0xb05b1b3c	-7.971044e-10
129	0x30963b49	1.0930786e-09
130	0x30520f44	7.641925e-10
131	0xaf6e02c9	-2.1646963e-10
132	0xb10900b6	-1.9936528e-09
133	0x2fe33920	4.133165e-10
134	0xb14f511e	-3.0168574e-09
135	0xb00f5920	-5.214975e-10
136	0xafca92ed	-3.6847983e-10
137	0x2f84ac23	2.413297e-10
138	0xb110f4fa	-2.109401e-09
139	0x320789f7	7.889404e-09
140	0xb1265227	-2.4202877e-09
141	0xb10c05bc	-2.037594e-09
142	0xb0b6c8dd	-1.3299332e-09
143	0x2f8a6b04	2.5178093e-10
144	0x31e214dd	6.5798376e-09
145	0x301f204c	5.788976e-10
146	0xb10106b6	-1.8775785e-09
147	0x303b89c7	6.8225997e-10
148	0xae902226	-6.554428e-11
149	0xafd0fe1f	-3.8015543e-10
150	0x2f75afcd	2.2345077e-10
151	0x2eb13e2a	8.060071e-11
152	0x2ff6f497	4.492093e-10
153	0x30510392	7.603883e-10
154	0xb0eb3fac	-1.7116597e-09
155	0x2feddf24	4.32686e-10
156	0xb1341f44	-2.621122e-09
157	0x2f9fb131	2.9047834e-10
158	0x3057a557	7.8451506e-10
159	0xb046b922	-7.229507e-10
160	0x300b4c80	5.067662e-10
161	0x304fe698	7.5633855e-10
162	0x30c51995	1.4340907e-09
163	0xb0eb9a15	-1.7142293e-09
164	0xb11ed12b	-2.3110924e-09
165	0x2f8f6ee7	2.609035e-10
166	0x3095dd01	1.090399e-09
167	0xb02c03a0	-6.2578387e-10
168	0x3047a042	7.262352e-10
169	0x31a9156d	4.920983e-09
170	0xb129c5ba	-2.4705131e-09
171	0xb1421d8d	-2.8247513e-09
172	0x30ced541	1.5049083e-09
173	0xb1c1bbb3	-5.638378e-09
174	0x312ebcb4	2.5427598e-09
175	0xb1128a5c	-2.1324444e-09
176	0x30f23f0d	1.7625738e-09
177	0x2c66a94d	3.2778947e-12
178	0x30921b29	1.0630617e-09
179	0x312ca4c8	2.5122961e-09
180	0x2f611850	2.0472268e-10
181	0x304346ce	7.1041206e-10
182	0x313e65c4	2.7706486e-09
183	0x311d3e09	2.288177e-09
184	0xafa3c02a	-2.9786068e-10
185	0x30470a86	7.2410733e-10
186	0x2f8339ec	2.3869917e-10
187	0xb0aabffa	-1.2423691e-09
188	0x303d747c	6.8923334e-10
189	0x31a80abb	4.8906634e-09
190	0xb14f5268	-3.0169307e-09
191	0x3104f3b6	1.9347062e-09
192	0x31897e53	4.001586e-09
193	0xb161ec4a	-3.2876124e-09
194	0xb0f1766f	-1.7568719e-09
195	0x2eddacd4	1.0080617e-10
196	0xb05df44f	-8.0746515e-10
197	0x30d099f0	1.5177744e-09
198	0xb1186016	-2.217353e-09
199	0x319879de	4.437637e-09
200	0xb0aab356	-1.2420098e-09
201	0x311d0904	2.2851632e-09
202	0xb1be1b61	-5.5328404e-09
203	0xafa1bf04	-2.9421454e-10
204	0xb12bd4a9	-2.5004658e-09
205	0xafc42823	-3.568071e-10
206	0x3089c1f8	1.0023191e-09
207	0xb1839a00	-3.8301096e-09
208	0x30bdb7d4	1.3803807e-09
209	0x30ec400d	1.7189464e-09
210	0x31428c1e	2.8310363e-09
211	0x31028ed3	1.8998676e-09
212	0xae9e5f71	-7.201962e-11
213	0x30b1b150	1.292884e-09
214	0x3139bfb1	2.7030007e-09
215	0xacd5507a	-6.062759e-12
216	0x31865176	3.9091743e-09
217	0xb10c49c6	-2.0414617e-09
218	0xb151cf14	-3.0531213e-09
219	0xb043236d	-7.099093e-10
220	0xb0e46a85	-1.6619458e-09
221	0x313b5111	2.7258162e-09
222	0xb129da5f	-2.4716866e-09
223	0x2fc619d1	3.6034334e-10
224	0x3162d9d7	3.3011156e-09
225	0x2f22c3b4	1.4803342e-10
226	0x3082a823	9.506532e-10
227	0xb168d926	-3.3883878e-09
228	0xb14dbad1	-2.993762e-09
229	0xafac1e1e	-3.1308017e-10
230	0xb0c802f6	-1.4552757e-09
231	0xafb90e7f	-3.3661604e-10
232	0xb08da9bb	-1.030734e-09
233	0x31a73edb	4.8674855e-09
234	0x30c8e27e	1.4616288e-09
235	0x30e65fbe	1.6761914e-09
236	0x311d2b25	2.2871032e-09
237	0x2fba0c72	3.3842046e-10
238	0xb081d663	-9.446918e-10
239	0x3190ccad	4.2142205e-09
240	0x30a26635	1.18161e-09
241	0x31818101	3.76906e-09
242	0x308124cf	9.396447e-10
243	0xaf47c30c	-1.8168239e-10
244	0x31744a7f	3.554902e-09
245	0xb11a95a3	-2.2495008e-09
246	0xb1446ed9	-2.8584763e-09
247	0x3106aeef	1.9599005e-09
248	0xadd05c68	-2.3687899e-11
249	0x30cd58b4	1.4940924e-09
250	0x3171e40e	3.519975e-09
251	0xacb191dd	-5.0468366e-12
252	0x3126e5d1	2.4286815e-09
253	0xafaeec56	-3.1818342e-10
254	0x2dc32d6b	2.2189103e-11
255	0xb1e5d4bb	-6.688962e-09
