tf2/pretrained_weights/hosoda/conv06_1.bias.npy (npy, 1152 bytes, 1 tensors)

array f4 [256]
6.619872e-10 -1.6009719e-09 -2.8367084e-10 2.2413278e-09 -1.0941421e-09 3.377011e-10 6.9965755e-10 -1.0303602e-09
-1.9501392e-10 1.7195503e-10 1.2553124e-09 -3.0397515e-10 9.685721e-10 -1.3878384e-09 2.0826785e-09 1.0514005e-09
-5.5001614e-10 -2.510118e-10 -3.8534503e-10 -4.9004073e-10 4.808284e-10 2.1675745e-11 -1.1329421e-09 8.074797e-10
-1.3191905e-09 -4.067169e-10 -2.6817354e-10 -1.1323643e-09 3.9043493e-10 8.625129e-10 6.9486705e-10 -7.0782213e-10
6.5025657e-10 3.2475817e-11 1.3853007e-11 5.8192062e-11 9.349287e-10 1.7906865e-10 7.630679e-10 -5.773273e-10
1.0282406e-09 -5.9913563e-10 2.199827e-10 4.1250256e-10 8.739898e-10 4.1233722e-10 -7.7117857e-10 8.083457e-11
3.3238298e-10 1.8184426e-10 -1.7096995e-09 -7.42447e-10 -2.068534e-10 -1.064641e-09 3.1620662e-10 2.854721e-10
-7.5997203e-10 -4.0527696e-11 1.8214112e-10 -1.989393e-09 3.6119724e-10 -5.875668e-10 1.4179957e-09 2.263843e-10
-8.872635e-11 -3.2774886e-10 -7.5463724e-10 2.1493465e-10 4.498508e-10 2.7688327e-10 -5.0800797e-10 1.1081024e-09
1.2819654e-09 3.756076e-10 -5.463846e-11 2.0200437e-10 7.7294976e-10 -2.5986593e-10 -1.3627353e-09 -7.622586e-10
-1.9168649e-10 4.444385e-10 -1.2131243e-10 -1.507776e-11 -7.003469e-10 2.7378808e-10 1.4699422e-10 1.980903e-10
1.229447e-09 -1.0495247e-09 2.0386728e-09 1.8093164e-11 -1.9435739e-10 2.445806e-10 1.9368241e-11 1.9945086e-09
3.4188122e-10 -1.9066986e-11 -7.416519e-10 3.74741e-10 -1.1951817e-09 -2.7820993e-10 2.5169725e-10 -8.886458e-10
6.251876e-10 1.119887e-09 -8.7586877e-10 4.9662374e-10 6.1082733e-10 -6.0986266e-10 -1.9540679e-10 6.8925865e-10
1.3296662e-09 7.481142e-10 8.3953594e-10 -5.821594e-11 -6.9558675e-10 -4.1120155e-10 -9.961412e-10 -1.14351646e-10
2.0100457e-09 8.6964064e-10 -3.0722294e-10 8.559048e-10 2.8284625e-10 -1.1280277e-09 6.605672e-10 -3.131056e-10
-6.22411e-10 5.4079996e-10 -1.64651e-09 -1.8676216e-09 1.2254248e-09 -9.932671e-10 -3.8794315e-10 -1.2718284e-09
-4.5079288e-10 8.3674505e-11 1.0184062e-09 4.874714e-10 -7.800237e-10 7.310645e-10 -4.5627804e-10 7.8395107e-10
-5.4267507e-10 1.0700234e-09 4.6567455e-10 -8.8726626e-10 8.479104e-11 6.497612e-12 -1.9122826e-09 1.12085674e-10
9.015925e-10 -5.405959e-10 -1.3887776e-09 -5.21451e-10 1.4725161e-09 1.5543965e-10 2.658762e-09 1.8435091e-09
4.0269865e-10 -1.1768537e-09 -3.6537923e-10 -3.2958438e-09 -1.3769433e-10 8.2710355e-10 -5.7599775e-10 6.6367706e-10
2.8213336e-11 -8.386015e-10 4.855061e-10 -2.0422777e-10 -5.7915065e-11 -7.291587e-10 1.6844977e-10 -4.971174e-10
2.7156617e-11 -1.9708402e-10 2.2485491e-09 -1.2603093e-09 -1.179917e-10 -5.026546e-10 -4.6011475e-10 -1.8340437e-11
9.185712e-10 1.5953375e-09 6.373181e-11 -3.6482897e-10 -6.2065647e-10 -1.4449067e-10 1.5729044e-09 -8.211793e-11
9.477914e-11 -7.411817e-10 9.002878e-11 6.908914e-10 -6.1741356e-10 -8.694625e-11 -1.620574e-11 8.2052376e-10
1.5736411e-09 5.6628646e-10 -4.2970005e-10 1.892784e-09 -1.0316578e-09 -8.9512137e-10 -1.6022558e-10 5.5427596e-10
9.939258e-10 1.3741628e-09 -8.6718593e-10 3.8816028e-10 1.9559901e-10 3.3991668e-10 -5.731756e-10 -3.4386716e-10
-2.406068e-10 -6.845693e-10 6.4807504e-10 4.77607e-10 6.686906e-10 -8.3774855e-11 -1.5248183e-09 -9.212894e-10
1.4636281e-10 1.1562755e-09 -2.564279e-10 -6.905337e-10 -6.1010763e-10 1.3558589e-10 8.520399e-10 5.4213484e-10
1.8453569e-10 5.9458366e-10 1.4955898e-09 1.2230406e-09 -8.78843e-10 1.3289558e-10 1.7339985e-09 -6.509585e-10
6.9397804e-10 1.0785306e-10 2.5950497e-09 4.8548515e-10 -4.771743e-10 1.8790432e-10 -6.2623345e-10 7.699783e-10
6.480581e-11 6.5732064e-10 7.3574785e-10 5.340822e-10 -2.0506051e-10 -1.5294717e-09 1.6504411e-09 2.58024e-09
00000000: 35f7 3530 3109 dcb0 1ff3 9baf db05 1a31
00000010: b460 96b0 34a7 b92f 0652 4030 949c 8db0
00000020: 8a6b 56af 0a11 3d2f 6187 ac30 b31c a7af
00000030: 9a1e 8530 39be beb0 de1e 0f31 de80 9030
00000040: f22f 17b0 c5fe 89af 7ed8 d3af 8db3 06b0
00000050: 4a2b 0430 70a9 be2d dbb5 9bb0 55f5 5d30
00000060: e44e b5b0 5198 dfaf 126e 93af 87a1 9bb0
00000070: d5a4 d62f f315 6d30 ec00 3f30 8e90 42b0
00000080: bdbd 3230 85d4 0e2e 66b4 732d 70ee 7f2e
00000090: e17e 8030 58e3 442f 21c0 5130 ccb1 1eb0
000000a0: 0052 8d30 6cb0 24b0 a0df 712f 93c6 e22f
000000b0: 913d 7030 4eaf e22f defa 53b0 d1c1 b12e
000000c0: bfba b62f 9cf0 472f b4fa eab0 1015 4cb0
000000d0: 0e70 63af ba52 92b0 20d6 ad2f a0f0 9c2f
000000e0: 47e6 50b0 213e 32ae 2b44 482f c6b5 08b1
000000f0: fe91 c62f 5682 21b0 4ae3 c230 84e9 782f
00000100: 7f1c c3ae 8d2e b4af e06e 4fb0 ba52 6c2f
00000110: df4e f72f db37 982f e2a3 0bb0 e34b 9830
00000120: 2631 b030 127e ce2f 704d 70ae 2d1b 5e2f
00000130: 8177 5430 e1dc 8eaf fc4a bbb0 2e87 51b0
00000140: f3c2 52af 2955 f42f 6a62 05af 19a0 84ad
00000150: 8882 40b0 3f84 962f 329f 212f 76cd 592f
00000160: 52f9 a830 de3e 90b0 b618 0c31 2f26 9f2d
00000170: beb2 55af a975 862f 675d aa2d c40f 0931
00000180: 81f3 bb2f 09b7 a7ad 1ddd 4bb0 1b04 ce2f
00000190: b843 a4b0 91f2 98af 3d5f 8a2f e444 74b0
000001a0: abd9 2b30 85ea 9930 c9c1 70b0 ca82 0830
000001b0: 27e7 2730 45a3 27b0 1fda 56af 4476 3d30
000001c0: 78bf b630 dba3 4d30 17c5 6630 a904 80ae
000001d0: 9133 3fb0 790f e2af 9ae8 88b0 4176 fbae
000001e0: 1921 0a31 850b 6f30 c9e5 a8af f244 6b30
000001f0: 127f 9b2f f208 9bb0 4993 3530 b221 acaf
00000200: 4816 2bb0 6aa7 1430 6c4b e2b0 8c57 00b1
00000210: cd6b a830 7b83 88b0 2546 d5af 7ccc aeb0
00000220: 75d3 f7af 8f00 b82e fcf7 8b30 c0fe 0530
00000230: 4a69 56b0 17f4 4830 6dd7 faaf a77d 5730
00000240: 5d2b 15b0 1a10 9330 ef00 0030 d0e3 73b0
00000250: 1d75 ba2e 499d e42c 3b69 03b1 a07a f62e
00000260: efd3 7730 0e99 14b0 45df beb0 da55 0fb0
00000270: 8e61 ca30 5fe8 2a2f 70b5 3631 b65e fd30
00000280: cc62 dd2f dcbe a1b0 8ede c8af 197d 62b1
00000290: 8265 17af 3d5a 6330 3d54 1eb0 1f6e 3630
000002a0: c92a f82d 5683 66b0 7474 0530 028d 60af
000002b0: 91b6 7eae fb6d 48b0 6536 392f 87a5 08b0
000002c0: 44df ee2d 38b2 58af e584 1a31 3137 adb0
000002d0: b6bb 01af 2c2b 0ab0 65f3 fcaf fe52 a1ad
000002e0: b47e 7c30 f342 db30 d225 8c2e 1d91 c8af
000002f0: d19a 2ab0 82de 1eaf a72d d830 4994 b4ae
00000300: ea6b d02e 07bc 4bb0 b3f9 c52e 29e9 3d30
00000310: 9eb6 29b0 6332 bfae 158c 8ead 3a8b 6130
00000320: 9347 d830 dea8 1b30 e83a ecaf 3512 0231
00000330: 3bca 8db0 910c 76b0 7e2b 30af b45b 1830
00000340: a89a 8830 0edd bc30 c95e 6eb0 b464 d52f
00000350: 3a10 572f 05df ba2f a68d 1db0 000b bdaf
00000360: 6646 84af 482c 3cb0 3a24 3230 9b48 0330
00000370: ebce 3730 0d39 b8ae c691 d1b0 fa3d 7db0
00000380: 78ed 202f d4ea 9e30 05f9 8caf fdcf 3db0
00000390: 82b4 27b0 0914 152f fa34 6a30 5905 1530
000003a0: 2ee6 4a2f 1b70 2330 638d cd30 ea17 a830
000003b0: 1493 71b0 c81e 122f a651 ee30 22ef 32b0
000003c0: 5dc2 3e30 e02b ed2e 9954 3231 fb72 0530
000003d0: 282a 03b0 5d9a 4e2f 4323 2cb0 68a6 5330
000003e0: 6d82 8e2e d4ae 3430 a73d 4a30 b2ce 1230
000003f0: 6777 61af 8035 d2b0 bcd5 e230 1050 3131
