tf2/pretrained_weights/hosoda/conv03_1.bias.npy (npy, 1152 bytes, 1 tensors)

array f4 [256]
-2.7169119e-08 9.2865754e-08 3.9969056e-08 -8.449191e-08 5.3688435e-08 -2.1504203e-08 -8.223834e-08 -6.353432e-08
-1.04984096e-07 -3.4234933e-08 6.693827e-08 7.3573624e-08 1.3810259e-08 -4.653274e-08 -1.35678535e-08 1.8343091e-09
-5.703768e-08 7.02655e-09 -6.983758e-08 4.9473197e-08 -8.2090914e-08 -8.965221e-09 2.4545917e-08 4.6073932e-08
4.405968e-08 -1.5807326e-07 6.161359e-08 -8.06558e-09 1.05062234e-07 3.552229e-08 7.586987e-08 1.46713965e-08
-8.357781e-08 3.812233e-08 -7.395951e-08 -8.755872e-08 -6.594516e-08 -8.9024006e-08 1.2324443e-07 -5.056629e-08
-7.799729e-08 2.8564793e-08 -9.125231e-09 -6.6639174e-08 3.5521317e-08 -5.5901017e-09 1.3421999e-08 1.2082245e-08
-6.3123714e-08 -1.3213422e-07 3.8417713e-08 -5.081688e-08 -2.3459938e-08 2.9798408e-09 4.1031264e-08 1.8216816e-09
1.8243668e-07 -7.023963e-08 -4.895909e-08 1.4433934e-08 1.5907433e-07 -2.4531886e-08 -1.39389655e-08 -1.1488835e-07
-6.010523e-08 -1.5087215e-07 -4.9136027e-08 -4.2251244e-08 8.9173845e-08 -2.428561e-08 7.492721e-08 -2.5077444e-08
8.819283e-08 7.584292e-08 -1.5264595e-07 7.089523e-08 -4.676951e-08 -5.3604263e-09 -1.5797329e-07 -8.696605e-08
-1.2311698e-07 -9.0684274e-08 1.4415237e-07 -9.2803425e-08 1.0734434e-07 -6.636217e-08 -5.858607e-08 -1.8063e-08
-2.9979553e-08 -6.9469284e-09 6.901672e-08 7.883247e-08 1.1331884e-07 5.0435506e-08 2.3695723e-08 -3.8152688e-08
-9.3403074e-08 -4.155489e-08 9.377512e-08 -8.7285535e-08 -2.0343503e-08 -2.8298743e-08 -3.1306985e-08 -8.680397e-08
-2.8277136e-09 -1.5945115e-07 6.661174e-08 5.6437067e-08 1.536142e-07 1.0610524e-07 1.2423033e-07 5.6830416e-08
9.1140056e-09 7.112075e-08 -1.1324928e-07 -2.9783868e-08 -5.831031e-08 5.4947897e-08 1.0996577e-07 -5.4460596e-09
5.0483e-09 -6.434745e-08 -1.1931662e-08 -1.1039906e-07 8.13655e-08 -6.9815527e-09 7.304595e-08 2.0544237e-08
1.0039369e-07 5.7735562e-08 -7.930194e-08 -7.009776e-08 -7.1919196e-08 -7.527012e-10 -3.4115203e-08 -7.282129e-08
-3.752678e-08 -4.2499273e-08 1.648184e-07 6.740652e-08 -1.08737595e-07 -8.089828e-08 5.2096492e-08 -5.1836974e-08
-5.9216376e-08 1.7664172e-08 3.377918e-08 -3.4724675e-08 9.2627026e-08 8.704549e-08 -6.0619826e-08 4.9254044e-08
2.9021963e-08 4.2263075e-08 -3.215281e-08 -7.471137e-08 5.3995652e-08 -7.1229294e-08 2.238359e-09 2.8780413e-08
2.0502972e-08 1.019911e-07 -1.1268107e-07 -5.0475652e-08 -5.6462348e-08 1.0584629e-08 5.5333583e-08 5.3771902e-08
6.441e-08 -1.08680325e-07 -9.182274e-08 -7.8421216e-08 -5.345418e-08 3.1403175e-08 -5.7120523e-08 -6.812346e-08
3.5689238e-09 1.00724705e-07 5.1974723e-08 5.5989196e-09 -4.3825537e-08 4.741937e-08 2.661574e-08 -1.0528105e-07
-7.495059e-08 -2.5907255e-08 3.349594e-08 -6.420734e-08 5.4784732e-09 -2.0230732e-07 6.730577e-08 -1.9709985e-08
2.542793e-08 1.0794161e-08 -5.683665e-08 4.615925e-08 1.6281085e-08 5.1743474e-08 1.1922528e-07 -4.145012e-08
7.6831155e-09 -4.3336097e-08 -4.834368e-08 1.02523416e-07 -7.6601204e-08 -5.3565774e-09 -2.8379601e-08 5.1878622e-08
-6.6279533e-09 5.0901616e-09 -6.594474e-08 8.917657e-08 -6.6015398e-09 -4.7513694e-08 -1.5320772e-08 7.744325e-08
-1.5629035e-07 1.9750473e-07 -6.186131e-08 6.391214e-08 4.271029e-08 1.6853082e-08 9.812966e-08 4.9785207e-08
2.9080685e-08 -7.226208e-09 9.851652e-09 -3.129235e-08 1.0496142e-07 8.684307e-08 -8.669021e-08 -1.0748367e-07
1.0561835e-07 5.6466412e-08 -7.6408426e-08 1.8945258e-08 -4.7548554e-08 -1.3596954e-07 8.533889e-08 -1.1040835e-08
4.446881e-08 -1.2540468e-07 2.9383598e-08 7.294921e-09 4.752263e-08 3.1814736e-08 -6.9869603e-09 5.6291295e-08
-5.934773e-09 5.1496663e-08 -1.5354779e-08 -2.9380375e-08 1.6333157e-08 -4.734462e-09 -9.792088e-08 1.5245796e-07
00000000: 8661 e9b2 7d6d c733 71aa 2b33 eb71 b5b3
00000010: 0f97 6633 3eb8 b8b2 019b b0b3 5d70 88b3
00000020: 9e73 e1b3 b509 13b3 b4bf 8f33 87ff 9d33
00000030: 2942 6d32 4adb 47b3 0d18 69b2 041b fc30
00000040: 98f9 74b3 306e f131 9ef9 95b3 5b7c 5433
00000050: f549 b0b3 7505 1ab2 0bd9 d232 d3e2 4533
00000060: 213c 3d33 d9ba 29b4 6e50 8433 cc90 0ab2
00000070: 939e e133 2c91 1833 e7ed a233 7c0d 7c32
00000080: 637b b3b3 f2bb 2333 acd3 9eb3 ea07 bcb3
00000090: bc9d 8db3 772d bfb3 2c55 0434 392e 59b3
000000a0: 777f a7b3 a55e f532 31c5 1cb2 461b 8fb3
000000b0: 1a90 1833 0e13 c0b1 9396 6632 4792 4f32
000000c0: a18e 87b3 c7e0 0db4 b900 2533 c041 5ab3
000000d0: f384 c9b2 eac5 4c31 5a3a 3033 b95e fa30
000000e0: d0e3 4334 a5d6 96b3 1747 52b3 1df9 7732
000000f0: 05ce 2a34 30ba d2b2 3878 6fb2 8ab8 f6b3
00000100: 3313 81b3 6cff 21b4 a209 53b3 bc77 35b3
00000110: d77f bf33 9f9c d0b2 abe7 a033 e269 d7b2
00000120: 8564 bd33 16df a233 00e7 23b4 113f 9833
00000130: 9fdf 48b3 cf2e b8b1 5e9f 29b4 17c2 bab3
00000140: 2332 04b4 35be c2b3 4dc8 1a34 394b c7b3
00000150: 2d85 e633 fd82 8eb3 11a0 7bb3 f528 9bb2
00000160: dec2 00b3 d4b1 eeb1 5836 9433 9c4a a933
00000170: b159 f333 6d9e 5833 728b cb32 53dd 23b3
00000180: e294 c8b3 167a 32b3 6b61 c933 bb71 bbb3
00000190: d6bf aeb2 9815 f3b2 6576 06b3 fd68 bab3
000001a0: aa51 42b1 9935 2bb4 310c 8f33 3665 7233
000001b0: 26f1 2434 f9db e333 2c64 0534 b415 7433
000001c0: d293 1c32 0cbb 9833 7333 f3b3 6bd7 ffb2
000001d0: dd70 7ab3 daff 6b33 5226 ec33 0c20 bbb1
000001e0: 5175 ad31 622f 8ab3 01fc 4cb2 8614 edb3
000001f0: 28bb ae33 63e2 efb1 70dd 9c33 4179 b032
00000200: 0498 d733 ecf8 7733 b44c aab3 a788 96b3
00000210: ff71 9ab3 a3e6 4eb0 1086 12b3 ed61 9cb3
00000220: 222d 21b3 7288 36b3 f0f8 3034 20c1 9033
00000230: 2083 e9b3 4dba adb3 b3c0 5f33 5ba3 5eb3
00000240: 1855 7eb3 edbb 9732 9a14 1133 2f24 15b3
00000250: 3fea c633 c4ed ba33 1a2e 82b3 658b 5333
00000260: f94b f932 be84 3533 6318 0ab3 0371 a0b3
00000270: d9e8 6733 b8f6 98b3 a1d1 1931 cc38 f732
00000280: 831e b032 3306 db33 13fb f1b3 91ca 58b3
00000290: 0281 72b3 b1d7 3532 eba7 6d33 d5f2 6633
000002a0: c651 8a33 a463 e9b3 1630 c5b3 8568 a8b3
000002b0: 7e95 65b3 28e0 0633 ae54 75b3 454b 92b3
000002c0: 2c41 7531 fe4d d833 d03a 5f33 9e60 c031
000002d0: b03a 3cb3 26aa 4b33 a2a0 e432 df16 e2b3
000002e0: 86f4 a0b3 a88a deb2 2ddd 0f33 5ce2 89b3
000002f0: 293d bc31 d039 59b4 bd89 9033 b74e a9b2
00000300: 9c6c da32 3971 3932 8f1c 74b3 a240 4633
00000310: 7cda 8b32 8d3c 5e33 6504 0034 e406 32b3
00000320: b3fe 0332 8b20 3ab3 70a2 4fb3 d82a dc33
00000330: f57f a4b3 f40c b8b1 67c7 f3b2 26d1 5e33
00000340: 18bc e3b1 89e5 ae31 819d 8db3 5681 bf33
00000350: c2d3 e2b1 dc11 4cb3 bc9a 83b2 e04e a633
00000360: c4d0 27b4 b011 5434 9dd8 84b3 1240 8933
00000370: 7670 3733 52c4 9032 5abb d233 6ad3 5533
00000380: 1acd f932 664a f8b1 0640 2932 4d66 06b3
00000390: 2767 e133 7c7e ba33 722a bab3 c6d1 e6b3
000003a0: 4dd0 e233 7a85 7233 fa15 a4b3 10bd a232
000003b0: 3038 4cb3 06ff 11b4 8d43 b733 1bae 3db2
000003c0: f9fd 3e33 faa6 06b4 3767 fc32 cea6 fa31
000003d0: af1b 4c33 aca4 0833 f411 f0b1 efc4 7133
000003e0: d1ea cbb1 2e2d 5d33 84e5 83b2 2160 fcb2
000003f0: fe4c 8c32 c5ac a2b1 9348 d2b3 53b3 2334
