tf2/style_transfer/cartoongan/pretrained_weights/hosoda/conv05_2.bias.npy (npy, 1152 bytes, 1 tensors)

array f4 [256]
-1.0416826e-09 -1.3430541e-09 -2.4286113e-09 4.104715e-10 9.481512e-10 -6.3291195e-10 8.3043816e-10 1.9085231e-09
-7.72654e-09 -1.1720451e-09 1.3020873e-09 -6.296479e-09 1.0384781e-09 -7.084545e-10 -1.4019098e-09 2.240041e-09
5.52635e-10 -2.0257773e-10 -2.5415172e-09 -9.959731e-10 -2.6573108e-09 1.1996396e-10 -9.464478e-10 -1.0257637e-09
1.3592487e-09 4.2097743e-09 -5.7142e-10 2.747873e-10 -1.2295398e-10 -3.2233751e-09 -1.164242e-09 -1.9185427e-09
-2.0227382e-09 -2.406089e-09 1.3906775e-09 -1.3118195e-09 4.4443564e-09 1.1960666e-10 6.671848e-09 -3.8926187e-09
-4.286612e-11 9.591304e-10 -2.3474525e-09 5.980988e-11 1.3252857e-09 3.9767267e-10 -2.187932e-09 -1.5219569e-09
-2.4936941e-09 1.0296817e-09 7.139164e-10 -5.091661e-10 8.499151e-09 1.4855357e-09 2.9921454e-09 1.2241809e-09
-1.2531044e-09 3.394138e-09 1.0491074e-09 6.5187755e-12 2.9053688e-09 -7.848378e-10 1.6650138e-09 -3.0171117e-09
-2.3162741e-10 -4.89934e-10 1.7894847e-10 2.8485008e-09 2.6785701e-10 1.1353136e-09 3.7484127e-09 -2.2421922e-09
2.9217637e-09 1.635818e-10 -3.4021838e-10 -1.492379e-10 -1.749877e-09 -2.705375e-09 3.8459755e-09 6.41417e-10
-2.2427504e-09 1.4043192e-09 -1.353763e-09 5.5640146e-09 -3.2580958e-09 6.267676e-10 2.3857507e-09 2.9368115e-09
-5.742202e-10 -2.6449745e-09 -4.872248e-10 -3.1052934e-09 3.2101604e-09 7.499981e-10 -1.917248e-09 2.384449e-09
2.6426356e-10 -3.6924934e-09 5.958806e-09 6.4560877e-09 -8.063848e-10 -2.1666813e-09 3.9877207e-10 1.8760409e-09
5.7069993e-10 2.9154528e-09 -2.192433e-10 -2.6582617e-10 2.094732e-10 1.0955352e-09 -1.006899e-08 -4.228742e-11
-1.9500204e-09 -2.9720202e-09 -1.9408581e-09 -2.9757143e-09 1.00160755e-10 -1.0078782e-10 1.4847944e-09 -1.6180027e-09
-1.4578293e-10 3.1458017e-10 -4.8911155e-09 -2.3833897e-09 5.4526017e-10 3.3152028e-10 -9.034764e-10 2.3036735e-09
4.927723e-09 2.9993321e-09 1.532294e-09 1.934564e-09 3.8869594e-10 2.8695408e-09 -1.6398823e-10 6.0036287e-10
2.6216078e-09 -5.431499e-09 -2.2774214e-09 4.0124798e-10 1.062059e-09 1.13816965e-08 1.221689e-10 -1.3084832e-09
3.3262908e-09 1.7264867e-09 7.348335e-10 -2.1780466e-09 -3.398511e-10 -2.0338036e-09 4.6097368e-10 -6.186443e-09
-2.461737e-10 -3.5040564e-09 8.926224e-10 1.1568335e-09 -4.9780566e-09 3.9213273e-09 -4.5957442e-09 3.9684964e-11
1.908996e-09 -7.812784e-10 1.2182206e-11 -1.0499639e-09 -2.1011288e-09 -3.7981973e-09 2.6948455e-09 2.0990831e-09
3.275515e-09 4.2510126e-10 8.6467555e-10 1.1263428e-09 -6.908945e-11 -5.3423523e-09 4.0018125e-10 1.507942e-09
1.3790386e-10 1.3885179e-09 2.6125434e-12 1.1846923e-09 -1.5860936e-09 2.9441642e-09 1.1613248e-09 -1.1224279e-09
4.127459e-09 1.6630657e-09 1.4820072e-10 -2.0646524e-09 6.9123735e-11 5.013274e-10 -7.3123105e-11 2.6588573e-10
-2.746391e-09 -9.797504e-10 1.5856846e-09 1.872215e-09 -4.9175203e-10 -1.1716759e-09 -2.1438609e-10 -1.7156464e-09
-4.869103e-09 -1.8393014e-09 -2.4595082e-10 4.0824566e-09 -1.2818488e-09 4.3296425e-11 -4.3465423e-10 -7.0433375e-09
-8.5684587e-10 1.1965025e-09 5.754827e-10 1.8644486e-09 1.1443886e-09 7.1757855e-10 1.8939619e-09 2.114948e-09
9.069151e-10 3.329663e-09 -1.1928961e-09 -2.6185192e-09 1.1129702e-09 -5.121556e-10 1.0655445e-09 -3.2920297e-10
8.682132e-10 -1.0717073e-09 6.7411976e-10 -2.0615027e-09 -3.3005103e-09 1.86565e-09 8.68888e-10 5.050069e-12
-2.1081442e-11 -4.304554e-10 4.963783e-09 1.8740862e-09 2.537775e-11 -3.8264308e-10 -3.7106387e-09 2.5262532e-09
8.746098e-10 4.124074e-10 -2.4497628e-09 -3.2009528e-09 -8.705585e-10 6.557842e-10 3.08927e-10 3.870622e-09
2.8469258e-10 3.4248138e-10 -3.2037093e-09 2.8932219e-09 -5.245908e-10 5.5310295e-10 7.80447e-10 -4.4342494e-09
00000000: f32a 8fb0 8496 b8b0 95e4 26b1 baa8 e12f
00000010: 1b50 8230 38f9 2db0 e444 6430 1827 0331
00000020: afbd 04b2 ac15 a1b0 20f5 b230 6a58 d8b1
00000030: 33ba 8e30 0ebd 42b0 51ad c0b0 38ef 1931
00000040: 3be8 1730 90bc 5eaf d8a6 2eb1 b0e2 88b0
00000050: e89b 36b1 dae6 032f 2c14 82b0 dafa 8cb0
00000060: 50d0 ba30 91a5 9031 1c12 1db0 e010 972f
00000070: 7830 07af 3782 5db1 2003 a0b0 5cd7 03b1
00000080: 6300 0bb1 5e58 25b1 1d22 bf30 8c4b b4b0
00000090: f9b4 9831 4882 032f 323e e531 d6bf 85b1
000000a0: f686 3cae 67d2 8330 d250 21b1 f885 832e
000000b0: 5825 b630 749f da2f 825a 16b1 192d d1b0
000000c0: 885d 2bb1 b484 8d30 673d 4430 61f5 0bb0
000000d0: a903 1232 a42b cc30 619e 4d31 0940 a830
000000e0: b139 acb0 4f3e 6931 2f30 9030 e95b e52c
000000f0: caa7 4731 0dbc 57b0 77d6 e430 9755 4fb1
00000100: 52ad 7eaf 0aac 06b0 84c1 442f 5bbf 4331
00000110: 8641 932f 4c09 9c30 63cb 8031 1015 1ab1
00000120: 36c8 4831 2fdc 332f 7b09 bbaf bc16 24af
00000130: 5380 f0b0 76e9 39b1 8f25 8431 b54f 3030
00000140: e21e 1ab1 1702 c130 4d0f bab0 972d bf31
00000150: 07e5 5fb1 d948 2c30 92f2 2331 efd0 4931
00000160: 28d7 1db0 e2c2 35b1 66ed 05b0 e664 55b1
00000170: bd99 5c31 6d28 4e30 95c0 03b1 acdb 2331
00000180: ca47 912f 08bf 7db1 36be cc31 59d4 dd31
00000190: 49a8 5db0 a9e4 14b1 2e3a db2f a9eb 0031
000001a0: 70df 1c30 3059 4831 810f 71af b523 92af
000001b0: 7751 662f b891 9630 e3fb 2cb2 67fb 39ae
000001c0: 1f01 06b1 553c 4cb1 f05f 05b1 527d 4cb1
000001d0: 7e41 dc2e 80a2 ddae 8f11 cc30 6960 deb0
000001e0: 3f4a 20af 39f1 ac2f b50e a8b1 09c9 23b1
000001f0: 46e1 1530 5541 b62f 8058 78b0 a74e 1e31
00000200: b650 a931 cf1c 4e31 cd98 d230 36f1 0431
00000210: 17b0 d52f 7f31 4531 954e 34af c806 2530
00000220: d027 3431 f89f bab1 d280 1cb1 a296 dc2f
00000230: e1f7 9130 3b89 4332 7d53 062f 29d6 b3b0
00000240: ba94 6431 5a49 ed30 50fd 4930 9aac 15b1
00000250: cad5 baaf 0dc3 0bb1 476c fd2f 8790 d4b1
00000260: de55 87af 03cc 70b1 b85c 7530 76fe 9e30
00000270: 730b abb1 5cbc 8631 98e8 9db1 4c89 2e2e
00000280: 6a2f 0331 94c1 56b0 c74f 562d 524e 90b0
00000290: 7363 10b1 4c81 82b1 3930 3931 763f 1031
000002a0: 7817 6131 afb3 e92f 22ae 6d30 aacd 9a30
000002b0: e7ed 97ae d48f b7b1 8100 dc2f fe3f cf30
000002c0: 7ca0 172f 21d6 be30 66d7 372c a8d2 a230
000002d0: b5fd d9b0 4952 4a31 7c9c 9f30 ec43 9ab0
000002e0: 83d1 8d31 ec91 e430 cbf2 222f c0e1 0db1
000002f0: 3401 982e c8cd 0930 a6cc a0ae 172c 922f
00000300: 05bb 3cb1 e7a7 86b0 51ef d930 5ba8 0031
00000310: f92b 07b0 ae08 a1b0 52b8 6baf f1cb ebb0
00000320: 154d a7b1 aaca fcb0 8036 87af ab45 8c31
00000330: 0c2d b0b0 716b 3e2e 25f4 eeaf da01 f2b1
00000340: 2b87 6bb0 3072 a430 ff2f 1e30 ba1f 0031
00000350: 9848 9d30 1a3f 4530 ee26 0231 8f56 1131
00000360: 7a4a 7930 0dd0 6431 4df3 a3b0 7af1 33b1
00000370: 28f7 9830 bfc7 0cb0 8472 9230 33fb b4af
00000380: 13a7 6e30 594b 93b0 f64c 3930 57aa 0db1
00000390: 31cf 62b1 dd34 0031 8fd6 6e30 faae b12c
000003a0: 306f b9ad 36a5 ecaf e68d aa31 46c9 0031
000003b0: 9d39 df2d 3a5c d2af 3ffe 7eb1 519a 2d31
000003c0: 3169 7030 2fb9 e22f af58 28b1 c2f7 5bb1
000003d0: 1c4c 6fb0 b642 3430 9cd5 a92f 5afe 8431
000003e0: eb82 9c2f f847 bc2f 4028 5cb1 19d2 4631
000003f0: cc32 10b0 2909 1830 1387 5630 125c 98b1
