tf2/pretrained_weights/shinkai/deconv02_1.weight.npy (npy, 295040 bytes, 1 tensors)

array f4 [128, 64, 3, 3]
000000 cf eb c9 bb 9c fe 31 bd fc 99 7c bc 7e a5 a2 3c
       -0.006162144 -0.043455705 -0.015417572 0.019854303
000010 0c 29 2d 3d e5 75 04 3c 3f 7a 73 bc da 69 a6 bc
       0.042275473 0.008084749 -0.014860689 -0.020314146
000020 77 33 5e bc 06 57 82 3c 5a f3 b5 bc 05 0c bf bc
       -0.013562075 0.015910637 -0.022210766 -0.023321161
000030 9c ae c4 3c 48 06 7f 3b 2c b5 9f bc 62 72 01 3d
       0.024009041 0.0038913656 -0.01949557 0.031603225
000040 57 ce 9f 3a dd 5f 71 3c 7a 9c 07 bc 74 da e9 3b
       0.0012192231 0.014732328 -0.008277053 0.0071366373
000050 04 78 ec 3b 39 92 6f 3c 85 5b d0 3c 06 6a f1 3c
       0.0072164554 0.014622265 0.025434265 0.029469501
000060 0a 26 25 3d 3d a9 9c bc 33 80 c1 3c 5c 10 b4 3b
       0.04031948 -0.019123668 0.0236207 0.0054951143
000070 5d 16 1f 3c e5 e7 84 bb 10 dc 92 bc 3f b3 a7 bc
       0.009709922 -0.0040559643 -0.0179272 -0.020471213
000080 6b af 77 3b 90 5a c4 3c 77 f6 a7 3c c2 2e 3b bc
       0.0037793766 0.023968965 0.020503266 -0.011424722
000090 2b 51 ec bb 64 4c 41 3c cd 60 26 3b 8b 5b 24 3d
       -0.0072118244 0.011797998 0.0025387288 0.040126365
0000a0 98 fc 8d bd 7c 9e 93 3b 44 25 d2 bb ff c1 9f 3c
       -0.06932944 0.004504977 -0.006413134 0.019501684
0000b0 f9 e6 88 bb b4 c8 12 3c d7 ff 91 bc e1 0a c0 bb
       -0.0041779247 0.008958984 -0.01782219 -0.005860672
0000c0 57 dd 41 bc 3a 23 12 3c fe 7b 3f bd 58 cf e1 3a
       -0.011832557 0.0089195315 -0.046749108 0.0017227931
0000d0 78 67 e8 3c e0 64 ab bc 34 18 c3 3c 30 63 c3 ba
       0.02836965 -0.020922124 0.023815252 -0.001490688
0000e0 b4 b6 8a bc 49 dd c5 bc 32 f0 e0 bc 0b 0b 9b bc
       -0.016932823 -0.024153369 -0.027458284 -0.018926164
0000f0 01 8f 04 3c 69 09 8b 3c b7 fe bd bb 97 a2 dc 3b
       0.008090735 0.01697226 -0.0057981866 0.0067332494
000100 8c b2 85 3a a3 0f 72 bb c6 58 7c bc c8 e8 a6 bb
       0.0010200306 -0.003693559 -0.015402025 -0.0050936677
000110 0f 73 a7 bb 47 a4 bc 3c 8d 67 1a 3d df 4a ca ba
       -0.0051101516 0.023027552 0.03769641 -0.001543369
000120 2e 14 c8 bb 86 f1 a1 3b 13 2c 60 3c 37 cc 2c 3c
       -0.006105921 0.004942122 0.013682383 0.0105467355
000130 87 af f8 3a 46 28 3d bc d6 03 db 3c 66 d3 26 3c
       0.001897321 -0.0115452465 0.026735228 0.010182237
000140 6b 1d 01 3d 78 71 99 3b 13 33 51 bc ab b2 5f 3c
       0.031522196 0.004682716 -0.012768525 0.013653438
000150 0c 16 b1 3c 8c 17 ad bc 28 c2 a0 3b 99 3c 9e bc
       0.021616958 -0.021129392 0.0049059577 -0.019316005
000160 75 e8 d3 bc 85 4c d5 bb 93 66 1b bd 97 10 1d bd
       -0.02586768 -0.006509366 -0.03793962 -0.0383459
000170 65 ef 47 bb f5 07 98 bc 9b a9 3a 3c 0b a0 69 bc
       -0.003050768 -0.018558482 0.011392976 -0.014259349
000180 30 45 3c bc e8 f2 5e 3c a1 a8 32 3c fb 46 54 3d
       -0.011491105 0.013607718 0.010904462 0.051825505
000190 1c 79 02 3b c1 57 46 3b 14 27 83 3c 48 49 bc 3c
       0.0019908613 0.0030264708 0.016009845 0.022984162
0001a0 ce 26 2c bc cb bd ee 3b 86 bd 9c bb 12 45 ad 3a
       -0.010507299 0.0072858087 -0.004783335 0.0013219437
0001b0 41 25 b5 3c 38 d6 31 3d 50 64 a6 3c b6 60 ae 3b
       0.02211249 0.043417186 0.020311505 0.0053215874
0001c0 82 1a cb 3c 33 31 fe 3c 30 51 bd 3c 83 e9 ae bc
       0.024792913 0.03102932 0.023110002 -0.021351581
0001d0 05 e3 77 bc 3b 08 d5 bb e7 da 20 bd d2 4f d9 bc
       -0.015129809 -0.0065012253 -0.03927126 -0.02652732
0001e0 85 d8 89 bc ff 59 54 bc e7 82 cd bc 7a 39 d1 3c
       -0.016826877 -0.01296091 -0.025086833 0.025540102
0001f0 0f 6c 06 bd 9d 38 5b 3c 2f cf b3 bc d6 69 03 bc
       -0.032817896 0.013380197 -0.021949379 -0.008020839
000200 3c 43 b3 3b 80 ad 4f 3c a3 dd c2 3c cd 45 84 3b
       0.0054706614 0.012675643 0.023787325 0.004036641
000210 47 c5 87 bc bf 32 df bb 51 58 84 bc 63 4d 36 3b
       -0.016573561 -0.0068114693 -0.016155394 0.0027817122
000220 75 1e ee bc 91 5c 88 ba 7e 61 19 bc f1 5a 29 bd
       -0.029067257 -0.0010403564 -0.009361623 -0.041346494
000230 17 e2 81 3c 2d 8e 26 bd 82 1a 04 bd d0 14 65 bc
       0.015854878 -0.040662933 -0.032251842 -0.013982013
000240 6a d7 ef 3a 5f f2 a8 bb 6c 78 79 bc 77 14 9a 3b
       0.0018298451 -0.005155846 -0.015226465 0.0047021466
000250 f7 1a 3e bc 1b c2 54 3c b9 a4 ba bc b8 d7 96 3c
       -0.011603109 0.0129857315 -0.022783624 0.01841341
000260 64 74 57 3c 77 68 b8 3c 1f e4 23 3d 92 d2 f7 bc
       0.013150308 0.02251075 0.040012475 -0.030251775
000270 c1 dd 9d bb 22 5f 87 bc 72 d3 89 39 b6 39 e2 bb
       -0.004817695 -0.016524855 0.00026288215 -0.0069038523
000280 de 95 38 bc 46 66 38 ba ed d6 8d bb bd 34 89 3c
       -0.0112662 -0.0007034283 -0.0043285997 0.01674878
000290 1d 84 5f 3c b4 24 49 3d 7b 15 a5 bc 60 86 2c bc
       0.013642338 0.04910727 -0.020151844 -0.010530084
0002a0 51 6b 03 3a cc d0 23 3c 39 22 a6 3a 06 24 a1 bb
       0.0005013245 0.0099985115 0.0012674994 -0.0049176244
0002b0 60 e0 4b 3c d0 f2 37 3c 3b 56 14 3c 34 a4 70 ba
       0.012443632 0.011227325 0.009053762 -0.00091797416
0002c0 b9 08 db 3c a4 b6 99 bc d2 2f d3 bb 06 54 ad 3a
       0.026737558 -0.018763848 -0.0064449096 0.0013223893
0002d0 24 43 52 3b fe 70 f3 bb a9 dd 0a 3c a8 f6 91 bc
       0.0032083476 -0.007429241 0.008475699 -0.01781781
0002e0 e0 16 84 bb 8d 41 3b bb 8d bf 25 3c 00 5f 27 3c
       -0.004031047 -0.0028573007 0.01011647 0.010215521
0002f0 ff d3 5c 3c 47 f2 8f b9 3e 7b 13 3d d1 04 0d 3d
       0.013478278 -0.00027455596 0.036006205 0.03442842
000300 d1 96 ac 3c d3 92 ff ba 00 66 d4 bc 84 1b 20 bc
       0.021068009 -0.0019498713 -0.025927544 -0.009772185
000310 1a 08 5b 3d d7 82 aa 3a aa 01 70 bb f6 71 c6 bc
       0.053474523 0.0013008964 -0.0036622086 -0.024224263
000320 be 80 30 3c 79 1d 0a 3c 46 df 18 3c 18 a2 d5 3c
       0.010772882 0.008429878 0.009330576 0.026078269
000330 73 e3 e4 3b c1 af c7 3c b0 ba a9 3c ea d6 9e bc
       0.006985122 0.024375798 0.020718902 -0.019389588
000340 09 69 4f 3c 75 26 2b bd d5 2b 18 3a 06 35 10 3c
       0.01265932 -0.041784722 0.00058048713 0.008801704
000350 28 3f 0a 3d 47 8d f4 ba 47 48 b7 3b e6 fa e4 3c
       0.033751637 -0.0018657827 0.005593333 0.027951669
000360 e8 17 9d bd 4d 6c 56 bb b2 0c f7 bc 37 39 18 bd
       -0.076705754 -0.003271836 -0.03015742 -0.03716394
000370 b1 02 27 3d 4c c2 1f 3d b3 4e a1 3b 09 d7 29 bc
       0.04077405 0.039003655 0.0049227118 -0.01036621
000380 ac 78 a5 3c 9b 7f 6e bc 0a 56 99 bc f4 96 3a 3a
       0.020199142 -0.014556791 -0.018717784 0.00071178307
000390 17 29 72 bd 9e aa 81 bc 3c 12 e2 3c 59 95 13 bd
       -0.059121218 -0.015828427 0.027596585 -0.0360311
0003a0 4e bb 2e bd a3 6e 0a 3c 5e 63 00 3c d4 70 8e 3c
       -0.042659096 0.008449229 0.007836191 0.017387785
0003b0 90 86 ef 3b 1a 66 01 3c d1 5e ef 3c a9 c3 af 3c
       0.0073097423 0.007897878 0.029220017 0.021455603
0003c0 2d b8 b6 3b c5 c1 ae b9 7f 0b 88 3c 18 16 0a bc
       0.0055761547 -0.00033332236 0.016607044 -0.008428119
0003d0 fd 41 ce bb 1b dd d9 3c ed 5b de 39 33 4e 97 3c
       -0.0062944875 0.02659469 0.0004241163 0.018469905
0003e0 a9 56 11 3b 43 46 e2 bc d5 75 72 3c 02 26 2e bc
       0.0022176898 -0.027621394 0.014798601 -0.010629179
0003f0 43 04 45 3b 27 56 a1 3c cf 54 88 ba bd 9b 2e 3c
       0.0030062355 0.019694401 -0.0010401251 0.010657248
