tf2/style_transfer/cartoongan/pretrained_weights/hayao/conv05_2.bias.npy (npy, 1152 bytes, 1 tensors)

array f4 [256]
000000 07 96 0b 31 48 d5 7c 31 91 30 52 b0 1e 2e 22 ae
       2.0312443e-09 3.6792063e-09 -7.646657e-10 -3.6875496e-11
000010 6b d7 c6 30 37 40 6b 31 24 11 b3 31 fa 55 cf 31
       1.4467622e-09 3.4233503e-09 5.2115343e-09 6.0342673e-09
000020 81 ab 1f 31 ac 95 c9 31 ca 43 1b b1 50 bb 14 b0
       2.3235034e-09 5.8668856e-09 -2.2594002e-09 -5.4108273e-10
000030 7e 45 c6 b1 37 cb 34 b1 84 cf e8 31 7f a9 ea 30
       -5.7704588e-09 -2.6308962e-09 6.7756805e-09 1.7073915e-09
000040 ff 5b 61 b1 b2 c0 e4 2f 40 eb 07 b2 d3 76 6e 31
       -3.2794103e-09 4.1609877e-10 -7.911524e-09 3.4701102e-09
000050 9e 5d fa 30 4c ef 83 31 e9 b6 9d 2f 6d 45 26 b0
       1.8216502e-09 3.8398067e-09 2.86881e-10 -6.048911e-10
000060 85 49 ab 30 f7 98 a4 30 cc 14 88 b1 2d 9b 93 2e
       1.2462783e-09 1.1976046e-09 -3.9604853e-09 6.712351e-11
000070 d5 32 67 31 0c c9 46 b1 46 4a 91 b1 40 ff 5a b1
       3.3643819e-09 -2.8927074e-09 -4.2284993e-09 -3.1868268e-09
000080 84 3b a3 30 67 71 6e b1 ec 7b 97 2e 6c 4a da b0
       1.1876726e-09 -3.469802e-09 6.888698e-11 -1.588274e-09
000090 8a 50 a3 b1 b0 45 e1 30 44 da 9f 2f 10 04 da b1
       -4.7530806e-09 1.6390711e-09 2.9077019e-10 -6.345097e-09
0000a0 bd 8e d3 30 f9 10 3c b1 71 8b c8 30 d8 6d 7e b1
       1.5392839e-09 -2.7367248e-09 1.4591547e-09 -3.7024304e-09
0000b0 85 b2 60 b1 fc 45 2e b1 f1 1c b3 b0 20 09 f0 b0
       -3.2697767e-09 -2.5360114e-09 -1.303219e-09 -1.7464892e-09
0000c0 4d 09 14 b0 db 60 48 b0 81 32 35 30 44 d6 ce 2e
       -5.3855304e-10 -7.2897216e-10 6.5919187e-10 9.4058566e-11
0000d0 0a cc cd b0 67 58 4f b2 16 44 52 30 20 d1 c4 b1
       -1.4973704e-09 -1.2069086e-08 7.649431e-10 -5.7281255e-09
0000e0 d7 71 12 30 32 e9 98 31 15 48 07 31 29 67 5a 2f
       5.3276267e-10 4.4502935e-09 1.968606e-09 1.9863634e-10
0000f0 30 a2 a4 31 00 1a 98 b1 53 3b 7e 31 72 a9 c2 30
       4.791467e-09 -4.426738e-09 3.6995587e-09 1.4163517e-09
000100 f8 c3 a0 b1 49 09 44 b1 d1 e2 d3 30 4a 0c 70 b0
       -4.678892e-09 -2.8527032e-09 1.5416736e-09 -8.7328955e-10
000110 9d 1a 9d 30 7a 79 28 30 59 54 3e 31 38 7d 6f 30
       1.1430817e-09 6.129067e-10 2.7696585e-09 8.712564e-10
000120 fd f1 88 31 24 d9 9f 31 31 9a 91 b0 01 95 1a b1
       3.985632e-09 4.652195e-09 -1.0593962e-09 -2.2494648e-09
000130 ab c0 84 b1 38 df 3b b1 0f 7c d1 b0 c7 3a 69 af
       -3.8636094e-09 -2.7338967e-09 -1.5242011e-09 -2.1212108e-10
000140 7f 75 03 b1 c7 7f 87 b0 a4 01 0d b1 74 58 cc 31
       -1.9129798e-09 -9.858859e-10 -2.0519133e-09 5.9472374e-09
000150 bb c4 e7 b0 b6 92 11 30 86 d3 83 30 3f 87 b3 31
       -1.6863376e-09 5.295918e-10 9.591623e-10 5.2249614e-09
000160 d2 02 9e 2f 29 05 e5 af de 38 f8 30 c0 84 ab 30
       2.8742037e-10 -4.1658524e-10 1.8060538e-09 1.2479617e-09
000170 c0 78 27 ae a2 69 3a ae 7b c8 43 31 e4 2b 48 31
       -3.807865e-11 -4.2385324e-11 2.8490195e-09 2.912878e-09
000180 84 fb 02 b2 b6 08 27 b1 c8 57 01 32 24 e9 71 30
       -7.624184e-09 -2.430665e-09 7.528747e-09 8.80066e-10
000190 92 ee 0a 2f 88 58 ff 30 4b 26 bb b1 11 80 30 b0
       1.2635784e-10 1.8578854e-09 -5.4467697e-09 -6.421042e-10
0001a0 1c bc 07 b1 61 e2 16 32 cb 52 b9 2e 96 dc 0f 32
       -1.9752013e-09 8.782622e-09 8.427533e-11 8.373851e-09
0001b0 72 9e 68 30 6f b2 8b b0 3f b4 3e 30 f6 25 2a b1
       8.462627e-10 -1.0164295e-09 6.937774e-10 -2.4759834e-09
0001c0 8f 94 91 30 bf 81 38 31 a8 ea 29 b1 ac 5c b6 b1
       1.0592361e-09 2.6849276e-09 -2.4726123e-09 -5.3074327e-09
0001d0 7c 61 4e b0 a1 70 a2 30 83 0b a2 b0 90 98 72 b1
       -7.5080897e-10 1.1819062e-09 -1.1790323e-09 -3.5302357e-09
0001e0 e0 02 12 30 85 e4 c0 b0 03 e3 fa b0 35 0d 03 31
       5.3118576e-10 -1.4034788e-09 -1.8254415e-09 1.9070516e-09
0001f0 b7 2d 8f 30 ca 57 d9 2d 2e b7 58 2f 9b 77 28 b0
       1.0417612e-09 2.470903e-11 1.9710164e-10 -6.1288014e-10
000200 32 67 87 31 16 8f 8c 31 9e 03 2b 31 0a 9d 60 b1
       3.940749e-09 4.0908033e-09 2.4885831e-09 -3.2685556e-09
000210 06 b6 c1 30 3e cb 17 b2 85 de 84 b0 5f 6c ca 2f
       1.4094332e-09 -8.835569e-09 -9.667508e-10 3.6820588e-10
000220 fb e9 1c b2 9f 2c 8f b1 ff c0 2a b1 f1 64 ae ae
       -9.133596e-09 -4.1669206e-09 -2.4847961e-09 -7.930535e-11
000230 76 b6 a7 b1 b9 62 5f b1 f5 39 c2 b1 a7 4e e1 b1
       -4.881083e-09 -3.2506888e-09 -5.652732e-09 -6.5573036e-09
000240 cb ed 22 31 c7 51 0a 32 bf 8e 58 b1 ab 52 c1 ae
       2.3709272e-09 8.051251e-09 -3.1513279e-09 -8.791309e-11
000250 7a 12 d4 30 0a 02 42 b0 90 b4 0f 30 35 85 26 32
       1.5430281e-09 -7.0579687e-10 5.227969e-10 9.6927595e-09
000260 d1 57 b1 b1 9b 05 93 b1 a9 99 30 b1 32 72 46 30
       -5.1613616e-09 -4.2789003e-09 -2.5698716e-09 7.219426e-10
000270 06 10 49 31 2b b8 d9 b1 13 b1 96 31 df 8d 88 30
       2.9258458e-09 -6.3364687e-09 4.3857056e-09 9.935625e-10
000280 85 e5 c9 31 b8 20 e9 2f 3f e6 ab b1 b4 56 a9 b0
       5.8759633e-09 4.24057e-10 -5.002931e-09 -1.2321011e-09
000290 c5 5d b0 b0 43 a4 28 b1 95 ed 9b b0 f6 50 cb 30
       -1.2832336e-09 -2.454059e-09 -1.1345259e-09 1.4793204e-09
0002a0 63 c8 16 32 50 31 87 b0 23 00 68 af 4c 6a bf 30
       8.776712e-09 -9.836558e-10 -2.1100326e-10 1.392729e-09
0002b0 82 62 43 30 86 c5 7f b0 e1 34 c3 af 08 58 b1 30
       7.1080575e-10 -9.304916e-10 -3.5507866e-10 1.2903465e-09
0002c0 f1 05 10 b0 6c 68 0a 31 6a 6d 0b 30 04 13 a5 af
       -5.239534e-10 2.0141e-09 5.072339e-10 -3.0026837e-10
0002d0 2e 9d 1e b1 51 9a 73 b1 27 bf 8f b0 af 4f 56 b0
       -2.3081372e-09 -3.5448873e-09 -1.0458948e-09 -7.7965984e-10
0002e0 3e 9e d2 b1 10 a1 45 b1 d9 6e 8a 2e 69 3b 5e 32
       -6.1297944e-09 -2.8758826e-09 6.295204e-11 1.2935609e-08
0002f0 21 a1 64 30 ba de bd ae 53 d8 ab 31 47 8c 89 b1
       8.3174895e-10 -8.634289e-11 5.0013482e-09 -4.0031725e-09
000300 e5 e7 92 31 39 d0 9e b0 8a 63 34 31 e1 e6 a3 31
       4.2755226e-09 -1.1555193e-09 2.6250029e-09 4.7701723e-09
000310 54 fc 25 b1 a3 f3 fe b1 45 e6 e3 ae 30 f7 95 30
       -2.4154092e-09 -7.4200712e-09 -1.0363669e-10 1.0911432e-09
000320 5d 01 bb b1 2d bf 8c 31 4a d9 0a 2f a8 67 be 2f
       -5.4425713e-09 4.0962704e-09 1.2628223e-10 3.463445e-10
000330 5d fb 88 b0 c7 df 12 31 6e 58 da b0 1f a4 95 b1
       -9.966744e-10 2.1373e-09 -1.5886721e-09 -4.355129e-09
000340 9c 1a 86 b0 53 1d f7 31 58 74 cb b0 d1 21 99 31
       -9.757346e-10 7.19198e-09 -1.4803261e-09 4.4567305e-09
000350 5e f3 8e b1 07 8a 86 30 a1 a4 f5 b0 26 1e 9a b1
       -4.1604116e-09 9.789013e-10 -1.7872887e-09 -4.4854174e-09
000360 2d 17 9e b0 72 ca d5 30 95 59 12 31 59 b4 c4 31
       -1.15026e-09 1.5555328e-09 2.1296718e-09 5.724854e-09
000370 85 6d 90 b1 fd 4b ea 30 09 01 de 30 3f 2c b3 30
       -4.2034025e-09 1.7047338e-09 1.615292e-09 1.303654e-09
000380 e2 93 6a b1 0e d7 02 b2 5f 83 0f b2 b4 91 97 b0
       -3.4135543e-09 -7.615894e-09 -8.353566e-09 -1.1028107e-09
000390 82 59 4c 30 dd 0a f9 30 e9 f4 26 b1 8a 06 d7 31
       7.4341966e-10 1.8120222e-09 -2.4295395e-09 6.258067e-09
0003a0 ab dd 1a b0 82 dd 11 30 4e 84 07 af a2 fb 3f b1
       -5.633988e-10 5.3065474e-10 -1.2325183e-10 -2.7937195e-09
0003b0 51 4a 2d b1 4e 3a f3 30 9c ce 1e 30 ec 8c 95 b1
       -2.5217057e-09 1.7697148e-09 5.7773675e-10 -4.3524917e-09
0003c0 a9 ff ab 30 d8 c4 4b 30 f9 21 95 b0 5d 81 07 b2
       1.251455e-09 7.41307e-10 -1.0850832e-09 -7.887448e-09
0003d0 c8 f0 2f b0 d6 42 69 30 1d 78 ba 31 42 a5 3a 31
       -6.40068e-10 8.4859886e-10 5.4269678e-09 2.71605e-09
0003e0 5b d1 5e ae b6 15 46 31 e7 b2 a6 b0 4a 21 9e 30
       -5.06629e-11 2.8825133e-09 -1.2128937e-09 1.1505474e-09
0003f0 55 8a 33 b1 38 de 8f b1 a1 ee b1 b1 6c d0 0c b1
       -2.612656e-09 -4.187111e-09 -5.178507e-09 -2.0491155e-09
